checkpoint_critic_target_1.pth (torch_old, 51114 bytes, 15 tensors)

fc1.weight f4 [64, 48]
000000 88 2b eb 3d c3 39 43 be 2d 04 34 bd 4b 5e 26 3f
       0.11482912 -0.19065003 -0.043949295 0.6498763
000010 b9 a3 5a 3d bd f4 2f bf 7a b2 15 3d e3 3b 5d 3f
       0.053378794 -0.68732816 0.03654716 0.86419505
000020 18 bc 17 3e a4 bb 7b 3f 74 68 9e 3d b9 19 ea 3e
       0.14817846 0.9833319 0.077347666 0.4572275
000030 d8 67 31 be 0c 6d d9 be 86 df 02 be 64 3d c1 3e
       -0.1732477 -0.4246601 -0.1278058 0.3774215
000040 0b a8 9d 3e d9 40 a0 3f ec b9 0e bc 84 d4 b8 bf
       0.3079227 1.251979 -0.008711319 -1.4439855
000050 8b 2e 8a 3c a3 88 11 3f 07 e6 63 bd 82 c1 b6 bf
       0.016867897 0.56849116 -0.055639293 -1.4277804
000060 e9 3f 83 be 97 e6 8a 3e f4 d7 cd 3d 7f a2 63 3d
       -0.25634697 0.2712905 0.100509554 0.05557489
000070 e6 99 29 bd 12 f3 01 bf a3 96 6c bd eb 00 08 3d
       -0.041406535 -0.5076152 -0.057760846 0.033204
000080 40 57 6e be 62 63 28 3d ab 71 3d 3d 9d a4 a1 3e
       -0.2327547 0.041110404 0.04625098 0.31570902
000090 27 cb 38 3e df b7 d5 be 9f 8d 67 3b ad 98 67 3e
       0.18046246 -0.41741845 0.0035332215 0.22616835
0000a0 2a 69 73 3e e4 38 fe 3e a3 9f 01 3d a0 58 c4 3d
       0.23770586 0.4965278 0.031646382 0.095872164
0000b0 b3 a5 16 bd da f0 0e 3f 9c 4f fd bc fe 5f 87 3d
       -0.036779117 0.5583626 -0.03092175 0.06610106
0000c0 48 38 f9 3d 69 df a3 3d 22 aa 2b bd 05 78 b6 3d
       0.12168938 0.080015965 -0.0419103 0.08909611
0000d0 97 55 2d bf f0 e1 85 be d3 5f 25 3d 65 9a 67 bd
       -0.67708725 -0.2614894 0.04037459 -0.056543726
0000e0 48 f4 8a 3c b5 e3 76 3d 5c ed d4 bc 3c 3d a1 bc
       0.016962186 0.060275752 -0.025992088 -0.01968252
0000f0 f0 1b 8b 3d c1 df ed be f6 00 4e 3d 69 97 66 bd
       0.06792438 -0.46459773 0.050293885 -0.05629674
000100 1a a9 a5 3d 96 7f 6c 3e 6f 9e 79 bd 55 8b a4 bd
       0.08088894 0.23095545 -0.06094211 -0.08034388
000110 89 26 28 3f b2 1c ff bb 2f cd b6 3d 21 41 9c 3d
       0.656838 -0.007785403 0.089258544 0.0762961
000120 41 f2 04 3e be af 85 bf f0 c7 c6 3c f4 87 87 3d
       0.12983038 -1.0444257 0.02426526 0.06617728
000130 03 77 16 3f d0 f8 d8 be 05 ab 08 bd 52 68 d1 3a
       0.5877535 -0.4237733 -0.033366222 0.0015976524
000140 50 83 7e be 03 c2 af bf 80 90 82 3d 02 3b 48 bd
       -0.24854779 -1.3731083 0.063752174 -0.0488844
000150 47 e0 7b bd f0 2c eb be fe cc 2f bd 15 b9 c2 bd
       -0.061493184 -0.45932722 -0.042920105 -0.09507958
000160 90 48 61 bf 53 13 d3 bf 68 6a ca 3d 91 0d d3 be
       -0.88001347 -1.6490272 0.09883577 -0.41221288
000170 d4 d0 2b bf 40 03 56 3e 1c 57 b0 bd e0 96 c3 be
       -0.6711552 0.20899677 -0.08610365 -0.38201046
000180 31 bf f3 be b6 8d 8b bf 4a 46 26 3c b5 2e 5a 3d
       -0.47606805 -1.0902622 0.010148594 0.0532672
000190 54 2f 0b 3f d8 c5 46 3e 7f fd 36 3d 72 14 1b be
       0.5436909 0.19411409 0.044675346 -0.15144518
0001a0 0f c3 56 3e d9 65 98 bf 9e 56 38 3d 14 8f 70 bd
       0.20972846 -1.1906081 0.04500448 -0.0587302
0001b0 d5 8e 24 3e 85 d9 aa be af 17 e1 bd a2 5c b8 3d
       0.16070111 -0.3336908 -0.109908454 0.09002043
0001c0 b3 f8 e0 3e 3c 9a 83 bf 8c 23 6c bd 04 eb 2a 3e
       0.43939742 -1.0281444 -0.057651088 0.16691214
0001d0 1b 49 59 3e 04 04 bd bf 45 28 51 bb 36 1a 54 3d
       0.21219294 -1.476685 -0.0031914872 0.05178281
0001e0 b2 91 cd 3e 44 18 04 bf 32 46 9b 3c cc a1 81 bc
       0.4015022 -0.51599526 0.01895437 -0.015824221
0001f0 87 60 ef be 1a 9d 7c 3d 3b bc 97 3d e8 44 ac bd
       -0.46753332 0.06167326 0.07408949 -0.0841158
000200 ac 81 11 3f af 16 ed be 4b ed a1 3c ae 95 9d bc
       0.5683849 -0.4630637 0.01976647 -0.019236412
000210 9d 9a 4b be eb c5 08 bf 6f de b3 3c 84 ec 94 bd
       -0.19883199 -0.53427 0.02195665 -0.07271674
000220 12 c6 c6 3e 5f 9d 5e bf fa be 6f bc 13 3b aa be
       0.3882299 -0.8695888 -0.014632935 -0.33248195
000230 c1 c9 79 bd fd 55 a5 bf d9 a5 01 be 2b 9b 09 bf
       -0.060983423 -1.2916867 -0.12660922 -0.5375239
000240 a2 37 b1 3d ee 7c 50 3f 37 6e 72 3c a9 ad 98 bd
       0.08653189 0.8144063 0.014796785 -0.07454998
000250 12 0a 40 3e 98 3f 8e bd 4f 35 6d 3b a1 22 22 be
       0.18753842 -0.06945723 0.0036195104 -0.15833522
000260 69 9f b3 3e 48 7a 18 3f d2 04 95 3d a1 f6 a5 3e
       0.35082558 0.59561586 0.0727631 0.32414725
000270 cf 32 29 3e 9a 62 74 be 03 39 b7 bd 74 3c 6d 3e
       0.16523288 -0.23865739 -0.08946421 0.23167592
000280 60 92 4c 3f 80 f9 70 3f a5 57 3e 3d da c8 0e 3f
       0.7991085 0.94130707 0.046470303 0.55775225
000290 e4 dc cf 3d dc 2f c0 be 14 e5 e5 bc bb 25 10 3f
       0.101495534 -0.37536514 -0.028063335 0.5630757
0002a0 05 bd 9d bd 1d e4 ef 3e 3f b9 e3 bd 43 57 8d 3d
       -0.07702068 0.46853724 -0.11119317 0.069014095
0002b0 70 3f 9f be a5 f8 29 3d cc de b6 3d 40 5f ab 3b
       -0.31103086 0.04149689 0.08929214 0.0052298605
0002c0 19 8e 60 be e6 49 47 3f 0c 68 c4 bd 40 27 31 3f
       -0.21929206 0.77847135 -0.09590158 0.69200516
0002d0 5e 2e 89 be f6 de 49 be 33 25 ac 3d 1c 21 45 3f
       -0.26793188 -0.19713959 0.08405533 0.77003646
0002e0 e7 18 03 3e 5f c9 75 3f 46 aa 18 39 7d 53 6e 3e
       0.12802468 0.9601039 0.00014559281 0.23274036
0002f0 62 bd 09 be 71 28 0b bf bf 2f 15 bd 23 d1 ec 3d
       -0.1345115 -0.54358584 -0.036422487 0.11563327
000300 48 70 c9 bd cf a0 87 bf 37 a6 5a 3d d8 a4 b9 3e
       -0.09835869 -1.059595 0.05338117 0.36258578
000310 e8 19 0f 3e ea 6a 5b be 2f 1e 84 3d cb 96 b3 3e
       0.13974726 -0.21427503 0.064510696 0.35075983
000320 a0 51 88 be ee d4 0e bf cf 48 c5 bd ba d9 0f 3e
       -0.26624775 -0.55793655 -0.09633028 0.140479
000330 05 6b 37 be 64 c9 4c bf c3 c2 c2 3d 57 9b 78 3e
       -0.17911918 -0.799948 0.09509804 0.24278007
000340 79 19 5f be 45 fc c6 be 19 33 2b bd 42 0d 5a 3f
       -0.21787061 -0.3886434 -0.041796777 0.8517648
000350 0e 5c 14 be 0c 8d 98 bf 0e fa dc 3d 51 c3 5d 3f
       -0.14488241 -1.1918044 0.10789882 0.86626154
000360 e6 98 46 3e aa 61 36 3e 45 bc 41 bc 60 34 3a 3e
       0.19394264 0.17810693 -0.011824672 0.18184042
000370 99 ec 8c be f5 7d a4 bd 42 e7 f4 bd 03 e3 17 3e
       -0.2752426 -0.08031837 -0.119581714 0.14832692
000380 33 8f f2 3e 6b 0f 9a 3e 5a c1 7e bd 03 70 99 3e
       0.47374877 0.30089888 -0.062196113 0.2996827
000390 ab ad 74 3e 60 f7 49 bf c9 8c 60 bd cd ce 02 3e
       0.23894374 -0.7889309 -0.054821763 0.127742
0003a0 58 b0 15 3f 07 34 c2 3e 07 c1 6b 3d a8 50 56 be
       0.58472204 0.3793032 0.057557132 -0.20929205
0003b0 39 5d 81 3e 43 5d b3 bf b4 62 72 bc e6 0b 96 be
       0.25266436 -1.4012836 -0.0147940405 -0.29305953
0003c0 20 5b de 3d 60 71 6b bd 36 5a 23 bd eb 0e ea 3d
       0.108572245 -0.05748117 -0.039880954 0.114286266
0003d0 b8 99 2a 3e 87 5e 2b 3f 09 7c 99 3d f8 00 b4 bd
       0.16660202 0.6694111 0.07494361 -0.08789247
0003e0 c6 35 35 be 71 f1 7b bc 0c d8 05 3c 5c 50 a1 bc
       -0.17696294 -0.015377388 0.008169185 -0.019691639
0003f0 4b f5 0d 3d 72 b9 ab bc 91 9f 04 3d 48 64 1f be
       0.034657758 -0.02096245 0.032378737 -0.15565598

fc1.bias f4 [64]
000000 07 62 b3 be 02 8d 36 bd 00 08 0b bf 1a 9d a2 bf
       -0.35035726 -0.04456807 -0.5430908 -1.2704194
000010 79 10 e2 3e c1 b8 30 3f c1 25 d2 be c6 fb 3d 3c
       0.44153193 0.6903191 -0.4104443 0.011595672
000020 a9 56 fc be b7 77 80 3e c0 56 23 3e a4 63 04 be
       -0.49284866 0.25091335 0.15951061 -0.12928635
000030 1e 35 69 3e 71 41 97 be ef 2c d7 3c 16 bd 6b 3d
       0.22774169 -0.29542115 0.026266543 0.057553373
000040 48 fa 31 bf a1 4e 3c 3e c9 4c 46 bd 19 63 f1 3e
       -0.69522524 0.1838937 -0.04841307 0.47145918
000050 32 90 64 bd a4 64 b1 3e ba ca 34 be 2e f9 22 3e
       -0.055801578 0.34647095 -0.17655459 0.15915367
000060 f5 d5 de be 60 79 42 bf cc a0 ca be 98 83 1c be
       -0.4352261 -0.75966454 -0.39575803 -0.15284574
000070 c1 3c 31 bf 96 9b d7 be e0 64 82 be a2 3c fb be
       -0.6923333 -0.4211089 -0.25467587 -0.49069697
000080 c8 ad 84 3e c2 63 9d be b7 20 b9 be c8 46 96 bf
       0.25913835 -0.30740172 -0.36157772 -1.1740351
000090 5c 61 3d 3e b7 e8 17 be 6b 5a 87 be 42 2e 6b be
       0.18494171 -0.14834867 -0.2643617 -0.22966865
0000a0 38 e7 04 bf 9e e3 ad bf 61 ad 37 3f eb b9 0d bf
       -0.5191531 -1.3585088 0.7174893 -0.55361813
0000b0 4c 86 c4 be 41 79 06 bf 50 ed a7 3e e4 7b 5d bf
       -0.3838371 -0.5252877 0.32798243 -0.8651717
0000c0 d4 a8 64 be 91 67 86 3e 41 2c 52 bd 67 e4 48 bf
       -0.22330028 0.2625089 -0.051311735 -0.78473514
0000d0 8e b6 a0 be fd 07 c6 be b3 a2 00 bf 85 c6 b5 bc
       -0.31389278 -0.3867797 -0.5024826 -0.022189388
0000e0 c7 bb 83 be c8 88 2f be d7 7f 9b be 3f 53 61 3f
       -0.257292 -0.17142022 -0.30370972 0.8801765
0000f0 13 5c 00 3d c7 ce e9 bd eb 27 21 bf a5 69 91 3c
       0.03133781 -0.11416393 -0.62951535 0.01775057

fc2.weight f4 [64, 68]
000000 e8 8d 50 3e d9 72 d2 3d fc 5b c7 be e1 95 ec be
       0.20366633 0.10275812 -0.38937366 -0.462081
000010 e3 1c c5 bc 8b e5 5d 3e bf a8 1c 3e 0c 63 16 bf
       -0.024061626 0.21669595 0.15298747 -0.58744884
000020 aa 4e 18 3e ca 12 ae 3d fc 6f 10 3f 03 35 08 3f
       0.14873758 0.084996775 0.56420875 0.5320589
000030 40 b5 9a 3e 1c d5 80 bd 75 da 21 3e 6f d2 4e 3c
       0.30216408 -0.062906474 0.15805991 0.0126234135
000040 a2 c6 e3 3d d2 21 28 bd e9 27 23 3f 7f 9f b9 bd
       0.111218706 -0.04104788 0.63732773 -0.090636246
000050 53 d5 ad 3d bc 62 ee be 26 0d 08 3e 54 5b cd 3d
       0.08487954 -0.46559703 0.13286266 0.10027185
000060 e9 28 85 bd 2f 49 48 3e f9 6f 33 3e 7c 4b d9 3d
       -0.065019436 0.19559167 0.17523183 0.106101006
000070 0f 34 2b be 67 df 1d bc d3 dc 2d 3c 78 c8 3e 3f
       -0.16719078 -0.009635783 0.010611731 0.7452464
000080 4c ad df 3d b6 dd 23 3e 56 f0 91 be 15 35 8e bd
       0.10921726 0.16002545 -0.28503674 -0.06943718
000090 04 bd d9 be 36 5d 67 3e 6a 16 bf 3e 02 f7 49 3c
       -0.4252702 0.22594151 0.37321788 0.012326958
0000a0 da e8 92 be 55 a5 c7 bd 51 8b a4 3e 49 d2 88 3d
       -0.28693277 -0.097483315 0.3213754 0.06680734
0000b0 3c 85 97 bc 88 bc 28 be 1d 86 34 be 29 8e 42 3e
       -0.018496148 -0.16478169 -0.17629285 0.18999542
0000c0 fd 8a 0c be 5b 1c df 3e 06 85 89 bd ee b0 27 3e
       -0.13724895 0.4357632 -0.06714825 0.16376087
0000d0 b3 54 10 3e 71 64 9c bd 83 12 ac bd d2 2a a9 bd
       0.1409481 -0.07636345 -0.08401968 -0.082601205
0000e0 7e e8 39 3d 99 09 5f bf 87 e0 c4 ba a3 c8 f6 bd
       0.045387737 -0.8712402 -0.0015020528 -0.12049987
0000f0 90 a3 64 3e 71 5f c5 be ac ad 74 bd 2c 55 20 be
       0.22328019 -0.3854938 -0.05973594 -0.1565749
000100 43 2e 03 bf 80 2f a1 3f 24 d2 a9 3f 4c 05 9f bf
       -0.51242465 1.2592621 1.3267255 -1.2423491
000110 b5 cf be 3b cf c1 9e bd e7 8b 14 be 84 92 73 3e
       0.0058231005 -0.0775181 -0.14506494 0.2378636
000120 52 97 11 be 77 20 e6 be b4 2a 17 bd 8e 92 a0 be
       -0.1421788 -0.44946644 -0.03690596 -0.31361812
000130 2b 8e 5d 3d 34 16 16 3c a4 4f 56 3d 50 38 af 3d
       0.05409066 0.009160567 0.052322045 0.08555663
000140 82 24 d0 3d 57 b7 97 3d 9b 7a 41 3b 17 09 85 3d
       0.10163213 0.07408016 0.0029522541 0.064958744
000150 e2 54 f1 ba 25 d7 c4 be 00 2a 93 be 43 0e a5 3e
       -0.0018412138 -0.38445392 -0.2874298 0.32237443
000160 47 b6 9a be e9 01 d8 3e af df 0c be 2f 03 14 3d
       -0.30217192 0.42188957 -0.13757204 0.03613585
000170 32 60 9d 3d 0f 64 4a be b9 bd ed 3d 76 5d 00 3f
       0.076843634 -0.19764732 0.11608452 0.5014261
000180 4b 64 f4 be 33 da 08 bd 1e 2c 5b bc b0 fc 75 3c
       -0.47732767 -0.033411216 -0.013377218 0.015013859
000190 ac bc 55 3e d9 fa 26 be 66 bf f3 bb 58 e9 1e bd
       0.20872754 -0.16306628 -0.007438588 -0.038796753
0001a0 0d 63 b3 3c aa 2f 73 3e 0e ab 95 3f bb ac 21 bd
       0.021897817 0.23748651 1.1692827 -0.03947137
0001b0 28 66 de bf 6c 49 9a 3d 31 d1 84 bc b3 bd f4 3a
       -1.7374926 0.07533535 -0.016213031 0.0018672257
0001c0 6f 5f 2b be 59 9d ae 3d 6d eb d4 bd c1 30 22 bd
       -0.16735624 0.085261054 -0.103964664 -0.039597277
0001d0 6c 9d b5 be d6 8d 34 3d 08 02 bf 3d fb 9f d4 bc
       -0.35471666 0.044080578 0.09326559 -0.02595519
0001e0 01 da 19 bd 71 34 86 bd 10 29 ea bb 7d 4d ac be
       -0.03756142 -0.06552971 -0.0071460083 -0.3365287
0001f0 5b 4f a0 3e b4 f2 af be f6 85 a0 bd d7 b7 00 be
       0.31310543 -0.34364855 -0.07838051 -0.1257013
000200 6c 32 74 be f6 1c 90 3d d8 7d 80 bd 0c a8 3f 3e
       -0.2384736 0.07036774 -0.06274003 0.18716449
000210 ff d6 51 3e 7f d7 eb be 85 e8 fa 3e ac 9d 35 be
       0.20492171 -0.46062848 0.49005523 -0.17735928
000220 37 82 68 3d de 50 55 be 3f 95 a4 3c 4c 0d 7e 3e
       0.056764808 -0.2083163 0.020090697 0.2480976
000230 1d 39 09 bd d9 63 92 be fa 4f ca 3d d2 71 37 be
       -0.033501733 -0.28591803 0.098785356 -0.17914513
000240 e8 7d 11 be 02 a2 84 be 06 d6 4b 3e fd 17 0b be
       -0.14208186 -0.25904852 0.19905862 -0.1358337
000250 e1 6c 40 be 15 e6 1f bd 6f 50 5c bd 16 12 58 bd
       -0.18791534 -0.039037783 -0.053787645 -0.052751623
000260 10 69 54 bf 16 3c 0b 3d f3 8a 85 3d 42 c6 02 be
       -0.8297281 0.03399285 0.06520643 -0.12770942
000270 7b d4 80 bc df a4 0a bc 50 44 74 be b0 da 44 3e
       -0.015726319 -0.00846216 -0.23854184 0.19224048
000280 97 e8 dc 3d 1f ac 10 3d d8 91 17 be 35 5d 91 be
       0.107865505 0.035320397 -0.14801729 -0.28391424
000290 6b 05 86 bd 4a 8a e4 3d 86 1f 42 3e 61 19 11 be
       -0.06544002 0.11159189 0.18957338 -0.14169838
0002a0 36 4c 28 bd 0a 0a eb bd 60 8b 45 be 43 76 5f bd
       -0.041088305 -0.11476524 -0.19291449 -0.054556143
0002b0 c1 04 6c 3d 13 29 19 3e a0 ff 7f 3d 72 e6 1c 3e
       0.05762172 0.14957075 0.062499642 0.15322283
0002c0 49 c8 8a be 80 4c 51 be c5 31 cb 3c 0a d6 24 be
       -0.2710593 -0.20439339 0.024804005 -0.16097274
0002d0 13 05 ff 3d 49 e5 6f be 78 aa 14 be d6 b0 04 be
       0.1245214 -0.23427309 -0.14518154 -0.12958083
0002e0 b8 5c c6 3e da c6 52 bf dc 98 76 be 7b 17 f9 3d
       0.38742614 -0.82334673 -0.24081749 0.12162682
0002f0 9d 4d ce be 4f 3d e8 bd db 29 4f bd 8c 8d 48 3f
       -0.4029359 -0.11339819 -0.050577026 0.78340983
000300 d8 27 86 bd 7b 48 d8 bc 03 5b 0c be fb b4 a8 3d
       -0.06550568 -0.026401749 -0.13706593 0.08237644
000310 74 a0 83 3d 20 84 45 3e ce 54 bb 3d 1b a3 96 bd
       0.064270884 0.19288683 0.091470346 -0.07355329
000320 ae c4 64 be 55 22 cb 3f bd c7 bf bf 16 a1 1e 3f
       -0.22340652 1.5869852 -1.498283 0.6196455
000330 a8 f7 8b be 96 a4 01 3e bb eb a4 bd 2c 31 7e 3d
       -0.27337384 0.12660441 -0.080527745 0.062058613
000340 64 89 b0 be a5 f0 e2 3e ab 6b 1c be ae 54 f4 bc
       -0.3447982 0.44324222 -0.15275447 -0.029825535
000350 57 4d 97 be ca 6f b1 3e 2e 23 e0 3e b6 ae 04 3e
       -0.29551193 0.346556 0.4377684 0.12957272
000360 d6 ae eb bb f1 48 6e be ac 7f d4 bd 2e 3b f8 be
       -0.007192473 -0.23270012 -0.10375914 -0.4848265
000370 a0 94 15 3b 4a f6 0c be 01 05 3e 3d 2a 22 a8 bf
       0.0022824183 -0.13765827 0.04639149 -1.3135426
000380 f0 4a 29 3e 6f 21 2c bf d1 5d 4a bd 16 74 1d bf
       0.16532493 -0.67238516 -0.049405877 -0.6150526
000390 7c 44 e9 be 09 f9 37 be eb 2b d4 be 8b f0 97 bd
       -0.45560062 -0.17966093 -0.41439757 -0.07418927
0003a0 70 67 0d bc 03 13 35 be ca e4 cc 3a 4e bc 22 be
       -0.008630618 -0.17683034 0.0015632149 -0.15892145
0003b0 11 76 19 be 3b 44 c4 bd e2 55 18 bd c3 27 e7 be
       -0.14986445 -0.095833264 -0.03719128 -0.45147523
0003c0 43 2c 26 be e0 c4 5f 3d b7 af 9e bd 28 99 0a be
       -0.16227822 0.054631114 -0.07748359 -0.13534987
0003d0 6c d4 2a 3e 36 3e 23 bd 94 2b cb 3d 78 e4 23 3e
       0.16682595 -0.03985425 0.09920421 0.16005123
0003e0 39 17 83 be 67 d7 f6 bd 1d 9a c3 3d 7e 08 c2 be
       -0.25603655 -0.120528035 0.09550879 -0.37897104
0003f0 cc de e8 3e e9 ce 0d 3d 18 fc 8f be f2 08 c5 bd
       0.4548248 0.034621153 -0.2812202 -0.09620847

fc2.bias f4 [64]
000000 6a 92 b4 3d a8 a6 d9 3d b4 04 37 3d 30 89 e5 bd
       0.08816989 0.1062749 0.04468222 -0.11207807
000010 64 0b d5 3d 6a 4b c4 3d 24 23 15 3d 57 42 25 bc
       0.10402563 0.095846966 0.036410466 -0.010086617
000020 a1 18 ab bd d2 40 db 3c 87 b4 2c bd 18 85 de 3d
       -0.08354307 0.026764307 -0.04216435 0.10865229
000030 70 84 f7 bd f7 02 d6 3c 50 41 27 bb cc 16 ae 39
       -0.12085807 0.02612446 -0.0025521107 0.0003320485
000040 f5 f1 76 bc 20 25 52 3d 89 46 d5 bd 4b fa d5 3c
       -0.0150723355 0.051304936 -0.10413844 0.026120326
000050 88 59 a5 bd 04 03 1e 3d 40 12 29 bc 9e f6 7b 3c
       -0.08073717 0.038577095 -0.010319293 0.015378622
000060 7e ee 8b 3d 8d 6d 45 bd d7 e7 c7 bd 3c 49 67 bd
       0.06832598 -0.04820018 -0.09761017 -0.056466326
000070 32 73 ca 3d 02 17 ca bd 28 80 9d 3d 0f 6a 2f bd
       0.09885253 -0.0986767 0.076904595 -0.042825755
000080 7b 71 cf 3b 73 73 4b 3d 3d 19 2f bd d0 10 ab bd
       0.0063306666 0.049670648 -0.04274868 -0.08352816
000090 19 40 28 3d 77 f6 95 3d 8e 55 39 3d 5c d9 88 bb
       0.041076753 0.073224 0.045247607 -0.004176302
0000a0 b4 d2 53 3c 29 c3 50 3d d0 2c 1e 3d b8 24 76 bd
       0.0129286535 0.05096737 0.038616955 -0.06009361
0000b0 5e eb b2 3d 26 e4 84 bc e0 0c 44 bd 40 d4 15 bd
       0.08736299 -0.01622207 -0.04786384 -0.03657937
0000c0 0f 84 84 3c 70 8a 80 bd 92 31 b5 bd 5a 7d 8a 3d
       0.016176252 -0.06276405 -0.088473454 0.0676219
0000d0 8f b7 ca 3d 0e f1 f6 bd 56 a4 c5 3d c8 f0 91 bd
       0.09898292 -0.12057696 0.09650485 -0.071260035
0000e0 f1 e1 ea 3c 09 ca e5 3d 9a 3b 9b bd 12 19 4c bd
       0.02867219 0.11220176 -0.075797275 -0.049828596
0000f0 7a 0d 0f 3d ac 5d 9b bd c7 46 41 bd ec 28 d0 bd
       0.03492496 -0.07586226 -0.04718664 -0.10164055

fc2_bn.weight f4 [64]
000000 15 22 00 3f e3 12 44 3f dc 75 fc 3e 61 f7 ed 3e
       0.50052005 0.7659132 0.4930867 0.46477798
000010 7d 33 25 3f e5 d4 18 3f b2 3e 99 3e f3 c5 7c 3f
       0.6453169 0.5969985 0.29930645 0.98739547
000020 07 b3 d0 3e 10 9f 45 3f 7e d3 f7 3e 05 04 fa 3e
       0.40761587 0.77195835 0.48403543 0.48831192
000030 e3 b0 c7 3e 12 e2 89 3e bd 0c 9c 3e b6 25 16 3f
       0.3900214 0.2693029 0.3047847 0.5865129
000040 64 61 d0 3e e9 bd ec 3e c4 76 43 3f 97 11 28 3f
       0.40699303 0.4623864 0.76353097 0.6565184
000050 03 9f ee 3e ef 69 12 3f fe d7 18 3f 21 30 02 3f
       0.4660569 0.5719289 0.5970458 0.5085469
000060 2e 20 e6 3e e4 c6 3f 3f 9d 36 01 3f 56 1b 03 3f
       0.44946426 0.7491286 0.5047396 0.51213586
000070 2c ff d8 3e b2 e3 8c 3e ed 30 16 3f 11 fb 04 3f
       0.4238218 0.27517468 0.58668405 0.51945597
000080 08 d1 f8 3e 4e 3b 16 3f 4a d9 94 3e 1a cd d1 3e
       0.48596978 0.5868424 0.29072028 0.40976793
000090 6c 90 9b 3e 56 31 bd 3e 12 de 12 3f d9 0c c1 3e
       0.30383623 0.36951703 0.573701 0.37705114
0000a0 0b 0d c7 3e 7a fa c2 3e e0 1d ac 3f 68 e3 fa 3e
       0.38877138 0.38081723 1.3446617 0.49001622
0000b0 d1 1c 10 3f 3e 25 a3 3e bd 21 00 3f 0a b1 1b 3f
       0.5629397 0.3186435 0.5005148 0.60817015
0000c0 1e 44 e8 3e e5 73 ec 3e 8c d7 9e 3e d8 0e e8 3e
       0.4536447 0.4618217 0.31023824 0.45323825
0000d0 26 3c 9c 3e 88 2c e6 3e 87 25 c7 3e 03 60 ba 3e
       0.3051464 0.4495585 0.3889582 0.36401376
0000e0 f6 01 a7 3e 31 83 ac 3e 8c 7b 29 3f f6 54 b9 3e
       0.32618684 0.3369384 0.6620414 0.36197633
0000f0 4a 8c b1 3e 39 44 ca 3e c9 32 b1 3e 8d 92 fe 3e
       0.34677345 0.39505175 0.34609058 0.49721184

fc2_bn.bias f4 [64]
000000 2b 5e 4f be f1 d7 dc be f6 83 e5 bd 7f 38 2a be
       -0.20250766 -0.431335 -0.1120681 -0.16623114
000010 23 68 d6 bd dd 57 0c 3d c5 98 3c 3d a8 12 80 be
       -0.10469081 0.03426348 0.04604413 -0.25014234
000020 99 0c dd be 9c 61 a8 be 61 72 d5 be 0a 2e ad bc
       -0.43173674 -0.3288697 -0.41688827 -0.021140117
000030 c6 df 9f bd 7f 67 80 bd e3 ee 85 be a8 fe 37 be
       -0.07806353 -0.0626974 -0.2615882 -0.17968237
000040 52 46 71 be 2c ca f6 be f1 23 b2 be 6c ba bd be
       -0.23561981 -0.4820112 -0.34793046 -0.3705629
000050 77 4c 7e be a2 a6 53 3c 6d 9a 0a bf 7b 72 d6 be
       -0.24833857 0.012918146 -0.54141885 -0.41884217
000060 4d 60 04 bf e0 9f f2 be fc 71 9e be 7f f8 4f be
       -0.51709443 -0.473876 -0.30946338 -0.20309637
000070 83 bb 21 be 86 25 02 3d 45 e9 db be 72 c4 00 be
       -0.15794186 0.031774066 -0.42951408 -0.12574938
000080 eb ea 60 be cb 1f 05 bf 3b aa 50 be 57 2a 97 bd
       -0.21964614 -0.5200164 -0.20377438 -0.073811226
000090 d6 07 9b bd fc a6 d3 bd ba 4f 33 bf 53 51 9d be
       -0.07569854 -0.10334584 -0.7004353 -0.30726108
0000a0 b6 62 7c bd d6 61 9c be 19 37 de bf e8 10 88 be
       -0.061617576 -0.30543393 -1.7360564 -0.26575398
0000b0 4a ce 3a be 6b c8 5e be fa c3 e5 be 84 a1 79 be
       -0.18242756 -0.21756141 -0.4487608 -0.2437802
0000c0 ff d3 3d be 53 84 83 be d1 1c dc bc da 96 a3 be
       -0.18537901 -0.25686893 -0.02686921 -0.31951028
0000d0 d1 e9 2b bd 45 66 04 bf 39 c4 10 be 3a a3 8b be
       -0.04197103 -0.5171855 -0.14137353 -0.2727297
0000e0 2c 15 9b bd 6a 83 7d be 89 eb ff be 80 4b 85 be
       -0.075723976 -0.24757162 -0.49984387 -0.26034164
0000f0 af 0d 75 bd cf a5 82 bd d5 df 49 be 99 45 a8 be
       -0.059827503 -0.06379282 -0.19714291 -0.328656

fc2_bn.running_mean f4 [64]
000000 3d 5a f8 40 90 19 0e c1 a6 b7 60 c1 ef 44 f4 c0
       7.7610154 -8.881241 -14.044836 -7.6334147
000010 45 e9 a6 c0 5b c7 8d bd 24 4d e2 c0 7c b7 6e c0
       -5.2159753 -0.0692279 -7.0719166 -3.729949
000020 2e 9d de 40 7d e7 3a c1 48 12 1d c0 e5 30 80 c1
       6.956687 -11.681516 -2.4542408 -16.023874
000030 5e 2c ab 40 dc 61 1b c1 67 7a 42 40 c6 06 21 c0
       5.349166 -9.711391 3.0387208 -2.5160384
000040 86 27 6d c0 5c 98 a5 c1 a2 42 d6 c1 db 7d e5 c1
       -3.7055373 -20.699394 -26.782536 -28.686453
000050 cb 2e eb c0 20 e0 1c 40 52 1f fa c0 0e 94 80 c1
       -7.349462 2.4511795 -7.8163233 -16.072292
000060 3b 39 f5 c0 ae 64 d2 41 8f 0d 9a c1 5a d7 d0 40
       -7.663236 26.29916 -19.25662 6.526288
000070 78 57 76 bf f3 ce 7a 40 58 98 e7 3f 22 3b 6b c0
       -0.96227217 3.9188812 1.8093367 -3.6754842
000080 bf fe 41 c1 82 07 9b c1 bf cd d6 40 c0 49 1a 40
       -12.124694 -19.378666 6.7126155 2.4107513
000090 ba 3b c4 c0 90 d6 63 3f 06 bd eb c1 db 3d d4 bf
       -6.132291 0.8899927 -29.467297 -1.6581377
0000a0 18 2a 23 3f 8b 9f a4 c1 26 e6 39 40 ff 70 51 c1
       0.63736105 -20.577902 2.9046721 -13.090087
0000b0 ad 8d 67 c0 1c 29 4c c1 c0 22 40 c1 5f 84 b7 c0
       -3.6180222 -12.760036 -12.008484 -5.7349086
0000c0 ae df 81 40 6a 09 4f c1 bc c5 75 c1 8e 45 06 c1
       4.0585546 -12.939798 -15.360775 -8.391981
0000d0 9d 6d 81 c0 8a bd d5 c0 62 44 d4 bf 23 c7 44 41
       -4.0446305 -6.679387 -1.6583369 12.298617
0000e0 a1 57 7e 40 92 5c 25 c1 66 0e 33 c1 06 b0 9e c0
       3.9740984 -10.3351 -11.191015 -4.958987
0000f0 d5 59 66 bd 8b a9 10 c1 18 56 f7 40 bc 6b 55 c1
       -0.056238014 -9.041392 7.7292595 -13.338802

fc2_bn.running_var f4 [64]
000000 f7 6f b0 42 67 54 90 42 c1 7a f5 42 06 f3 fc 42
       88.21868 72.16485 122.73975 126.474655
000010 98 11 dd 42 bd eb c9 41 20 fe 7a 42 60 b8 08 42
       110.53436 25.240107 62.74817 34.180054
000020 93 01 88 42 41 69 5e 43 c4 43 82 42 23 8f 50 43
       68.003075 222.41115 65.132355 208.55913
000030 48 3b 82 42 72 99 b0 42 ef e6 1c 42 44 d6 bb 42
       65.11578 88.2997 39.22552 93.91849
000040 ad d6 31 42 72 6b 78 42 73 04 03 44 72 1e 1e 44
       44.459644 62.104927 524.0695 632.4757
000050 a7 7a 50 42 9b 55 d7 42 71 dc 79 42 da 1a bc 42
       52.119778 107.6672 62.465275 94.052444
000060 1c 34 85 42 ca 4a cb 42 ab d6 f9 42 71 bb 3a 43
       66.601776 101.64607 124.91927 186.7322
000070 81 6b de 42 d1 ac c7 42 27 96 80 42 b4 5b e7 42
       111.20997 99.83753 64.29327 115.67911
000080 a3 47 05 43 2c 94 bb 43 38 b2 bf 42 12 0c ff 42
       133.27983 375.1576 95.84808 127.523575
000090 da 28 d2 42 4a dc 76 42 aa 07 42 43 07 7d 6d 42
       105.07979 61.715126 194.02994 59.372097
0000a0 d6 c3 65 42 c5 c6 fb 42 3c c1 93 42 d6 b0 16 43
       57.441246 125.88822 73.87741 150.69077
0000b0 4b 53 84 42 2d 33 7b 42 ab 56 c4 42 4e c8 80 43
       66.16268 62.799976 98.16927 257.56488
0000c0 3c eb 96 42 b0 6a 17 43 77 36 64 42 3c 99 ae 42
       75.45944 151.41675 57.05319 87.299286
0000d0 67 49 f8 42 7a d9 62 42 17 71 70 42 20 5b b1 42
       124.143364 56.71238 60.11044 88.67798
0000e0 1c b2 8c 42 96 f8 86 42 05 e3 9e 42 06 52 dd 42
       70.34787 67.48552 79.4434 110.6602
0000f0 82 cd da 42 e7 fb 47 42 9b 17 8a 42 64 fe a9 42
       109.40138 49.996 69.046104 84.99686

fc3.weight f4 [64, 64]
000000 3e d6 4d 3e 58 50 8b 3c 68 06 1d 3e 72 bb e6 3e
       0.20101258 0.017006084 0.15334475 0.45064884
000010 aa 08 92 bd c6 1d 03 3e bd b1 ac be 53 09 a6 be
       -0.07130559 0.12804326 -0.33729354 -0.3242899
000020 48 23 86 3d 78 74 c7 3e 84 4b 14 ba ea cc cb 3d
       0.06549698 0.38956046 -0.00056570047 0.09951194
000030 3e b4 a1 be 7b 77 20 3d 2e 33 d7 3d ca 64 28 3e
       -0.31582826 0.039176445 0.105078086 0.16444698
000040 c6 a9 d9 3e c9 6a 54 3e d0 c5 11 3e 82 dc 33 bf
       0.4251234 0.2074386 0.14235616 -0.70258343
000050 cf 09 05 3f 95 0d 13 3f 1d 60 ce bc d4 5c 10 3e
       0.5196809 0.574426 -0.025192315 0.14097911
000060 32 df b9 bd 34 17 c4 3e 80 69 19 3b ca 7f 1b 3e
       -0.09075774 0.38298953 0.002340883 0.15185466
000070 b2 ee 09 3f a7 f9 4b 3e 11 95 37 3e 0f 95 68 3e
       0.53879845 0.19919454 0.17927958 0.22713111
000080 96 48 21 3e 50 61 0d be f2 57 9f be 31 41 4c 3e
       0.15750346 -0.13806653 -0.31121784 0.19946744
000090 45 39 d6 3d 8a 92 86 bc b0 11 a2 3e 9b 2d 15 bd
       0.10460142 -0.016427297 0.3165412 -0.036420446
0000a0 c1 ee 5d 3e f6 3c 3c 3e 93 35 16 bf 90 0b 48 be
       0.21673109 0.1838263 -0.586755 -0.1953566
0000b0 f5 83 36 3f 67 47 e3 3d 0a ae 9c be 43 fa 07 be
       0.712951 0.11097603 -0.3060153 -0.13279061
0000c0 b0 f0 06 3e ac 21 15 bf 15 36 51 3d aa 9e 4f be
       0.13177752 -0.58254504 0.051076967 -0.2027537
0000d0 4c dc f8 3d cd 51 29 3d fc cb 93 3e f7 27 9d 3e
       0.12151393 0.041337777 0.28866565 0.30694553
0000e0 89 81 1a 3f 82 74 01 bf c0 f0 2a be 74 f5 5a 3e
       0.60353905 -0.505684 -0.16693401 0.21382695
0000f0 a1 8f 40 3f 82 ea e0 be 37 a6 bd be e9 fb 85 3e
       0.7521916 -0.43928915 -0.37040874 0.26168755
000100 79 36 8c 3b 13 e2 1d 3e 6b 8d 9d 3e a6 0b aa be
       0.0042789546 0.15418272 0.30771956 -0.33212012
000110 4e 77 9a be a1 fb 79 3f 5c 85 23 be 68 0d a1 bf
       -0.30169147 0.9764958 -0.15968841 -1.2582216
000120 89 aa 67 bd 10 f9 09 3e 0c 25 db 3d ce 39 17 be
       -0.05655912 0.13473916 0.107004255 -0.14768144
000130 f1 d3 0f 3d 2b 4a 0e 3e a3 37 8b 3c e2 c6 b5 be
       0.035114232 0.1389548 0.016994303 -0.35503298
000140 7f ae 97 3d 90 31 dc 3e fa 74 0e bd 1c 46 d0 3e
       0.07406329 0.43006563 -0.034779526 0.4067849
000150 36 22 4f bc d6 3f 2d 3c b3 a7 e9 be bb 43 49 be
       -0.012642434 0.010574302 -0.45635757 -0.19654743
000160 0e d0 92 3e f0 7a f7 be e3 e3 80 bd 7f e8 11 be
       0.28674358 -0.4833598 -0.06293466 -0.14248846
000170 57 61 2b be 32 f4 5a 3e b3 75 eb 3e 27 ad 84 3d
       -0.16736351 0.21382216 0.45988235 0.06478339
000180 76 a3 2c 3e f5 95 8b 3d 58 99 a3 be 01 bd 16 3e
       0.1685923 0.068157114 -0.3195293 0.14720537
000190 e4 2f 1a bf 79 03 a0 3e 07 9c fd 3c cb 3f fd 3d
       -0.60229325 0.3125265 0.030958189 0.12365683
0001a0 a0 8d 8d 3d 1b 98 45 be 61 96 7e bd a0 7e a1 3e
       0.069117785 -0.19296305 -0.06215513 0.3154192
0001b0 fb 56 69 be c5 bc 29 3e 7d d2 80 3e 89 7d cc 3c
       -0.22787087 0.16575916 0.2516059 0.024962204
0001c0 dc f9 d8 bc 98 55 dc 3d 0b b3 26 3e 66 cb 7a 3d
       -0.02648633 0.10758513 0.16279237 0.061229132
0001d0 68 8e 45 3d cc 74 70 be 84 27 25 be d2 b5 56 be
       0.048231512 -0.23482054 -0.16128355 -0.20967796
0001e0 4e 74 10 bd ac dd 3b be 66 e1 81 3e af 3c a6 bd
       -0.035267167 -0.1834628 0.25367278 -0.08117043
0001f0 21 12 47 bd 48 66 b7 bc b3 0c 2a be e5 97 ac 3d
       -0.048601273 -0.022387639 -0.16606407 0.08427409
000200 0e 22 e8 bd 09 2e ee 3e a4 65 77 bd 28 08 8e bd
       -0.113346204 0.46519497 -0.060399666 -0.069351494
000210 b0 69 1a 3f 22 8a 53 3e 37 56 08 bf af 46 18 3d
       0.60317516 0.20658162 -0.53256553 0.037176784
000220 c7 6b 8c 3e c6 9e 60 3f 1c 9b b1 3e b0 c0 77 bd
       0.27425978 0.8774227 0.34688652 -0.060486495
000230 fd 36 32 3c 20 9d 10 3e 79 c0 bb bc d2 d6 12 3f
       0.010877368 0.14122438 -0.022918927 0.5735904
000240 b2 fe ca 3d cc f4 25 3e 5a 64 49 bf 52 d4 da 3e
       0.099118605 0.16206664 -0.7866875 0.42740113
000250 ae f3 78 be f1 d9 2f 3d 44 b0 3f 3d 67 82 50 bd
       -0.24311706 0.042932454 0.04679896 -0.05090561
000260 ed 2f 24 be ed 6b 15 3f 95 e9 02 be 73 d2 11 be
       -0.16033907 0.58367807 -0.12784417 -0.14240436
000270 44 33 3c 3d 10 b0 20 bd e7 06 3c 3d 50 52 f6 3e
       0.04594733 -0.039230406 0.04590502 0.48109674
000280 23 09 14 bb 5a b2 d2 3d 2a 4b 0d 3e e5 2c a9 3c
       -0.0022588454 0.10287924 0.13798204 0.02065129
000290 97 5c b4 3e 64 8e 27 3e f8 8b 05 bd 7a 78 a8 3d
       0.3522689 0.16362911 -0.032604188 0.08226104
0002a0 e2 8d 8b 3d cf 28 be bd 87 fc 04 3e d6 32 16 3e
       0.068141714 -0.09285127 0.12986957 0.1466783
0002b0 86 09 ca 3e 2a 07 f4 3d a3 28 f4 3d 18 cf 2a 3e
       0.3946039 0.11915429 0.11921813 0.16680562
0002c0 77 31 6d 3e d9 1c 46 be f5 43 52 3e 44 8e 7d bd
       0.231634 -0.19346942 0.20533736 -0.061903253
0002d0 0b a6 23 3e c2 3b 1b 3d 83 ee 0d bf 10 82 07 3e
       0.15981309 0.037898786 -0.55442065 0.13233209
0002e0 02 97 d6 bd d9 77 a2 bc 5c 08 23 3f be f8 12 3c
       -0.10478021 -0.019832538 0.6368463 0.008970438
0002f0 94 6f 4e 3e bf fa 81 3e cd 06 42 bc a2 8c ce be
       0.20159751 0.25386617 -0.011842442 -0.4034167
000300 4a 1c 74 3e a5 ed 90 bf 63 22 4c be d1 2e ee bc
       0.23838916 -1.1322523 -0.19934992 -0.029075058
000310 0f b9 ad be d6 2a 00 bf f0 03 34 3e 57 8a 06 3f
       -0.3393025 -0.5006536 0.17579627 0.5255484
000320 b8 a5 86 be e1 23 0f bd dc f7 a1 bd 2c 37 89 bd
       -0.26298308 -0.034946326 -0.079086035 -0.06699976
000330 7c 0f 3c be 85 e6 55 3d cc 0d f7 bd 47 34 f1 bd
       -0.18365282 0.052221794 -0.120631784 -0.11777549
000340 ab c8 c1 3d 4e 56 ed 3d 51 2c 8f bd 28 c5 a4 be
       0.094621025 0.11588727 -0.069908746 -0.32181668
000350 9d c3 43 3d 63 7e 90 bd b6 6e 71 bd 2e 7c 4a bd
       0.047793973 -0.07055356 -0.058943473 -0.049434833
000360 08 f1 8f be 1b 7a 94 3d 13 95 3c 3e 30 a4 a2 3d
       -0.2811358 0.07249852 0.18416242 0.079414725
000370 d5 9c 0d 3e 59 be 7e be da ce f3 be 6d 38 3f 3d
       0.13829358 -0.248773 -0.47618753 0.04668467
000380 8b 58 cb 3e 97 a3 19 3e 7e ee f2 3d 3c ae 8c 3e
       0.3971599 0.15003811 0.11861895 0.2747668
000390 7f 79 98 3d 09 72 31 bc b7 77 6a 3e ff 65 15 be
       0.074450485 -0.010830411 0.2289723 -0.1458969
0003a0 e2 ce 3e bf ea f9 d3 3e bd 18 f6 3e 90 36 18 bf
       -0.7453443 0.41401607 0.4806575 -0.59458256
0003b0 d1 65 b5 bf b3 fa 87 3d 1e 42 0f 3e bd 26 b0 be
       -1.4171697 0.06639614 0.13990065 -0.34404555
0003c0 65 56 93 3d f4 1a 94 3e c5 34 54 bd fe d1 76 3d
       0.07194213 0.28926814 -0.051808137 0.060258858
0003d0 9e 67 b8 be af 2a e5 bd d1 56 9d bd 28 38 78 be
       -0.36016554 -0.11189782 -0.076825745 -0.24240172
0003e0 5d 3b 50 bd d7 5a c5 3c 4e 87 0d bf 4b 14 b7 39
       -0.050837863 0.024091167 -0.55284584 0.000349196
0003f0 a9 cc 22 bf 7a c1 b7 3d 89 ae 1b 3f 1c 52 59 3c
       -0.63593537 0.089724496 0.60813195 0.013264205

fc3.bias f4 [64]
000000 7c 96 81 3b ee aa 40 3d 00 4f a9 3d b8 56 53 bd
       0.0039547067 0.04703801 0.08267021 -0.051596373
000010 16 e9 25 bd f4 de 69 3d 0f 3d fe bc 79 46 11 3d
       -0.04050549 0.05709739 -0.031034974 0.0354676
000020 fa 44 5e 3d 5d ed a6 bc 12 f7 0f bd 08 d0 e9 3d
       0.054265 -0.020376856 -0.035147734 0.11416632
000030 8f 3c 48 3d bb 91 f8 bd 62 dc f0 bd 4b 80 a9 bc
       0.04888588 -0.12137171 -0.11760785 -0.020691058
000040 b1 f3 98 bd 0e d7 cb 3d e6 71 bd 3d 17 90 a5 3d
       -0.074683554 0.09953128 0.0925024 0.080841236
000050 53 c9 d1 3d 09 86 c0 3d 78 08 d3 3d 0d 6f 95 3b
       0.10243478 0.09400565 0.1030435 0.0045603574
000060 3b 46 dd 3d 7d d8 29 3d 22 73 83 3d b6 49 7e bd
       0.10804411 0.041466225 0.06418444 -0.062082015
000070 47 90 60 3d 55 de d6 bd 96 75 1d 3b 1f 24 8e bd
       0.054825094 -0.10491625 0.0024026386 -0.06940483
000080 6d 53 42 3c 5e bf 4f 3c 7b 1a 55 bc ba 8b fe 3d
       0.011860711 0.012679903 -0.013006802 0.124289945
000090 70 67 ed bd 47 81 fa bd 6b b8 fa 3b d8 68 a8 bd
       -0.11591995 -0.12231689 0.007651379 -0.08223122
0000a0 65 09 aa bd 5d f8 98 bd d8 a5 cd 3d 41 ec a2 bd
       -0.08302573 -0.074692465 0.10041398 -0.07955218
0000b0 f2 5e d2 bd 7d e9 b7 3d 90 bf a4 bd 10 a1 63 bc
       -0.10272016 0.08980081 -0.0804435 -0.013893381
0000c0 37 91 9a bd 68 56 17 3d 88 7b dc 3d 01 74 9a bd
       -0.07547229 0.036947638 0.10765749 -0.07541657
0000d0 f4 1b ba bd 37 64 56 3d 7c 4c 9b bd dd 38 44 3d
       -0.09087363 0.052341666 -0.075829476 0.04790579
0000e0 53 97 9d 3d 76 ea c1 3d 5c 06 83 3c 14 59 eb 3d
       0.076948784 0.09468548 0.015994243 0.114916
0000f0 a8 9c 0a bd f3 d8 91 3d 63 57 1e bd 52 cb 88 bd
       -0.033840805 0.07121458 -0.038657557 -0.06679405

fc3_bn.weight f4 [64]
000000 d6 71 ba 3e 59 7a 49 3f 6f fe 37 3f 53 dc b7 3f
       0.36414975 0.7870231 0.7187261 1.4364113
000010 ca 65 6e 3d 62 fd 90 3f ba b7 36 3f 25 3d b1 3e
       0.058202542 1.1327326 0.71374094 0.34616962
000020 8a 7b a9 3e f7 bb 14 40 83 00 bb 3e a2 18 fb 3f
       0.33102065 2.3239725 0.36523828 1.9616892
000030 f3 b6 94 3f 57 c8 a3 3f 6e 3e c9 3f 32 a1 15 3f
       1.1618332 1.2795514 1.5722177 0.5844909
000040 1d 2b 03 40 ae 1b 5b 3f 4f d4 2a 3f 83 ed 6a 3f
       2.0495064 0.8558911 0.6673021 0.91768664
000050 3b f4 08 3f 16 e0 95 3f 70 2b 2d 3f 33 c2 c8 3f
       0.53497666 1.1709011 0.67644405 1.5684265
000060 15 8b b4 3f b8 44 1a 3f 1c 5d c2 3e 02 de b8 3f
       1.4104944 0.60261106 0.37961662 1.4442751
000070 2d 92 cb 3f 38 c1 ae 3f 58 ef cb 3e 57 f8 b6 3e
       1.5903984 1.3652716 0.39831042 0.35736343
000080 94 ed 83 3f 86 e8 79 3f 09 82 f8 3f 5e 20 7e 3f
       1.0306878 0.9762043 1.9414684 0.9926814
000090 e2 22 b8 3e e2 3c d5 3f 17 8f 86 3f 0f 42 42 3f
       0.35964113 1.6659205 1.0512418 0.7588205
0000a0 7c f0 56 3f f0 6d c2 3f 78 a1 aa 3f b8 10 2d 3f
       0.839607 1.51898 1.3330526 0.67603636
0000b0 df 4e cc 3e 80 1d 32 3f 20 f7 70 3f d9 66 f4 3e
       0.39903924 0.69576263 0.9412708 0.47734717
0000c0 a2 96 5a 3f d9 d6 61 3f 73 fd 2a 3f 09 e1 7e 3f
       0.853861 0.88218457 0.6679298 0.99562126
0000d0 e8 5f e4 3f 34 c5 c2 3e 7b 0a 6c 3f be 11 cf 3e
       1.7841768 0.3804108 0.9220349 0.40443224
0000e0 c1 ab 67 3f 74 4e 8b 3f de 91 4e 3f 15 cc 1d 3f
       0.9049645 1.0883317 0.80691326 0.6163953
0000f0 58 7c a1 3f 9c ac a9 3d fc 66 28 3f c7 91 ef 3f
       1.2616072 0.08284876 0.6578214 1.8716363

fc3_bn.bias f4 [64]
000000 ce d7 fe 3e 6c 7f 89 bd 6a 86 cb 3e 53 fd 68 bf
       0.4977402 -0.06713757 0.39750987 -0.9101154
000010 b2 75 1f 3f 0d a5 6c bf e8 0c 45 3c 3e f8 61 3e
       0.62288964 -0.9243935 0.012027003 0.22067353
000020 d0 87 42 3f 0a d9 c4 bf 7c b9 b5 3e 9e 6b a9 bf
       0.75988483 -1.5378735 0.35493076 -1.3235967
000030 3f 14 15 bf a2 ca 95 bf cd d8 98 bf 83 eb 34 bf
       -0.5823402 -1.1702464 -1.1941162 -0.7067186
000040 c3 0c a3 bf 72 a9 9a bd 47 80 92 3e 78 ff 0c bf
       -1.273827 -0.075518504 0.28613493 -0.55077314
000050 c1 74 15 3e 2a b4 8a bf 18 84 c9 3e b1 fc 8d bf
       0.1459532 -1.0836232 0.39358592 -1.109274
000060 b3 fe 84 bf 06 fb 23 bd b1 ef 8b 3d 73 37 9d bf
       -1.0390228 -0.040034316 0.06832827 -1.2282547
000070 33 88 9a bf e2 97 8f bf c8 34 e3 3d 21 91 37 3e
       -1.2072815 -1.1218226 0.110940516 0.17926456
000080 17 70 40 bf 10 48 50 bf a8 65 a7 bf 75 37 2f bf
       -0.75171036 -0.8135996 -1.3077898 -0.68443996
000090 50 31 2b 3f e5 20 9c bf e4 ad 64 bf 80 ba 7c bf
       0.6687212 -1.2197539 -0.89327836 -0.98722076
0000a0 2b d5 d0 bd ff 36 94 bf 2b 9b 74 bf 6f d8 1c 3d
       -0.101969086 -1.1579283 -0.9554927 0.038292345
0000b0 43 78 fc 3e 90 5d 5a 3e 36 34 71 bf af b1 1a 3f
       0.49310502 0.21324754 -0.9422029 0.60427374
0000c0 9d 24 eb be c1 b5 a7 be 46 e9 5a 3c 83 5b 6e bf
       -0.4592637 -0.32755855 0.013361281 -0.93108386
0000d0 ad 7a b2 bf b2 5e ad 3e 2b ca ab bc 28 83 6c 3e
       -1.3943688 0.3386131 -0.020970425 0.23096907
0000e0 7e 24 61 bf 1d 07 6e be bc 75 53 bf f6 24 ce 3c
       -0.8794631 -0.23244901 -0.82601523 0.025164109
0000f0 1e bb 96 bf f5 44 4b 3f 8e 6b 09 bf 11 ce 9e bf
       -1.1775854 0.79402095 -0.5367974 -1.2406636

fc3_bn.running_mean f4 [64]
000000 8d 0e f7 3e 7e 53 35 be cd 15 3f 3f 1f 65 1d bf
       0.4825329 -0.17707631 0.7464264 -0.61482424
000010 1d 58 0c 3d 30 2c 06 bf 99 b4 9d 3e e4 59 12 3f
       0.03426372 -0.52411175 0.30801848 0.5716841
000020 a7 fa c2 3d 94 66 18 bf 35 a5 03 3e 16 d6 a1 be
       0.095204644 -0.5953152 0.1285599 -0.31608647
000030 4f 5a df be 3e 77 56 bf f2 df 47 bf d8 ae a0 be
       -0.43623587 -0.837757 -0.7807609 -0.31383395
000040 85 fc 09 bf b7 a1 0f bd 8e 6c 0d 3f fd 02 a4 be
       -0.5390094 -0.035066333 0.55243766 -0.3203353
000050 bc 6a 9d be 91 ae ae be 11 ba 17 be 72 4f c3 be
       -0.30745494 -0.3411756 -0.14817072 -0.3814655
000060 a3 40 56 be 7b 01 a9 3d be 99 a0 be 2e a3 10 bf
       -0.20923094 0.082522355 -0.31367296 -0.5649899
000070 25 27 f9 be 7a 51 e9 be bc b8 00 bf 20 de de bc
       -0.48662677 -0.45569974 -0.5028188 -0.027205527
000080 2c 5d 19 bf ab ba e3 be 14 ab 42 bd 4f fd a4 be
       -0.59907794 -0.44478354 -0.047526434 -0.3222451
000090 54 10 36 3e dd 03 dd be 80 3b fd be da 28 21 bf
       0.17779666 -0.4316701 -0.49459457 -0.6295296
0000a0 a8 ae ef be 8c 9a 01 bf ff 90 24 bf e4 29 2f bd
       -0.4681294 -0.50626445 -0.64283746 -0.04276456
0000b0 ff 2a f3 3c 10 97 18 3e 61 6b f4 be 2e 7b a1 3e
       0.029683588 0.14901376 -0.47738174 0.3153929
0000c0 40 89 d9 be d2 61 88 be 4b e2 13 3e 64 00 32 bf
       -0.42487526 -0.2663713 0.14441793 -0.69531846
0000d0 47 f5 d5 be 66 57 65 3e 28 bc 8d be cd 99 af 3c
       -0.41788694 0.22396621 -0.27682614 0.021435643
0000e0 4f 3c a6 be 54 77 95 3d 76 ab da be 81 27 18 be
       -0.32467887 0.07298151 -0.4270894 -0.1485882
0000f0 b6 c0 c8 be c2 8b ef 3e e8 a9 b4 be 32 3f d2 be
       -0.39209527 0.46786314 -0.35285878 -0.4106384

fc3_bn.running_var f4 [64]
000000 9a 74 41 3f 94 99 6c 3f 5c fe 0c 3f 30 07 83 3f
       0.75568545 0.9242184 0.5507562 1.0236568
000010 3c 8a 0c 40 2a 5d f4 3e 61 0c 16 3f e1 16 ad 3e
       2.1959372 0.4772733 0.5861264 0.33806518
000020 d1 3d 9b 3f 11 60 3b 3f d8 e4 d4 3e bd 6a 09 3f
       1.212824 0.7319346 0.41580844 0.53678495
000030 e3 b4 0d 3f 94 1f 20 3f 56 e4 0a 3f 82 6d ac 3e
       0.55354136 0.62548184 0.54254663 0.33677298
000040 37 75 33 3f fb eb 2f 3f e1 a0 f3 3e df 7c 82 3e
       0.7010073 0.6871945 0.47583678 0.25485894
000050 71 c5 ae 3e c5 b1 b5 3e 43 be 49 3f 2b f6 12 3f
       0.3413501 0.3548719 0.7880594 0.5740687
000060 78 ba 0d 3f 8d 36 95 3e 6e 54 89 3e 48 80 03 3f
       0.55362654 0.2914318 0.26822227 0.51367617
000070 3f dd 20 3f 50 b6 06 3f 5e 47 10 3f 13 ac 8a 3e
       0.62837595 0.52621937 0.563589 0.27084407
000080 c8 d0 be 3e 52 9f d3 3e 3f d8 47 3f bb 2c 2d 3f
       0.37268662 0.4133249 0.7806434 0.6764638
000090 b5 18 50 3f 47 d9 2e 3f b6 73 12 3f b8 10 97 3e
       0.812877 0.6830029 0.5720781 0.29504943
0000a0 d2 bc 24 3f 70 ae 48 3f 19 1d fc 3e 46 b9 99 3e
       0.64350617 0.7839117 0.4924095 0.30024165
0000b0 8b 4e ac 3f d2 03 c4 3e 81 4a af 3e de 31 1b 3f
       1.346147 0.38284165 0.3423653 0.60622966
0000c0 08 99 f4 3e 6d 4e a6 3e db 8f d5 3e 37 37 d9 3e
       0.47773004 0.3248171 0.41711316 0.42424938
0000d0 c5 01 09 3f 4d eb da 3e 5b 35 a5 3e db dc 13 3f
       0.53518325 0.42757645 0.3226727 0.57758874
0000e0 90 68 fd 3e c5 59 0c 3f 00 a8 b1 3e 7f 31 74 3e
       0.49493837 0.5482448 0.34698486 0.23847006
0000f0 dd 96 dc 3e a0 c5 70 3f 0a 62 c8 3e 84 c6 22 3f
       0.4308385 0.9405155 0.39137298 0.6358416

fc_out.weight f4 [1, 64]
000000 c6 65 32 be a2 fc fe bd 24 3a 35 be 69 e3 a7 bf
       -0.17421636 -0.1245053 -0.1769796 -1.3116275
000010 b7 53 b5 be 9c 6c 6b bf 04 73 a5 bd f9 55 68 be
       -0.35415432 -0.919626 -0.08078578 -0.22689046
000020 52 9b cc be 51 e2 25 c0 4c ed 3d be ee 87 25 c0
       -0.3996225 -2.5919383 -0.18547553 -2.5864215
000030 6a 38 ec be 51 e6 2e c0 70 1f 16 c0 0c 05 99 be
       -0.4613679 -2.7328074 -2.3456688 -0.29886663
000040 f9 c4 2b c0 8d 62 0e be f5 be ba bd f8 4c cd bd
       -2.6838973 -0.13904782 -0.091184534 -0.10024446
000050 ca 88 a8 bd 97 c6 1e c0 e2 dc ed bd 54 2c c5 bf
       -0.082292154 -2.480871 -0.11614396 -1.5404153
000060 06 0c 00 c0 77 fe ba bd bc 57 df bd 45 42 16 c0
       -2.0007339 -0.091305666 -0.10905406 -2.3477948
000070 7b 29 4e c0 7c c3 f1 bf f0 b7 50 be 45 98 d2 bd
       -3.2212818 -1.8887782 -0.20382667 -0.10282949
000080 b4 15 24 bf 4f dc 62 bf 58 81 3c c0 49 0d 70 be
       -0.64095616 -0.88617414 -2.9453945 -0.23442568
000090 f4 a6 96 be 98 9a 2f c0 34 1e 30 c0 1a 49 15 c0
       -0.2942425 -2.7438107 -2.7518435 -2.3325868
0000a0 28 b4 09 be 10 38 2f c0 41 7f 4c bf 2f 74 bd bd
       -0.1344763 -2.7377968 -0.79881674 -0.09250676
0000b0 46 cb 2b be 5b 1c b4 bd cb 92 b7 bf d7 1c 87 be
       -0.16776761 -0.08794471 -1.4341673 -0.2638919
0000c0 e3 aa 1f be 2d 79 cf bd d8 0a fc bd a2 02 b6 bf
       -0.15592532 -0.10130534 -0.12306756 -1.4219553
0000d0 ef 67 34 c0 d6 fd 01 be b3 eb b2 bd d7 1e 15 be
       -2.8188436 -0.12694487 -0.08736362 -0.14562546
0000e0 b7 98 f7 bf b7 b3 2d 3e 7a da 94 bf b9 ed 49 bd
       -1.934348 0.16963087 -1.1629174 -0.049298976
0000f0 53 3f ec bf 59 30 0c bf db c9 8a be cd 5c 18 c0
       -1.8456825 -0.5476127 -0.27107129 -2.380664
