checkpoint_critic_0.pth (torch_old, 51114 bytes, 15 tensors)

fc1.weight f4 [64, 48]
00000000: 0df0 49be 2681 acbe 5293 12bd ecc0 94bd
00000010: 7fca 413f 626a a3be 8223 373d bd16 113e
00000020: ce22 08be f0f5 393e 35c4 bf3d 92ec 243c
00000030: 161e 8d3d cfe9 313d 2b64 e4bd 17d3 8ebd
00000040: 1564 c03e 7002 333f 54aa 653c e928 ce3d
00000050: 4ba5 b6bf b3e5 4d3f 70cc 06bd 9758 ef3d
00000060: 3237 6fbd 0524 c1be 4e5d 993d 0cc8 01bd
00000070: e9b9 3ebf adcf 0ebe 8cc5 aabd 186a 5dbd
00000080: a220 b8bd b0d6 68bd 0ed4 9e3c eb22 b73c
00000090: ceae 7cbd 6493 4f3d fc1d bfbc 2498 89bd
000000a0: 85a6 993d 28d7 903d 8972 093d f74a 88bc
000000b0: d118 b43f df4d 4b3f 11ad edbc 5a15 3ebd
000000c0: 8c9f 9c3e a2c8 e93d b23b 79bd 4af3 c53e
000000d0: 8d5b 07bf e682 86be d89c af3c 02c6 763e
000000e0: 4a35 5a3d 9433 243f 0926 e5bc 7b4e 443f
000000f0: 74e1 a5bd 0807 c7be 0be4 453d f9ee 3a3f
00000100: cc33 c6bb 82e2 6e3f 34eb e4bc 1ede 75bf
00000110: e601 913d 23a8 3b3e 5261 fa3d dac4 4dbf
00000120: 9604 46be 41bf 03bf 94dc 373d e873 b1be
00000130: c6fa e03e 8099 d9be 54cb 50bc 1484 d2be
00000140: bea8 153e 95d4 14bf 18eb db3c a126 00be
00000150: 4c0d b33d 3e54 c4be ad7b a3bd 7574 2fbe
00000160: febe 963e add4 14bf ddb3 a43d 75e9 8a3e
00000170: 0054 aebd 3ed2 cc3e 340d d6bd c160 9a3e
00000180: 0caa 09be 5677 03be 2e1a d3bb 4a36 a73d
00000190: 1fbc 84bf adae d8be b112 e63c 020a fcbd
000001a0: 78a4 3e3e f800 f3be b31f 873d 1b77 52be
000001b0: 91a5 2cbf a2dc ce3e 4d23 b6bd b393 68bd
000001c0: cb53 0c3f 479b ddbd de3c 7cbd f7ae 553e
000001d0: ac1e f43e 1c7d 2e3f b85f e9bb f094 bf3d
000001e0: 8f2d 1abe 0e04 da3e 31e3 18bd 1a36 173d
000001f0: 2c7b 8e3f a13e 0ebf 5ae2 913c 3282 00bd
00000200: f7a8 ad3e 225b 903e c2d0 c1bc 4f34 2c3d
00000210: dfe2 223f 5853 503e 70df afbc f167 3bbc
00000220: 8706 d43e 2050 853e e842 5f3d 4841 093e
00000230: 4eb3 a6be b4d9 5d3f 5263 6bbd 2f6a 91bd
00000240: d0a5 c9be 646f 13bf 1027 82ba 082a 0dbe
00000250: 7db3 d0be a9c5 c7be c564 47bc fef5 62be
00000260: 18b9 a9bc b333 42bf 9e61 6e3d 061e 97be
00000270: d3ba 4e3e 607a cfbe 8f0c d5bd 3876 c6be
00000280: a0ca 1a3f 4379 b3be 9b3c 4d3c 0eba 52be
00000290: 207d 933e a615 05be d7fa 7dbd a846 4dbe
000002a0: 032b 263c 5092 31bf b097 9ebd 1c9e a23d
000002b0: eb78 913e 41f7 8ebe c8ff fb3d 5ddf 7f3c
000002c0: f3b5 99be 0415 0cbf e57f 75bd 9a55 693e
000002d0: f2f2 9bbe 5038 babe cecc f53d e59e 9c3e
000002e0: 8f73 bbbe 992d 9cbe 4b8b 823d e4c8 b4be
000002f0: 8e64 a4be c6ac 98be 8a9e de3c f2bd f0be
00000300: 1e7f ab3e 3593 dcbe a40c c4bd bc7f 22be
00000310: 7708 cebe b9df febe ce41 adbd 0a9c 2ebe
00000320: 58be f63e 99a4 bcbe e5d0 66be ad96 04be
00000330: b288 30bd fc12 3fbf 082b 0bbd 53b7 debc
00000340: 790a 4d3f 2558 61be 4967 a2bd 23aa ac3b
00000350: f2ad 4b3e 0865 80be 692c 903d 2fec a13c
00000360: d653 34be 3e7b 4fbf 4828 f0bd 99d3 26be
00000370: a1a8 883e f949 babe 2a6b 66be e124 49be
00000380: d246 16be 15ee 7fbf a843 e5bc 1607 fc3d
00000390: a0c9 d23d e440 3cbf 49da a8bc d935 48bd
000003a0: 4566 003d 7e98 10bf f016 e13d dd5a 3a3f
000003b0: 8d9d babd 09a6 ebbe 9fd3 193d 19e9 243f
000003c0: cb7e d4bd 9fef edbd 1c7f 6dbd e506 d93d
000003d0: 8e1a 9b3d 7462 e33f 02d1 683d d907 c5bd
000003e0: bcb4 523c 9304 ccbd 126c 79bc 5b6a 903d
000003f0: d7c4 a6bd d362 343f 603b 133c 3309 86bd
-0.19720478 -0.33692282 -0.035785027 -0.072633594 0.7569961 -0.319171 0.044711597 0.1416883
-0.13294527 0.18160224 0.093635954 0.010066168 0.06890504 0.043435868 -0.11151918 -0.06973856
0.37576357 0.69925594 0.01401766 0.10066397 -1.4269193 0.8042862 -0.03290981 0.11686819
-0.058402248 -0.37722793 0.074884996 -0.03168492 -0.74502426 -0.1394641 -0.0833846 -0.054056257
-0.08990599 -0.056845367 0.019388225 0.022355517 -0.061690144 0.050677672 -0.023329727 -0.06718472
0.07502464 0.07072288 0.033556495 -0.016637309 1.4070073 0.79415697 -0.029013189 -0.04640708
0.30590475 0.11415221 -0.060847946 0.38662177 -0.5287407 -0.26271743 0.021437094 0.24098971
0.053273477 0.641412 -0.027972238 0.7668225 -0.080996424 -0.38872552 0.04831318 0.73020893
-0.006048655 0.93314373 -0.027944185 -0.9604205 0.0708044 0.18325858 0.122255936 -0.80378497
-0.19337687 -0.51463705 0.044888094 -0.34658742 0.43941325 -0.42499924 -0.01274379 -0.41116393
0.14615151 -0.58136874 0.0268455 -0.12514736 0.087427706 -0.38345522 -0.07982574 -0.17134269
0.2944259 -0.5813702 0.08042119 0.2713124 -0.085121155 0.40004152 -0.10451737 0.30151942
-0.13443774 -0.12838492 -0.00644233 0.08164652 -1.036991 -0.42320767 0.028085085 -0.12306596
0.18617427 -0.47461677 0.06597843 -0.20553248 -0.67440134 0.40402704 -0.08893452 -0.056781482
0.5481536 -0.108206324 -0.061581485 0.20867525 0.4767965 0.6815965 -0.0071220063 0.093545794
-0.15056442 0.42581218 -0.03732604 0.03691683 1.1131339 -0.55564314 0.017808128 -0.031374164
0.33917972 0.2819453 -0.023659114 0.042042073 0.6362743 0.20344293 -0.021468848 -0.011438356
0.4141123 0.26037693 0.054507166 0.13403809 -0.32558674 0.86660314 -0.057467766 -0.07100331
-0.39384317 -0.57591844 -0.0009929854 -0.13785565 -0.4076194 -0.3901799 -0.012170021 -0.22164151
-0.020718142 -0.75860137 0.058198564 -0.29515094 0.20188455 -0.40523052 -0.10402786 -0.3876207
0.6046543 -0.35053453 0.0125266565 -0.20578787 0.288064 -0.1299654 -0.062006798 -0.20046484
0.010142091 -0.6936388 -0.07743776 0.07940313 0.28412566 -0.27923015 0.12304646 0.015617219
-0.3002163 -0.5471957 -0.059936423 0.2278656 -0.3045879 -0.36371088 0.12001954 0.30589977
-0.36611602 -0.30503538 0.06374224 -0.35309517 -0.32107967 -0.29819316 0.027175207 -0.47019917
0.3349542 -0.4308106 -0.095727235 -0.1586904 -0.40240833 -0.49780062 -0.08459817 -0.17051712
0.48192096 -0.36844328 -0.22540624 -0.12948103 -0.043099113 -0.7463834 -0.033976585 -0.027187025
0.80094105 -0.2200628 -0.07929856 0.0052693053 0.19890574 -0.2507708 0.070397206 0.019765941
-0.17610106 -0.8104743 -0.11726433 -0.16291656 0.26691154 -0.36384562 -0.22501817 -0.19642974
-0.14675453 -0.9997266 -0.027986363 0.12306039 0.10292363 -0.73536515 -0.020611899 -0.048879478
0.03134753 -0.56482685 0.10990703 0.72794896 -0.09112082 -0.46025112 0.037555333 0.6441818
-0.10375746 -0.1161797 -0.05798255 0.10597018 0.07573424 1.776442 0.05683995 -0.096206374
0.012860473 -0.0996181 -0.01522352 0.07051536 -0.08143013 0.70463294 0.008986324 -0.06544723

fc1.bias f4 [64]
00000000: 019d 92bf bf21 31bf 1691 cdbf ea5f d4be
00000010: 148f 21be 6861 5940 275d 09bf e8b6 8c3e
00000020: 7616 21bd d168 003e fd79 db3f a708 42be
00000030: caf2 03bf 4eed 193e 68d8 ec3d 048e 0a3f
00000040: e73f 03bf c38c d33e 2db8 2e3e 0e74 2c3f
00000050: 4675 adbd 43ea b63c 5304 eabd c374 b7be
00000060: 33a1 c7bd c7da 36c0 636a d3bc 1752 563d
00000070: 32ad 27bf 150a 06be fcd3 da3e 4e2a 4bbe
00000080: 3cb1 b6be 4d83 bebe 8355 4c3e 02fa 083e
00000090: 9f2f 45bf 731c a4bd 8c1c f3be 9c4e 0abf
000000a0: 6bf8 0cbf cece 1bbf d44b 20bf 4cfa 94bc
000000b0: 682d 95be 95bf 9abd d15d 81be b540 51be
000000c0: c050 dabd 81d5 81be 1874 5abe d888 1ebf
000000d0: cefe d33e 3236 33be cbb2 263f ad9b b6bd
000000e0: fcca 2abf 7526 4cbf 4dd5 af3d 7b75 2b3f
000000f0: 5d8c a9be f701 393e 8c4a 27bf aede 8fbe
-1.1454164 -0.6919212 -1.6059902 -0.41479427 -0.15777236 3.3965702 -0.53657764 0.27483296
-0.03932806 0.12539984 1.7146603 -0.18948613 -0.5154234 0.15031931 0.11564714 0.5412295
-0.5126938 0.4131833 0.17062445 0.67364585 -0.08469634 0.022328502 -0.11426606 -0.3583127
-0.09747543 -2.857103 -0.025807565 0.05232438 -0.6549865 -0.13089783 0.42739856 -0.19840357
-0.35682094 -0.3720955 0.19954495 0.1337662 -0.7702579 -0.08013239 -0.47482717 -0.540262
-0.55066556 -0.60862434 -0.62615705 -0.018185757 -0.29136205 -0.075560726 -0.2526689 -0.2043484
-0.10659933 -0.25358203 -0.21333349 -0.61927557 0.41405338 -0.17501143 0.65116566 -0.089164115
-0.6671598 -0.7974618 0.08585606 0.66976136 -0.331149 0.18067156 -0.65348125 -0.2809958

fc2.weight f4 [64, 68]
00000000: 9507 01be 5fd1 b93d c393 8e3d 012d 553b
00000010: e379 0dbd a04e 333e b1d1 77bd 37f4 46bd
00000020: 7ff8 c73d 0c2a c93d 8fd9 44be 38a0 8ebe
00000030: 6fd7 03be ad8f a03d b1a5 25be 40ef 63bd
00000040: 8bd8 483e 56e4 bcbe cc0a 7d3e dd5e 553c
00000050: 5b85 f3bc 1a2a ce3d 1627 f4bb eb66 a83d
00000060: 37f1 8c3d 10a6 7bbd 3c9a d83d d670 31bd
00000070: 08ee f1bd 2064 edbd 1a34 4fbd e50f edbd
00000080: 2b9d 8e3c 9867 c93d 0175 24be e833 133e
00000090: 1a66 98bd 02b8 afbe 90cd d9bc 60c2 64be
000000a0: f733 5dbe 5e4b 193e e190 8dbe a905 083e
000000b0: cbf5 dc3d cfad 8abd c2a8 7f3d a086 4b3e
000000c0: 22c0 8f3e be57 e03d aaf3 1e3c 2016 003d
000000d0: 4fc1 b0be 0701 c6bc 1832 adbd 2c50 f33d
000000e0: 400f cf3e 864d 23be 1555 3bbc a021 91be
000000f0: 11a3 8cbd 995c a7bd 6b45 153e cabb e1be
00000100: 9b35 62be 5c62 8d3e 466e 8340 74b7 103f
00000110: 774e 4abe e70d 893d 4724 1abf 09bf 50be
00000120: 2291 423e 1003 073d 9ff4 cdbd ade1 843e
00000130: 1191 9cbe 1e48 c13d 6847 39bf a35b f0bd
00000140: b66d 7e3e e7e8 613e 44af c0bd 5931 bf3e
00000150: ca90 c33d 4d1d 01bd f45a cc3e 898c bebe
00000160: d1ce 7ebe 7cbf be3d 85ad 323e a470 363d
00000170: 66c0 9d3e 5e82 a9bd 45c0 973e 5672 453e
00000180: c68a 49bd ca1e 3c3e 159f 34be 1250 c93c
00000190: 81bb 573c 12de 1c3c 8678 e73e d7e6 003e
000001a0: d370 bebd c9c7 86be b9b2 a03c 2e73 13bf
000001b0: 23a7 27bf f131 0e3e ace0 10bf 46fb 0a3f
000001c0: c9d0 6dbd 155e 2abe f7d7 5c3d fde5 843e
000001d0: bc17 a63e 52c1 17bf 2741 06bf 497e 32be
000001e0: 5709 2fbd d467 6cbe f03e 9b3e 682f 853e
000001f0: 6276 a83d d96a 463e 59e6 6ebd c6c1 3cbc
00000200: 2c4c 84bd 6dc2 84be fc1b 21bd d081 02bd
00000210: a73b c63a b68e 9dbf ccc3 12c0 32a0 7a3e
00000220: dbfb 76bd 1415 183e beeb e43d 2a96 b33d
00000230: 59dd aa3c 46b7 7ebd d33c aa3c 6ed6 0d3d
00000240: 3797 bdbb fb64 ee3d c7af 753e 6221 5f3f
00000250: 71ee 3bbe 53e3 a0be c434 30bd dfc4 0db9
00000260: ea9b 543d 4d8e d7bd 396e b6bd 3e5f 863e
00000270: fc11 1abe 7cdd 6bbe ad34 493d 6ae2 74bc
00000280: cd1c 123d 020f 413d 313b dcbd ef22 f4bc
00000290: dc4e ed3a a959 f63d b0dd 23be da95 443d
000002a0: 7451 203c d8ad 063e 824f b4bb 5690 953c
000002b0: 35a0 c1bd 30d9 3c3e 2f96 883c 2827 433c
000002c0: 6ce7 4ebd 1c05 46bd eea1 5bbd cf11 f8bd
000002d0: e0a3 8b3d 539d 95bd 98b6 b1bb 9047 e23c
000002e0: 3255 be3d bf68 e6bc 2033 293f 2e7e bfbd
000002f0: db05 16bc 9afb 4d3d bbdf 0dbc d41e 843d
00000300: e771 e4bf 2bd4 64bc bf9e dcbb f96f 603c
00000310: f21c 233d 2c06 dbbc b017 76bc 552b 733d
00000320: a2b8 703c 701c 573d 4a0a 0b3e 7636 63bc
00000330: a351 7f3d 6857 4fbe 00bc 9fbd 2f73 58be
00000340: 1bc6 00bc 3b06 d73e 69cf 2fbd 9b1d 933d
00000350: a8ef b2bd 22a6 873e 086e 1dbe 3e3e f2be
00000360: 0cc9 f4bc b7a6 563e 3798 443d f7d2 80bd
00000370: 01cc 7b3e 7a70 7e3e fbaf 783e a0c3 12bd
00000380: f174 b83b c2a4 563b 854e 303d 1d1f bebd
00000390: f0c5 e93c 9cef 893d c29c b03d 6e06 e33b
000003a0: 0d10 6bbe 466f 033e 8a40 2f3e 81bf da3c
000003b0: 0f37 fcbe d9de 823d 00b7 ad3e f46f 3a3e
000003c0: 9701 dbbc ff16 963f eb1d 53bd fe8d adbd
000003d0: 3ab3 603c b1d7 643d 1a47 35be 9289 b03b
000003e0: 6150 1abe b8e7 3a3f 79ae 633d 03e3 b93d
000003f0: e181 2abf c45f 5b3c 7dd0 bc3d c8e5 70be
-0.12600549 0.090731375 0.06961777 0.0032528045 -0.03454007 0.17510462 -0.06050271 -0.048572745
0.09764194 0.09822473 -0.19223617 -0.27856612 -0.1287515 0.07839904 -0.16176488 -0.05564809
0.19613855 -0.36892956 0.2471115 0.013023105 -0.029726675 0.10066624 -0.0074509485 0.08222755
0.068819456 -0.061437666 0.10576293 -0.0433205 -0.11812979 -0.11591363 -0.050586797 -0.11575297
0.017408928 0.09834212 -0.16060258 0.1437527 -0.07441349 -0.34320074 -0.026587278 -0.22339773
-0.21601854 0.14970157 -0.27649596 0.13283409 0.10789069 -0.067714326 0.0624168 0.19875574
0.28076273 0.109542355 0.009701649 0.0312711 -0.34522483 -0.024170412 -0.0845682 0.11880526
0.40441322 -0.15947542 -0.011433859 -0.28345966 -0.0686704 -0.081719585 0.14577262 -0.44088584
-0.22090761 0.27614105 4.107211 0.5652993 -0.19756494 0.06692105 -0.60211605 -0.20385374
0.19000676 0.032961905 -0.100564234 0.25953427 -0.30579427 0.094375834 -0.7237458 -0.11736228
0.24846539 0.22061501 -0.09408429 0.37342337 0.09549101 -0.031522084 0.39913142 -0.37216595
-0.24883582 0.093138665 0.17449005 0.044541016 0.3081085 -0.08276819 0.29638878 0.19281897
-0.04920461 0.1837112 -0.1763881 0.024574313 0.013167263 0.00957443 0.4520914 0.12588058
-0.09298863 -0.263243 0.019616472 -0.57597625 -0.65489405 0.13886239 -0.5659282 0.5428966
-0.05806044 -0.16637452 0.053916898 0.25956717 0.32439983 -0.5927936 -0.52443165 -0.17430986
-0.042733517 -0.23086482 0.30321455 0.2601273 0.08225705 0.19376697 -0.058325145 -0.011520809
-0.06459841 -0.25929585 -0.03933333 -0.03186208 0.0015123979 -1.2309177 -2.2932005 0.24475172
-0.06029878 0.1485179 0.11177777 0.08768876 0.0208575 -0.062186502 0.020780956 0.034628324
-0.0057858485 0.11640354 0.23992835 0.87160313 -0.18352677 -0.31423435 -0.04301907 -0.00013520148
0.051906504 -0.105251886 -0.08907742 0.2624454 -0.15045923 -0.23033708 0.0491225 -0.014946559
0.035671998 0.047133453 -0.10753477 -0.029801814 0.0018105167 0.1202882 -0.16002536 0.047994472
0.009785045 0.13152254 -0.005502642 0.018257301 -0.09454385 0.18442225 0.016673176 0.011911191
-0.05051367 -0.048344716 -0.053621225 -0.12112772 0.06818366 -0.07305398 -0.005423378 0.027622014
0.092935935 -0.028126119 0.66093636 -0.09350239 -0.0091566695 0.050288774 -0.0086592985 0.064511925
-1.784726 -0.0139666 -0.006732791 0.013698571 0.039822526 -0.026736341 -0.015020296 0.059367497
0.014692457 0.052517354 0.13578144 -0.013867965 0.062333714 -0.20248187 -0.0779953 -0.21137689
-0.007859732 0.4199694 -0.04292241 0.07183381 -0.08737117 0.26493937 -0.15374005 -0.47313112
-0.029881023 0.20962034 0.047996726 -0.06290238 0.2458954 0.24847594 0.24285881 -0.035831094
0.005629175 0.0032752012 0.043043632 -0.09283278 0.028536767 0.06735155 0.08623649 0.0069282567
-0.22955342 0.12835416 0.17114463 0.026702644 -0.49260756 0.06390161 0.3392868 0.18206769
-0.026734157 1.1725768 -0.051542204 -0.084743485 0.013714606 0.05586976 -0.17702904 0.0053874934
-0.15069725 0.73009825 0.055586312 0.09076502 -0.6660443 0.0133895315 0.092194535 -0.23525155

fc2.bias f4 [64]
00000000: 80b3 b43d 8573 d93d 5e03 373d 6bac e5bd
00000010: ba2f d53d 0b84 c43d 10a3 143d 27ed 22bc
00000020: 621b abbd 2b16 da3c 0575 2cbd 0d94 de3d
00000030: 4e9a f7bd 9c7e d53c 51f7 1fbb c7e7 9139
00000040: 9d1c 77bc 48da 513d 7531 d5bd 4247 d63c
00000050: 4779 a5bd 88d0 1d3d 6d21 29bc 2a1e 7c3c
00000060: 0c02 8c3d b7d3 45bd f7e1 c7bd c0ae 67bd
00000070: 0376 ca3d 173c cabd 72b7 9d3d bc82 2fbd
00000080: 7c31 d23b f5cd 4b3d f903 2fbd 1f31 abbd
00000090: d34c 283d 2f1f 963d e625 393d e4a5 89bb
000000a0: 2478 543c ef6c 503d 5d5f 1e3d 4e63 76bd
000000b0: ae0f b33d 7de7 84bc c7e5 43bd cfdb 15bd
000000c0: 52da 833c 4b95 80bd b441 b5bd 9c97 8a3d
000000d0: 7b1a cb3d 47c7 f6bd e692 c53d 47eb 91bd
000000e0: 7994 ea3c 6cf5 e53d 574c 9bbd 3153 4cbd
000000f0: 4c65 0f3d f032 9bbd 8169 41bd 844f d0bd
0.088232994 0.10617737 0.044680946 -0.11214527 0.10409494 0.09595498 0.03628832 -0.009944237
-0.08354832 0.026621899 -0.042103786 0.10868082 -0.12089978 0.026061349 -0.0024408887 0.00027829243
-0.0150825055 0.05123356 -0.10409824 0.026157025 -0.080797724 0.03852895 -0.010322911 0.015388051
0.06836328 -0.04829761 -0.09759896 -0.05656314 0.0988579 -0.098747425 0.07701005 -0.042849287
0.0064145904 0.049756963 -0.042728398 -0.083589785 0.04108889 0.073301665 0.04520216 -0.004200684
0.012968097 0.050885137 0.038665164 -0.060153298 0.08743225 -0.016223663 -0.047826555 -0.03658658
0.016095314 -0.062784754 -0.088504225 0.067671984 0.0991716 -0.12049728 0.09647159 -0.07124954
0.02863525 0.11228451 -0.0758292 -0.049884025 0.035008714 -0.07578075 -0.047219757 -0.101714164

fc2_bn.weight f4 [64]
00000000: 36e9 0d3f a8bd 073f b121 753f 0c74 8e3f
00000010: a3f8 2d3f e4d2 833f cbcc a83e bd32 1b3f
00000020: 137d f33e 85d4 1d3f 77dc 013f eed3 f13e
00000030: 5f1c 0a3f 05af 063f 1962 b93e 8729 b33e
00000040: 21e0 cd3e d930 0b3f 1d99 e33e 602a d53e
00000050: 2ccd 433f c130 013f 3c7c 143f 7865 f83e
00000060: cb86 003f 3c1e ff3e 7626 bb3e 4439 db3e
00000070: 0959 f03e d59d b43e 6959 da3e e429 963e
00000080: 545c 0e3f 4d51 fd3e ad48 053f 3f9f 293f
00000090: 28a8 aa3e 8763 a43e 61d4 de3e 73da 053f
000000a0: 6ea5 b23e fa0c 063f 94b4 193f d309 8a3e
000000b0: dd7e 953e 53dc 823e 17e8 113f e39a e73e
000000c0: 4490 f93e 85c0 d33e 6e19 c03e e7f5 033f
000000d0: 3424 353f 20da 353f 040e f13e 9a5e 86be
000000e0: a64f f73e 39a7 e13e 0262 9f3e 8fb6 043f
000000f0: 6ea0 bb3e 950b b63e 6019 a33e 2da0 2a3f
0.55433977 0.5302377 0.95754534 1.1129165 0.67957515 1.0298734 0.32968745 0.60624295
0.47556362 0.61652404 0.5072703 0.47232002 0.5394954 0.5261081 0.36207655 0.3499262
0.4021006 0.5437141 0.44452754 0.41633892 0.7648494 0.5046502 0.58002067 0.48514915
0.5020568 0.49827754 0.3655278 0.42817128 0.46942928 0.35276666 0.4264634 0.29328835
0.5560963 0.4947609 0.5206402 0.66258615 0.33331418 0.32107183 0.43521407 0.5228645
0.34891838 0.5236355 0.60041165 0.2696062 0.29198352 0.2555872 0.56994766 0.45235357
0.48742878 0.41357818 0.375194 0.5154709 0.70758367 0.7103596 0.47081006 -0.2624405
0.48302954 0.44072893 0.31129462 0.5184106 0.36645836 0.3555571 0.31855297 0.6665066

fc2_bn.bias f4 [64]
00000000: 13f7 31bd 7bed d7be f096 01bf 45f9 9cbf
00000010: cfe1 07bf 3bf7 d13c 3295 c2be ba89 39be
00000020: 99dc 48be 8cdd babe 00ce 1ebe 98b0 d2be
00000030: a2c3 cdbe 9c68 60be 1097 acbe e3e8 00be
00000040: 4161 84be ada5 d5be 3474 0d3e 4e9e abbe
00000050: d91f 2ebf 332d f7be 5ce1 c0be 3f39 11bf
00000060: 9c47 e5be bc73 87be 19ec c1bd 44fc d8be
00000070: 875a 77be 7515 323e cd60 b8be bda4 acbd
00000080: bb02 33bf b17c 04bf df47 03bf 9a8b 8cbe
00000090: 8393 d3be 94b2 bcbe 647a e5be e513 debe
000000a0: a65f 3ebe aabd 03be 9368 02be 4d51 a63d
000000b0: 13fe 05be a22e eabd 3c4a f9be 6d24 0a3e
000000c0: 2b6e fabe 88a3 0abf 90ea bbbd 30d3 77be
000000d0: abce 073e cfc3 c1be 172a 11be bbc5 bbbd
000000e0: 12c4 8dbd e362 63be 3973 d3bc 7401 b3be
000000f0: 7d9d cb3c d1ce 15be 79f8 f4bd d8f5 51be
-0.04344852 -0.4217337 -0.5062094 -1.2263571 -0.5307893 0.025630584 -0.38004452 -0.18118945
-0.19615401 -0.36497152 -0.1550827 -0.41150355 -0.40188318 -0.21914905 -0.33709002 -0.12588839
-0.2585545 -0.41727963 0.13813859 -0.33519214 -0.68017346 -0.48276672 -0.37671936 -0.56727976
-0.44781196 -0.26455486 -0.0946886 -0.42379963 -0.24155627 0.17390998 -0.36011353 -0.08429859
-0.6992604 -0.51752764 -0.5128154 -0.27450258 -0.4132348 -0.36854994 -0.4481994 -0.43374553
-0.18591174 -0.1286532 -0.12735204 0.08120976 -0.13085203 -0.11434676 -0.4868945 0.13490458
-0.48912176 -0.5415578 -0.091755986 -0.24201655 0.13262431 -0.37844703 -0.14176212 -0.091685735
-0.06922163 -0.22205691 -0.025811778 -0.34962046 0.02485537 -0.14629675 -0.11961455 -0.20503938

fc2_bn.running_mean f4 [64]
00000000: 831e d2bf d4f2 07c1 9655 c0c0 6fe4 c440
00000010: 80f4 46c1 aafa 3bc0 6224 f2c0 e26f 9f41
00000020: 2884 8ec1 4608 69c1 53bf 7dc0 4011 8dc1
00000030: 50a7 4541 6455 5d3f 6d4e 2ec1 2643 88c1
00000040: be8e c1c0 132b b7bd 5b8e ed3e 53be 6cc1
00000050: 9a15 d3c0 a629 04c1 68b8 19c1 453a f5c0
00000060: 241a e8c0 9c5f 18c0 0adb 7dc1 a1b6 f6c0
00000070: fd1e e63f 4e55 a2c0 a8ab e3c0 8995 edc0
00000080: 1c36 f6c0 231b 4cc1 38c7 2cc1 50c1 cbc0
00000090: ea00 85c0 161b fdc0 7a1a b940 6f17 0bc0
000000a0: a637 5ec0 d750 06c1 b41c 1cc0 c05b 37bf
000000b0: b0a7 f8c0 cbe2 27c1 5b8e f5c0 60bc eec0
000000c0: 010b 16c1 12d4 34c1 b8a4 68c1 73ab a63f
000000d0: f073 a2c0 4922 30c1 74be 3e40 04d5 b440
000000e0: 2eea b740 ee7a 61c0 3ec2 f3be b082 11c1
000000f0: f7be dbc0 3d92 0b40 bf48 d63c a2ae 16c0
-1.6415561 -8.496784 -6.0104475 6.152885 -12.434692 -2.9371743 -7.5669413 19.92963
-17.81453 -14.56452 -3.9648025 -17.633423 12.353348 0.8645842 -10.894147 -17.032787
-6.0486746 -0.08943763 0.4639767 -14.796466 -6.596387 -8.260168 -9.607521 -7.663363
-7.253191 -2.3808355 -15.865976 -7.7097936 1.7978207 -5.072913 -7.114704 -7.424504
-7.694105 -12.756625 -10.798637 -6.3673477 -4.1563616 -7.9095564 5.784482 -2.1733053
-3.4721465 -8.394736 -2.439252 -0.71624374 -7.7704697 -10.492869 -7.6736274 -7.460495
-9.3776865 -11.301775 -14.540215 1.3021072 -5.0766525 -11.00837 2.9803743 5.651003
5.7473364 -3.523128 -0.47609133 -9.094406 -6.867061 2.1808007 0.026157735 -2.3544087

fc2_bn.running_var f4 [64]
00000000: bc71 5142 3831 cd42 fbea a042 5d62 ab42
00000010: 92da 0043 1737 3142 c9eb be42 e8a4 cb42
00000020: 26f7 1243 32ae 0a43 3ec2 9a42 b88d da42
00000030: b8cd 3243 8b8d 3642 d0f9 9b42 4ce8 dd42
00000040: 2e01 8c42 6f3b dd42 e658 5042 7b0b fc42
00000050: 7787 e142 7fed bb42 cba5 5b42 2bbe 0a43
00000060: 42aa b842 5aa9 c642 33f8 8e42 ed39 b742
00000070: 7103 bb42 12f8 2a43 06a4 b142 b319 9842
00000080: 6b09 6f42 b3e5 a442 d7c3 ed42 6332 d742
00000090: 79a9 3242 40ad 7a42 87ec 9f42 7bea a342
000000a0: 7912 5f42 09b4 2143 039f 1c42 0de1 b842
000000b0: 540f be42 7ad9 8e42 1b43 9942 6834 b342
000000c0: 6335 c342 ad76 b342 4d3c e742 df75 6942
000000d0: 3d5c fb42 f6d6 4f43 3edb 9042 5156 8842
000000e0: 0d52 0b42 6dd0 2343 7956 e342 e38d 0243
000000f0: 272a a942 1cb2 b742 a691 9342 18f2 1342
52.36107 102.59613 80.45895 85.692116 128.85379 44.3038 95.46052 101.82208
146.96542 138.68045 77.37938 109.276794 178.80359 45.638226 77.987915 110.953705
70.002304 110.61608 52.086815 126.02242 112.76458 93.96386 54.911907 138.74284
92.332535 99.330765 71.484764 91.61314 93.50672 170.96902 88.82036 76.05019
59.759197 82.44863 118.8825 107.59841 44.6655 62.66919 79.96197 81.95797
55.76804 161.70326 39.155285 92.43955 95.02994 71.42476 76.631065 89.602356
97.60427 89.73179 115.617775 58.36511 125.68015 207.83969 72.42821 68.16859
34.830128 163.81416 113.66889 130.55424 84.58233 91.84787 73.78447 36.98642

fc3.weight f4 [64, 64]
00000000: ab9a c73e e736 513e fd3b 1c3f b03a a6be
00000010: a8b9 1b3e a417 8f3f c12e 66be e8bd 9f3d
00000020: 7efa 31bd 5a2d b93c 477b 0f3e 3def e93e
00000030: a7a7 adbc c99f 2f3e f783 17be 5a18 85bc
00000040: d886 063f 320d 9fbd 1e77 da3e 0048 30bc
00000050: 9332 733e 81fc cb3e c24b cc3e cb92 843e
00000060: 0673 9cbe 0f88 5c3e b8e4 57be 3f7a 3e3e
00000070: 0d5a bc3e 89a6 063e c815 c63e 21a9 9c3c
00000080: b118 923e 0664 7bbe f006 37bf c4fd 33be
00000090: 5ed6 e53d 8d2b 10bf 5e6d f93e 57fe 72be
000000a0: 872c 923e 58ca c43e 468d 7ebe 1c5e c13e
000000b0: af77 213f d0e2 ef3e 15e3 23bc d494 27be
000000c0: 44e6 633e f513 32bf e157 55be 7b5c fb3d
000000d0: 95df 41be 4ea5 f63d b3a4 7fbe 5315 9cbd
000000e0: eb44 d53c f341 d9bd 1b53 7abc 36e6 c53d
000000f0: 2059 8b3e 9b38 ca3d 77d9 ebbd dd6c a5be
00000100: e262 5a3d ad43 863e 5a45 923e 6da3 61bf
00000110: c8af a23b c6ee e23e ae2e 32be 539e 16be
00000120: ca61 1ebe c0f7 93be 5327 7b3e cc77 07bd
00000130: 7b7d 49bf d6e8 9f3e bf9b 0bbe e5cc b13e
00000140: 4ab8 00be 9b5a 0a3f 7bb2 27be be63 dd3c
00000150: 22fe 133d b2c7 693d 9ce1 e23e 43b7 2dbe
00000160: 143a 73bd 5e1a 3d3e 3dc2 343d e309 18be
00000170: c140 8f3e d12c c03e 25b5 fbbc 916e cf3e
00000180: 3b09 7f3e dd98 3ebb 2e17 bebe fbf4 c2be
00000190: 8a19 463e 3bbb 96be 2b7d 2d3e 8d40 b13e
000001a0: 2def e03e 923a 00be d9f1 24be ce3e a03b
000001b0: 8b7c 1d3e 3f46 e3bd 9bd6 6d3e 49ea 283e
000001c0: da43 803e 2647 3fbd bc99 93be cb50 d53d
000001d0: 5361 85bf 3cfe 1f3e b46d dd3e 3d47 4fbd
000001e0: 3526 9c3e 4c40 dbbd 8691 1c3e 1fc8 bbbe
000001f0: 34aa a13e 3f72 a6bd a8bf 98be d1e4 393e
00000200: dd4d 903e 745e 693f 9c66 473e b607 05bf
00000210: 5084 cbbc 3e7a 393d c117 603d 1cfa 2fbd
00000220: 4e60 743d be14 83bb 673e e0bc 3ed7 153e
00000230: 997c 3abe 3276 063e 96b3 b03e e58f 323e
00000240: 0b24 f2be 49d5 3e3f ad33 503e c00f 2dbc
00000250: 7f3b b1bd c9bf 3cbe 313b ad3e c607 d6be
00000260: 1ca7 ec3e c92d a83d 7ed1 7bbf 32ff 053e
00000270: 0394 953e 6177 51be 4153 30be 24de 89be
00000280: 9b28 0f3f 96ef f0be 20d5 06be c0e9 8fbe
00000290: 1766 543c 10b6 2a3f 2778 89bd b157 9a3c
000002a0: 9c6e c23d 6953 e63e 31d5 db3d ea5d 413e
000002b0: 2895 1a3e 91f7 c43e 39ea 9c3e 061a 823e
000002c0: 9dd8 bdbe 87e8 66be 6a8f 953e 0394 0c3e
000002d0: 04de b23e 9043 293e 95c1 003f 3806 4d3e
000002e0: baf8 723e 07f2 c3be 006c d13e 906e eabc
000002f0: 4cf0 06be 2105 e13e a761 913e a9a1 75be
00000300: 26ff eabe f767 a83d 7c80 813d 5d65 0c3f
00000310: d0cb 383d c86a 59be f354 853e eeb9 f8be
00000320: 0231 61bf 688a 483f c1ce 9d3e 004d ce3d
00000330: 35cc b8bc 9ae5 133e 5d5f bb3e 74a4 14bc
00000340: 9681 cfbc 2770 d73d a7f9 483d 433a 52be
00000350: f50d d6bd bc87 3fbf ec89 31bf ab06 d23d
00000360: 2d39 a43e a9f0 cdbc 3615 6bbe bbba dcbe
00000370: 0a95 913d e3ce c0bd a3e0 1fbf 9bf9 523e
00000380: 3ff5 24be 71a1 a9be 310e a23e c8e4 043e
00000390: f2c8 e7be 3a75 3e3e 27a0 5cbe 2c93 93be
000003a0: 2b0b 6c3e ea4a c7bd 38a0 923d a19a 003e
000003b0: d7e4 e83d aaad 6c3d 3199 c6bd ac6b 03bf
000003c0: 8465 bebe 00a2 80bf c63c 7ebd 8b4c 203d
000003d0: 08d9 5cbe 4871 373d 1921 0b3e 07a7 48be
000003e0: d4cd f2be c9f6 afbe fd2b 2dbe af1d 84be
000003f0: 286b 3bbe 9cba a1bd 865a 69bc dd54 123e
0.3898519 0.204311 0.61029035 -0.3246665 0.15207541 1.117909 -0.22478773 0.077998936
-0.04345178 0.022604633 0.1401187 0.45690337 -0.021198107 0.17150797 -0.14796434 -0.016246963
0.52549505 -0.07766189 0.42669004 -0.010759354 0.23749761 0.39841083 0.3990155 0.25893244
-0.30556506 0.21536277 -0.21083343 0.1860132 0.36787453 0.13149466 0.38688493 0.019123616
0.28534463 -0.24549875 -0.7149496 -0.17577273 0.11222528 -0.56316453 0.48716253 -0.23729835
0.28549597 0.38435626 -0.24858579 0.37767112 0.6307325 0.46852732 -0.010002871 -0.16365367
0.22255808 -0.695617 -0.20834304 0.122734986 -0.18932946 0.12043248 -0.24965172 -0.07621255
0.02603384 -0.10608282 -0.015278603 0.0966305 0.27216434 0.09874078 -0.115160875 -0.3230962
0.05331696 0.26223508 0.28568536 -0.8813999 0.0049648024 0.44322795 -0.1740062 -0.14708833
-0.15466991 -0.28899956 0.2452672 -0.03307323 -0.78707093 0.31232327 -0.13633631 0.34726635
-0.125703 0.540445 -0.16376679 0.0270251 0.03613103 0.05707521 0.4431275 -0.1696444
-0.05938156 0.1846709 0.044130553 -0.14847521 0.2797909 0.37534192 -0.030726025 0.40514043
0.24905865 -0.0029082813 -0.3712706 -0.3807753 0.1934568 -0.2943972 0.16942279 0.3461956
0.43932477 -0.12522343 -0.16107883 0.0048902994 0.1537954 -0.11097383 0.23226397 0.16495623
0.25051767 -0.04669871 -0.28828228 0.10415801 -1.0420326 0.15624326 0.4324776 -0.050605047
0.304979 -0.10705623 0.15289888 -0.36676118 0.31575167 -0.081272595 -0.29833722 0.18153693
0.28184405 0.9115975 0.19472736 -0.5196489 -0.024843365 0.045282595 0.054710153 -0.042963132
0.059662156 -0.0040002754 -0.027373506 0.1463289 -0.18211593 0.13131025 0.34512013 0.17437704
-0.47293124 0.745442 0.20332213 -0.010562837 -0.08653926 -0.18432535 0.33834222 -0.41802806
0.46221244 0.08211858 -0.98366535 0.1308563 0.29214486 -0.20455696 -0.17219259 -0.26927292
0.55921334 -0.4705779 -0.13167238 -0.28108025 0.012963793 0.66684055 -0.0671237 0.018840643
0.09493753 0.44985512 0.107340224 0.18883482 0.15095961 0.38470128 0.30647448 0.2541048
-0.37079325 -0.2254964 0.2921098 0.13728337 0.3493501 0.1652968 0.5029538 0.20021904
0.23727694 -0.3827059 0.4090271 -0.028617173 -0.13177603 0.43949226 0.28394815 -0.2398745
-0.45897788 0.08222955 0.063233346 0.5484217 0.045116246 -0.2123214 0.26041374 -0.48579353
-0.87965405 0.7833619 0.30821803 0.1007328 -0.022558311 0.14443055 0.36596194 -0.009072412
-0.025330346 0.10519438 0.049066212 -0.20530038 -0.10451881 -0.7481649 -0.6935108 0.10255178
0.32074872 -0.02513917 -0.2295731 -0.43111214 0.07108505 -0.094144605 -0.62452143 0.2060303
-0.16109179 -0.33130983 0.31651452 0.12977898 -0.45270497 0.18599406 -0.21545468 -0.2882322
0.23051135 -0.097310856 0.071594656 0.12558986 0.11371773 0.057782806 -0.09697188 -0.5133617
-0.37186825 -1.0049438 -0.062069677 0.039135497 -0.21567166 0.044785768 0.13586845 -0.19594966
-0.4742266 -0.3436797 -0.16911311 -0.25803897 -0.18302596 -0.07896921 -0.014242774 0.14290185

fc3.bias f4 [64]
00000000: 55e4 7b3b d213 423d 25a3 a93d 2362 52bd
00000010: 8291 27bd 9557 693d 9bb4 fcbc 9b4b 103d
00000020: cec3 5e3d 7cce a2bc 253e 10bd 1cd9 e83d
00000030: 8980 463d 015c f9bd f997 f0bd 0242 a9bc
00000040: ddb7 99bd 1ab0 cb3d e643 bc3d 4b6d a73d
00000050: ff7c d33d 3f99 c03d e443 d33d 76eb 933b
00000060: 3591 de3d 2b40 293d 2cb0 823d d8bb 7ebd
00000070: 5680 5f3d ff35 d7bd aa9c 1d3b ce70 8fbd
00000080: 7a66 443c a69c 543c 7a4b 62bc e75e fe3d
00000090: 6268 edbd 23a5 fbbd ae99 013c 58d7 a8bd
000000a0: 89e4 a8bd f6a6 96bd 2867 cd3d d18d a2bd
000000b0: ca8d d2bd cd57 b83d 80be a4bd 6272 66bc
000000c0: 01af 99bd 4b8b 173d 0199 dd3d 276e 9abd
000000d0: 59ce b9bd 1557 553d b7c2 9abd cd05 433d
000000e0: 53fe 9d3d 72a1 c13d c209 833c 6ffe ea3d
000000f0: fb3f 07bd 62ff 913d b316 20bd c06a 8abd
0.0038435657 0.047382183 0.082830705 -0.05136312 -0.04091025 0.05696829 -0.030847838 0.035228353
0.054385953 -0.01987385 -0.035215516 0.11369535 0.048462424 -0.121757515 -0.117477365 -0.020661358
-0.07505772 0.09945698 0.09192638 0.08175143 0.103265755 0.094042294 0.103156835 0.004514153
0.1086754 0.04132096 0.06381258 -0.06219086 0.05456575 -0.10508346 0.0024049678 -0.07003938
0.011987323 0.012976801 -0.01381194 0.12420445 -0.11592175 -0.12287357 0.007910175 -0.082441986
-0.082467146 -0.07356064 0.10029441 -0.079372056 -0.1028095 0.09001122 -0.080441475 -0.014065357
-0.075040825 0.036998075 0.10820199 -0.07540541 -0.09072561 0.052085 -0.0755667 0.047612954
0.07714524 0.094546214 0.015995864 0.114743106 -0.03302 0.071287885 -0.039084148 -0.06758642

fc3_bn.weight f4 [64]
00000000: 1c89 2a3f f546 0d3f e2d5 023f bf5f 8f3f
00000010: 0185 853f 7c43 c53f 3bf5 2f3f 4858 f53e
00000020: 59df 913f a2b9 c13f 0a27 7c3f 8e93 6e3f
00000030: d900 b53e af98 373f 95aa ce3f ccb5 953f
00000040: b05a f53f 0db4 933f ad91 963f 53a1 ac3f
00000050: 6244 443f 23a4 353f 4673 503f 4b94 873f
00000060: ea4d a13f 728b 473f 71f2 9f3f b5c9 a73f
00000070: 0804 773f cc81 c43f 40c7 d93e 6c3c 603f
00000080: ccfe 753f d4a5 943f 1b0e c73f 0c49 7c3f
00000090: 8ac8 7c3f 0b70 c23f d753 0c3f 4742 363e
000000a0: c948 693e 50cb d33f e01c a13f 7c61 3e3f
000000b0: 08f0 0d3f c737 423f 68ab 9b3f e123 483f
000000c0: 8b1f a13f 5ed1 743f 421e c93e 7606 b53e
000000d0: 5d17 963f bb94 c43e 40e4 9e3f 25bd bc3f
000000e0: 2576 f33e 6288 693f db76 573f 3b59 8b3f
000000f0: 6a3a f23f 0316 633e 47b1 833f 1a8a c03f
0.6661546 0.55186397 0.5110761 1.1201094 1.0431215 1.541122 0.68733567 0.47918916
1.1396285 1.5134776 0.9849707 0.931939 0.3535221 0.7171735 1.6145808 1.1696105
1.9168301 1.1539322 1.1763207 1.3486732 0.76666844 0.7095358 0.81425893 1.059213
1.2601902 0.7794715 1.2495862 1.3108431 0.96490526 1.5352111 0.42534828 0.87592196
0.96091914 1.1613107 1.555118 0.9854896 0.987435 1.5190443 0.5481543 0.1779872
0.22781672 1.6546421 1.2586937 0.743675 0.55444384 0.7586636 1.2161684 0.78179747
1.2587751 0.9563197 0.39280897 0.35356492 1.172588 0.38394722 1.2413406 1.4745222
0.47551075 0.9122373 0.84165734 1.0886606 1.8924077 0.22176366 1.0288476 1.5042145

fc3_bn.bias f4 [64]
00000000: 676d 153f 813a 533f e92c a23e af6d 78bf
00000010: 8269 68bf 7b9b a6bf 5664 c63e 2e9e f7be
00000020: 05b2 0fbf 3e39 b6bf 45a5 73bf d3d7 99bf
00000030: 8a6b 033f 63d1 49bf d2e7 cdbf 2e6b a3bf
00000040: b781 cbbf cff1 7bbf b805 9bbf 2a45 c2bf
00000050: 3ccb 27bf c088 8ebf 7459 38be bbdd 95bf
00000060: d77d 98bf f99a 63bc 55f1 93bf 687a abbf
00000070: 349f 91bf 0b70 a9bf a0c9 29bf 0214 83bf
00000080: 696a 24bf b2a3 85bf b9f7 b0bf b30a 98bf
00000090: ffb0 94bf 0eb7 a5bf e96b 0bbf 5f78 333f
000000a0: 8a6f 2e3f 5c99 acbf 533d a6bf 0cf3 0cbf
000000b0: 3150 753e e0fd 69be 78e6 94bf d228 25bf
000000c0: e103 abbf 1fdb 90be 7131 0c3f 1622 a13e
000000d0: a174 a8bf bac1 ee3c c065 91bf e02d a5bf
000000e0: ea2e 09bf 4dbb 88bf cad3 98bf 6e82 20bf
000000f0: f8db b7bf 82a8 5f3f 7b14 a0bf 5d6c a5bf
0.5837006 0.82511145 0.3167489 -0.97042364 -0.9078599 -1.3016199 0.38748425 -0.4836287
-0.5613101 -1.4236219 -0.95174056 -1.2018989 0.51335967 -0.78835124 -1.6086371 -1.2767084
-1.5898961 -0.98415846 -1.211112 -1.5177357 -0.65544486 -1.1135483 -0.18002874 -1.1708292
-1.1913403 -0.013891929 -1.1558024 -1.339673 -1.137671 -1.3237318 -0.6632328 -1.0240481
-0.6422487 -1.0440581 -1.3825599 -1.1878265 -1.1616515 -1.2946489 -0.5446153 0.70105547
0.68138945 -1.3484302 -1.2987465 -0.5505836 0.23956372 -0.22850752 -1.1632833 -0.6451541
-1.3360559 -0.28292176 0.5476294 0.31471318 -1.3160592 0.02914511 -1.1359177 -1.2904625
-0.5358721 -1.068216 -1.1939633 -0.6269902 -1.4364004 0.873665 -1.250625 -1.2923695

fc3_bn.running_mean f4 [64]
00000000: 9b1c 513f 2d6e 013e 8ffe 1d3f dbf3 1fbf
00000010: f6dc 19bf bac5 f4be d524 223f 3c9b 09be
00000020: 3006 bdbe c3c7 2fbf ef2f 23bf 9488 16bf
00000030: dcd7 a33e 35a0 76bf fbdc 8cbe 6eed e2bd
00000040: cfa9 debe 9d7b a1bd 30ff 01bf 6328 a2be
00000050: 5a25 143f 187b bfbe ce33 9fbe 108d 0fbf
00000060: 15f0 59be 7fec fbbe 2f87 6cbe 5443 ebbe
00000070: 9dac 1fbf 5a63 6cbe d161 32bf 9784 0dbe
00000080: 1730 6cbd 6c99 fbbe 6227 f3be 81e4 13bd
00000090: 5a85 b6be a65c 2fbf 00ad edbe 8072 9f3c
000000a0: a482 413d 1466 52bf 0a80 d7be a28b 35bf
000000b0: 1912 063e b5d1 76bd 0f8f b6be 0bd6 74bd
000000c0: 38d3 47be b14b 05bf ffa2 c7be e6df 033e
000000d0: dc8c babe d314 a03e cc85 37bf 853f 1e3e
000000e0: 1561 0cbf 6ce6 27bf e11d e4be 63aa a2be
000000f0: 46a5 afbe aea9 d73e efc4 d0be a4eb 56bf
0.81684273 0.12639685 0.6171655 -0.6248147 -0.60102785 -0.47807103 0.6333745 -0.13438123
-0.36918783 -0.6866419 -0.63745016 -0.5880215 0.32000625 -0.96338207 -0.27512345 -0.11080442
-0.4348893 -0.078849055 -0.5078001 -0.31671438 0.57869494 -0.373986 -0.3109421 -0.5607462
-0.2128299 -0.4920387 -0.23098443 -0.45949805 -0.6237276 -0.23084775 -0.69680506 -0.1382011
-0.05766305 -0.4914049 -0.47490984 -0.03610659 -0.35648614 -0.68500745 -0.4642105 0.019463778
0.04724373 -0.8218701 -0.42089874 -0.7091619 0.13092841 -0.060258586 -0.3565602 -0.05977444
-0.19514167 -0.5206862 -0.38991544 0.12878379 -0.36435592 0.31265888 -0.7168853 0.15453918
-0.54835635 -0.6558597 -0.44554046 -0.3177062 -0.3430578 0.42121643 -0.40775248 -0.8395331

fc3_bn.running_var f4 [64]
00000000: ee92 4d3f 18ac 933f 7134 903e 322b b43e
00000010: 90a4 f23e aa4b cf3e d3fb cc3e 8f77 9e3e
00000020: 5955 343f bcc1 aa3e bc43 253f db41 123f
00000030: d120 8d3f 6796 003f 6c97 0d3f 9860 943e
00000040: aea7 0b3f 5846 be3e edd0 cb3e 5438 9d3e
00000050: 545a fc3e d273 333e 4080 2b3f 9284 b53e
00000060: a87c 0e3f dea0 ac3e fb4f 033f f5ca a33e
00000070: 3580 8e3e 20d3 ce3e cd7b 653e 485b c93e
00000080: a107 aa3e 9e02 da3e 1f0a e83e d79d a13e
00000090: 6224 a83e fa3d 2a3f 6e45 133f d3cf 773f
000000a0: af71 bc3f cad0 113f 28a1 ba3e 174d 843e
000000b0: 622e ec3e d8c7 a73e 38b2 c93e 92f5 d63e
000000c0: 86e8 293f dfe4 823e e770 053f 9d4e f23e
000000d0: f031 e53e ed6d 683e 50b3 f23e 6c48 e53e
000000e0: e1c2 453e dc7b 8d3e 7e0c 863e ecca 273f
000000f0: 9a0c 1e3f 15a9 813f 19d3 9a3e 8605 0a3f
0.8030232 1.1536894 0.2816501 0.35189205 0.47391176 0.40487415 0.40035877 0.3095059
0.7044273 0.33350933 0.6455648 0.5713174 1.102564 0.50229496 0.55309176 0.28979945
0.54552734 0.37163043 0.39807835 0.30707037 0.49287665 0.1752465 0.6699257 0.35452706
0.5565896 0.33716482 0.51293916 0.3199078 0.2783219 0.4039545 0.22410508 0.39327455
0.33208945 0.42580122 0.45320222 0.31565735 0.32840258 0.6650082 0.57527816 0.9680149
1.4722193 0.5695921 0.36451077 0.25840065 0.46129137 0.32769656 0.39393783 0.4198423
0.6637043 0.2556524 0.521254 0.47325602 0.44764662 0.22698183 0.4740243 0.44781816
0.19312622 0.2763356 0.26181406 0.6554401 0.6173798 1.0129725 0.3023918 0.5391468

fc_out.weight f4 [1, 64]
00000000: f053 96be 6f48 bcbe 583b dbbd 6259 8bbe
00000010: bae6 05c0 e747 b0bf 14d3 d9bd f3e0 3dbf
00000020: b46c 22bf d70a 09c0 b254 2dc0 18bc 3abf
00000030: 987f 11be b70e 04bf cd53 13c0 e946 1cc0
00000040: 2a97 c1bf c835 7abf 8d48 e2bf cb1f 08c0
00000050: 05dc 7cbe 66fb 00c0 6a22 dbbd 3bbd dcbf
00000060: 21a6 e5bf 042e 5dbe 0545 2cc0 8453 d5bf
00000070: 9fe0 00c0 69f4 d4bf a4ab 60bf b1bc aabf
00000080: 8a51 14be eb10 efbf 285d e5bf 60fe 47bf
00000090: 8c08 05c0 c310 f8bf 58cf 9fbe 2bb5 eebe
000000a0: 34aa 43be 679f 01c0 a4f1 97bf a967 e8bd
000000b0: 8006 c8bd 0ff8 91bd db64 b5bf 1666 b8be
000000c0: 2216 b0bf cc11 a2bd f9c3 3ebe 7030 26be
000000d0: 5efe 01c0 906f 8bbd c072 8bbf 031e 20c0
000000e0: 8a5b 9abe 789d 98bf 3878 14c0 07e4 83be
000000f0: ccfc e2bf dbaa 23bf 12bd 0dc0 0b12 eebf
-0.29360914 -0.36774012 -0.10704678 -0.2721663 -2.0922074 -1.3771943 -0.10635963 -0.7417137
-0.6344712 -2.1412866 -2.7082944 -0.7294326 -0.1420883 -0.51584953 -2.3019898 -2.441828
-1.5124257 -0.97738314 -1.7678391 -2.1269405 -0.24693306 -2.0153441 -0.10699923 -1.7245249
-1.7941324 -0.21599585 -2.6917126 -1.6666112 -2.0137098 -1.6637088 -0.877619 -1.3338834
-0.1448423 -1.8677038 -1.7919054 -0.7812252 -2.0786467 -1.9380115 -0.31212878 -0.46622595
-0.19107896 -2.0253541 -1.1870618 -0.113478966 -0.09766865 -0.071273915 -1.4171404 -0.36015385
-1.3756754 -0.07913551 -0.18629445 -0.16229415 -2.0311503 -0.06808388 -1.0894394 -2.5018318
-0.30147964 -1.1923056 -2.3198376 -0.2575991 -1.7733397 -0.6393258 -2.214665 -1.8599256
