checkpoint_actor_target_0.pth (torch_old, 27361 bytes, 14 tensors)

fc1.weight f4 [64, 24]
00000000: bd5a f5be c50e 07bf b30e 7a3c 240c c6bd
00000010: 54e7 b23f 496c 8ebf bffa 093e 6c6c 843c
00000020: 02c9 67be 242f 16bf c487 d03d 91d2 dcbd
00000030: cd31 a03f 7724 14bf 9938 9ebc 6968 5cbd
00000040: 67cc cbbe 226a 6dbe 2577 22bd ba01 52be
00000050: 0e1f f03e 11b4 6e3f f097 5ab9 0d5d b2be
00000060: 2388 8ebd fca9 e63e 324b b53c eacb 8abf
00000070: 58e4 4cbf 8725 763f d035 f03d edf2 8ebf
00000080: 8111 60be e3eb c3bd b35c c73d b279 a5be
00000090: 187b 53be 3570 6e3f afc6 6cbd b934 87be
000000a0: 4ddb eebe bab0 e3be 8a03 c2bd 6f29 52be
000000b0: 67c9 503e fa9b 733f 1d3e 923d aed3 5bbe
000000c0: 4d19 873f c384 613f 8eb3 4cbd 290e 183f
000000d0: b7c2 573d e33e ef3d 5320 053d 1904 ce3e
000000e0: bf58 c83d 5666 cf3e 7343 9cbd a2aa e63d
000000f0: 729b 1ebf d3fd 0040 7093 863d b17e 3b3e
00000100: 4f84 8d3e c4c2 8f3e f2c9 e2bc 0cc1 ebbd
00000110: 3dc9 e9be 5d83 db3f 2c1e 603d a493 46bc
00000120: d94a 6ebf 7d3f c0be b33a edbc 0e3c 0d3e
00000130: e414 83be c5f4 223f b825 af3d 8a4c 393e
00000140: b56e 6bbf 60be 52be 4af5 bebb ef29 82be
00000150: 6852 ccbd c1d3 413f 9b7c ec3d 0fa8 c0be
00000160: 7992 81bf d37e db3c a30b 9ebd 05e2 3d3f
00000170: 4ec8 2a3e 72ff 873f da3a cc3d 7517 513f
00000180: 10c2 2e3e 56b1 f93f 5811 eebd 6d42 713e
00000190: c741 613f aebd a9be 5905 ef3c f795 4b3d
000001a0: e275 713e 6800 eb3f f54a 42bd 9f39 963d
000001b0: 3af6 6b3f 37fa c9be 7336 8abd f2c8 183e
000001c0: ea08 0a3f 4ed1 0240 2ae6 3e3d a167 2c3e
000001d0: 36c0 173f 9cc3 bdbe 9e1b 23bd 582c 133e
000001e0: 55bc 04be 85ec 4c3e 4438 6b3d b0c6 c1bd
000001f0: 4435 a83e a6a5 fbbf e99a 3cbd 1e45 a33d
00000200: 3770 3b3b ad6d cb3e 9330 203d 45e9 34bd
00000210: 3884 c6bd 0ee6 babd 2b4b 55bd 2e13 8cbc
00000220: 87bf 6a3e 0e69 8c3e 0415 ffb8 ae28 b1bd
00000230: 021e b2be fe40 2740 ab3a acbc 88cb 0a3d
00000240: 73d2 07bf 36b7 df3f 61f7 b83d bc2f 0e3e
00000250: 3f82 6e3d 8eea 863d a6df d63c 305b 033e
00000260: c36b 7cbf bb12 f23f fbc3 1f3c b18b 833e
00000270: 9c4f 52bd b2d0 26be 8ef0 783d b32a a73e
00000280: 6cfe bebf acbf f23f 824a 3bbd f25e 36be
00000290: b77a f2bb 957e a1be 4ab7 e7bc 6e24 c3be
000002a0: 0478 42bd 7430 e8b8 7d93 91bd 7a34 4f3d
000002b0: 738a 15bf e829 983f 41b9 af3d 21ac 333e
000002c0: 1d2a 1cbe d34b d3bd aeee 9ebd 0fdd 5bbd
000002d0: 3b86 5a3b 0a71 053f 58a8 933d 4777 723c
000002e0: a9e0 0bbe 0be8 a9be 4f25 82bb d8ad 45bd
000002f0: de74 513f ade3 3bc0 2f88 063c 81d7 afbd
00000300: f87f ad3c 5d56 18bf c409 0cbd 1982 78be
00000310: a6b3 6d3f b15f b1bf 2c0d f3bc aa85 4fbe
00000320: f211 833d 73a0 4cbf 61fb 643d f4fb 043e
00000330: 8f77 703f 0199 acbf 613d d9bc 1e15 20bd
00000340: 5173 6c3e 99da 70bf 6692 023e 33fd 40be
00000350: af0c d13e c5e4 42bf 5e22 41bb 7149 81bd
00000360: 3900 56be d88f a8be d36d 043d 5d3e 513f
00000370: 7ee9 203e cb7d 8b3f fb47 3f3e d44a 243f
00000380: 4500 bf3d b35c 89be 223e b43d 4f05 d1bd
00000390: c076 a93d bb98 d6be 26c2 9bbc e9d9 b13b
000003a0: d928 4ebd 9fa7 7dbe 5c87 e0bd b533 333e
000003b0: dc5d 9c3c ba95 0bc0 9223 46be bb51 903d
000003c0: 9a43 69bf d3c8 d33d b44d 883d 8578 b83d
000003d0: 9673 fc3e 8cfe 41be 7171 cabd dc88 513e
000003e0: cd32 4bbf 1c45 053f 2689 15bd c5a2 7f3e
000003f0: 1661 823e 0ab0 4fbf d1d7 08bd cf0d cf3d
-0.4792079 -0.5275691 0.015262294 -0.096702844 1.3976846 -1.1126796 0.13474558 0.01616498
-0.22635272 -0.5866568 0.10182145 -0.1078235 1.2515198 -0.5786814 -0.019314097 -0.05381051
-0.39804384 -0.23185018 -0.039664406 -0.20508471 0.46898693 0.9324351 -0.00020846701 -0.34836617
-0.0695956 0.45051563 0.022130582 -1.084348 -0.80035925 0.9615101 0.11729014 -1.1167885
-0.21881677 -0.09566476 0.09734478 -0.3231941 -0.20652425 0.93139964 -0.057806667 -0.26407412
-0.46651688 -0.4447077 -0.09473331 -0.20523618 0.20389329 0.95159876 0.071407534 -0.21467468
1.0554596 0.88093203 -0.049975924 0.59396607 0.05267593 0.116819166 0.03250153 0.402375
0.09782552 0.40507764 -0.076300524 0.112630144 -0.6195594 2.0154922 0.0657109 0.18310048
0.27640006 0.28078282 -0.027684186 -0.1151143 -0.45661345 1.7149464 0.054716274 -0.012120161
-0.9308296 -0.37548438 -0.028958654 0.1379244 -0.25601876 0.6365474 0.08552116 0.18095604
-0.919658 -0.20580435 -0.0058275806 -0.25422618 -0.09976655 0.75713736 0.11547204 -0.3762822
-1.0122825 0.026793873 -0.07717063 0.74173003 0.16677973 1.0624831 0.099721625 0.8167642
0.17066216 1.9507244 -0.11624402 0.23560496 0.87990993 -0.33152527 0.029177355 0.049703564
0.23580125 1.8359499 -0.047434766 0.07335209 0.92172587 -0.3944871 -0.067486666 0.14920405
0.5391985 2.044025 0.04660622 0.16836406 0.59277666 -0.370633 -0.03982126 0.14372385
-0.12962468 0.200121 0.057426706 -0.09461725 0.32853138 -1.9659927 -0.04604617 0.079721674
0.002860082 0.39732113 0.039108824 -0.044167776 -0.096931875 -0.09125911 -0.05207364 -0.01709899
0.22924624 0.274239 -0.00012163262 -0.08650337 -0.3478852 2.6133418 -0.021024069 0.03388551
-0.53055495 1.7477787 0.09031559 0.13885397 0.05822968 0.065877065 0.02622969 0.12827754
-0.9860193 1.8911966 0.009751315 0.25692514 -0.051345453 -0.16290548 0.060776286 0.32649764
-1.4921393 1.8964744 -0.045725353 -0.17809656 -0.0073998827 -0.31541887 -0.028285641 -0.3811373
-0.047477737 -0.00011071647 -0.07108209 0.050587155 -0.5841438 1.1887789 0.08580256 0.1754613
-0.1525044 -0.10317197 -0.07760368 -0.053677615 0.0033344168 0.5212561 0.072098434 0.014798946
-0.1365992 -0.33184847 -0.0039717327 -0.048261493 0.8181895 -2.9357712 0.00821118 -0.08586026
0.021179184 -0.5950678 -0.034189 -0.24268378 0.92852247 -1.3857328 -0.029669367 -0.20265833
0.06399907 -0.79932326 0.055903796 0.12986737 0.9393243 -1.3484193 -0.026518526 -0.03908264
0.23090865 -0.94083554 0.12751159 -0.18846588 0.4082999 -0.76130325 -0.0029469947 -0.06312836
-0.20898522 -0.32922244 0.0323313 0.81735784 0.1571407 1.0897764 0.18679802 0.6417668
0.09326223 -0.26828536 0.088009134 -0.10206091 0.08274603 -0.419134 -0.019013476 0.0054275882
-0.050331924 -0.24770974 -0.10963318 0.17500193 0.019087724 -2.1810136 -0.19349506 0.07046839
-0.91118777 0.103410386 0.06655446 0.09007362 0.49306935 -0.18944758 -0.098849185 0.20462364
-0.7937439 0.5205858 -0.036507748 0.24964435 0.25464696 -0.8112799 -0.033408944 0.10110056

fc1.bias f4 [64]
00000000: b6da 8abd ffa2 863d 31c9 b73d 9844 ecbb
00000010: 2e83 473e 0ced 10be 813b a03d 60dd 3c3e
00000020: 1a98 11bd 8d82 253e 3d8c 573b d461 1cbe
00000030: fc40 e5bd 7e89 9b3d 25f9 b4bd 648e 493d
00000040: df79 4d3e ee50 8d3d 29a5 9cbc 94d7 503d
00000050: 8ecd f0bd 65a0 2fbe 651f 1dbe 1c61 2fbe
00000060: a40f 2b3d b584 263d ff3f b1bd ab53 4cbe
00000070: b2f8 e13d b84c edbd 37fa 0bbd ac30 2fbe
00000080: da12 ecbd 9ec4 ae3d aac1 42be 1b55 eebd
00000090: 5090 1c3e 6c36 d6bd 3841 aebd bf5f 6bbd
000000a0: 8cf6 b23d 8051 09be 164d a53c 07f7 aa3d
000000b0: 0d91 74bc 6cb6 173d e376 1fbe 613c bd3d
000000c0: fbbd 9b3d 3f4b d1bc 30aa 2cbe fcdc a63d
000000d0: 539b 083e 5c95 12bd ddc1 c43d 78d0 9a3d
000000e0: 5451 a7bd 221d 66bc af4b 503e 49cb 483a
000000f0: d060 26be b884 75bc dedc cf3d 3121 87bd
-0.06779997 0.06574058 0.08973921 -0.0072103254 0.19483635 -0.14152926 0.078238495 0.18443823
-0.035545446 0.16163082 0.0032889985 -0.15271693 -0.111940354 0.07594584 -0.08836583 0.04920806
0.20066021 0.06900202 -0.019121723 0.05098684 -0.117579564 -0.1715103 -0.15344007 -0.17126888
0.041762963 0.040653903 -0.086547844 -0.19953792 0.11033763 -0.115868986 -0.03417417 -0.1710841
-0.11527033 0.085335955 -0.1901919 -0.11637326 0.15289426 -0.10459599 -0.08508533 -0.057464357
0.08738431 -0.13409996 0.020178359 0.08347898 -0.014927161 0.037039205 -0.15572695 0.09240032
0.07604595 -0.025548575 -0.16861796 0.08147618 0.13340501 -0.03578697 0.09607289 0.075592935
-0.08169809 -0.014045032 0.20341371 0.00076596864 -0.16247869 -0.014985256 0.10149549 -0.06598128

fc1_bn.weight f4 [64]
00000000: 3739 343f 30e5 3d3f 6761 143f 1c8c f53e
00000010: 84fc 593f 2e19 513f 6d82 033f 5c4d 3d3f
00000020: 1578 fc3e 8d50 9b3e c649 da3e 078c f03e
00000030: 658d a33e edb2 113f 034f 2e3f 204d 233f
00000040: e49f 283f 324e 4a3f a14f da3e fbc1 f33e
00000050: e02f 2c3f c85d 8a3e 8a7b d73e ba11 523f
00000060: 7f3b 1b3f bb71 343f 9275 553f 88f1 cf3e
00000070: 689e 883f b051 3a3f 92b7 c03e b1ad f03e
00000080: a471 6a3f 3c0c 923e ddcd 093e 5183 f13e
00000090: 0a41 063f 46b4 1d3f 60a9 1b3f f78c ca3e
000000a0: 9f3a 413f b627 fd3e 27bc de3e 9ce6 4f3f
000000b0: 84a0 143f 6e55 e43e 43d0 063f 0bdf c43e
000000c0: 55df e13e c143 903e 062e 753f 1b8c 253f
000000d0: b8b8 b73e 2d44 e03e e312 483f 7042 2b3f
000000e0: d396 253f 83f0 973e 8b9e 483f fa1a e03e
000000f0: d113 7c3e 57b5 de3e 26db 033f bc50 373f
0.703998 0.7417784 0.57961124 0.47958457 0.85150933 0.81679046 0.5137089 0.73946166
0.49310365 0.30334893 0.4263441 0.46981832 0.31943813 0.56913644 0.6808931 0.6378956
0.65868974 0.79025567 0.42638877 0.47608933 0.6726055 0.27024674 0.4208644 0.820583
0.6063766 0.7048604 0.83382523 0.4061396 1.0673342 0.72780895 0.37640053 0.47007516
0.9157965 0.2852496 0.13457437 0.471705 0.5244299 0.616032 0.6080532 0.39560673
0.75480074 0.4944436 0.43502924 0.81211257 0.5805743 0.44596428 0.5266153 0.38451418
0.441157 0.28176692 0.9577335 0.6466691 0.35883117 0.43802014 0.7815382 0.6689825
0.64683264 0.29675683 0.7836692 0.4377058 0.24616934 0.43497726 0.5150627 0.71607566

fc1_bn.bias f4 [64]
00000000: 9e97 6fbd 5e76 01bf d4a2 d6be 2163 0abf
00000010: 11c4 0fbe 54df 1b3f 1ece 45be 8173 85be
00000020: e9a0 fdbe 4da4 dcbd 576f 09be bffc 84be
00000030: dcc5 e6be a53b 7ebe a2ae 55be 76a4 a8be
00000040: b648 f0be 1bc0 49bf 5c41 8ebe 2757 01bf
00000050: 2863 bebe bad9 78be d522 98bd 3d41 3fbf
00000060: 9174 c6be 5387 e53d 3149 6ebe 2e3a c7be
00000070: ffb5 e83e 5ecf c7be 799d d5be b76d c3be
00000080: 3517 4bbf 97ec bbbe a481 0b3d 5fdd 36bd
00000090: e8f8 51be d674 25bf 11ba 47bf ca5b 7c3d
000000a0: 98cc 3fbe b994 60be e135 fd3c fb9d aebe
000000b0: b554 d6be feef c4be a450 5abe c37b 8cbe
000000c0: 327e 79bc 3af7 ccbd f418 e2be ad40 c6be
000000d0: 4ffb c3be 7805 cfbe d249 7cbf 27a8 07bf
000000e0: 3573 0ebf 29f0 cabe 1978 3fbf 929b 9dbe
000000f0: e4d2 a0bd b936 9ebe d3a0 aabe 11f4 5cbf
-0.058494203 -0.5057124 -0.41921103 -0.5405751 -0.14039637 0.60887647 -0.19316909 -0.26064685
-0.49536827 -0.107735254 -0.13421379 -0.2597408 -0.4507283 -0.2482744 -0.20867398 -0.32937974
-0.46930474 -0.78808755 -0.2778424 -0.5052361 -0.37185025 -0.24301806 -0.07428519 -0.7470892
-0.38760808 0.11207452 -0.23270108 -0.38911575 0.45451352 -0.39025396 -0.41721705 -0.38169643
-0.79332286 -0.3670394 0.03405918 -0.04464471 -0.20505106 -0.646314 -0.7801829 0.061610974
-0.1873039 -0.21931733 0.03090948 -0.34104905 -0.418615 -0.3846435 -0.21319824 -0.27438173
-0.015227841 -0.10008092 -0.44159663 -0.3872122 -0.3827767 -0.4043386 -0.9855014 -0.52990955
-0.5564454 -0.39636353 -0.7479263 -0.30782753 -0.07852724 -0.30901125 -0.33325824 -0.86309916

fc1_bn.running_mean f4 [64]
00000000: 82e3 b140 46d7 6841 5a05 a940 92cc c241
00000010: 7b24 38c1 c7ea 1c3f 09f8 4641 07e5 f3bf
00000020: 289b 36c1 09f0 77c0 c140 0041 d81e ebc0
00000030: 1dc9 bfc1 9314 8e41 6fec 7740 1e8d 9141
00000040: 1191 8041 a610 b4c0 6ee1 63c0 d593 4041
00000050: d0c1 0f41 1efc 9bc0 138f 29c0 6394 db40
00000060: b05e 08c1 8deb 2c41 dfa3 f13f 87d9 ef40
00000070: 07a9 f13f 87e9 3641 d593 eabf d0be dc40
00000080: c669 5dc0 b928 3241 0487 29c1 c23d cf40
00000090: 6151 52c1 93d9 00c1 6baa 5dc1 e5d7 21c1
000000a0: 008d 4141 aabd 0ec1 8863 8840 82cf d6c0
000000b0: 1be1 df3f a19d 2d3f 6435 7141 9a0a fd40
000000c0: 0d44 7240 8a19 ddbf 6087 0241 a467 ba40
000000d0: 468a 8ac1 8b56 5abf 88ae 61c1 c44d 78c0
000000e0: cfb7 66c1 0035 0ec1 de36 873f 52e5 bc40
000000f0: 9692 eac0 921c 8f41 ef5b 0e40 ba7d aac1
5.559022 14.552557 5.2819033 24.349888 -11.508906 0.6129574 12.435555 -1.9054269
-11.41288 -3.8740256 8.015809 -7.347515 -23.9732 17.760046 3.8738058 18.193905
16.070833 -5.6270323 -3.5606341 12.036092 8.9848175 -4.874526 -2.6493576 6.8618636
-8.523117 10.8075075 1.8878134 7.4953036 1.8879708 11.4320135 -1.8326365 6.8982925
-3.459581 11.134942 -10.595463 6.476289 -13.144868 -8.053119 -13.854106 -10.115209
12.096924 -8.921305 4.26215 -6.7128305 1.7490572 0.6781865 15.075535 7.907544
3.7854035 -1.7273419 8.158051 5.8251514 -17.317516 -0.85288304 -14.10511 -3.8797464
-14.419875 -8.887939 1.0563619 5.902993 -7.330394 17.88895 2.2243612 -21.31139

fc1_bn.running_var f4 [64]
00000000: f428 a243 7dd9 2743 ff95 0543 904c 0143
00000010: 8c3c 8e43 c6ab 4a41 8a06 1943 1542 a041
00000020: e4c1 7443 ee58 af42 92da 7d43 de3c fb42
00000030: c186 3543 24a7 0543 4f3d cd42 76a7 1f43
00000040: 8ad6 7f43 99d1 1542 7c81 3e43 b36a 1642
00000050: 0e79 4943 39d0 5643 0742 7d43 5704 bd43
00000060: fde7 5343 c1b8 b341 7202 8c42 bdd5 a243
00000070: 8e74 2541 f876 a042 9d48 8043 0c2e 7343
00000080: 9ccc eb43 95a1 e343 eafd eb43 555b 7a43
00000090: 907e 8343 596f 5943 959e db42 267b 4443
000000a0: dabc 4c43 f0ba 0c43 f86d 5d43 20cb 4e43
000000b0: 0720 ea43 a596 4643 a5fa 9a42 6b98 4044
000000c0: be1a 0843 6c0f 2643 6d3e 8243 b024 3d43
000000d0: 3ea5 f542 1be9 9643 20b4 7242 1b2f d442
000000e0: 3436 1643 43ae 2c44 d0c2 8543 0b2c a943
000000f0: 41fc 3743 18b5 f542 f871 9e43 e8b7 5b42
324.31995 167.84956 133.58592 129.29907 284.47302 12.666937 153.02554 20.032267
244.75739 87.67369 253.85379 125.61888 181.52638 133.6529 102.61974 159.65414
255.83804 37.454685 190.5058 37.6042 201.47287 214.81337 253.25792 378.0339
211.9062 22.465212 70.004776 325.66983 10.340956 80.23236 256.5673 243.17987
471.5985 455.26236 471.9837 250.35677 262.98877 217.43495 109.80973 196.48105
204.7377 140.73022 221.42957 206.79346 468.2502 198.58846 77.48954 770.38153
136.10446 166.06024 260.4877 189.14331 122.82274 301.82114 60.675903 106.092
150.21173 690.72284 267.52197 338.3441 183.98537 122.8537 316.89038 54.929596

fc2.weight f4 [64, 64]
00000000: d7e8 993e 137a f93e 25fe b2bd 24fc 173e
00000010: d52c 4fbd b9df 7bbd ad87 0bbd bd2a 6f3d
00000020: b942 353f cc8c c7be 3f8f f53c 3d3f bd3e
00000030: c611 c53e 0277 063f 3867 243e 5815 b93e
00000040: 1b1a 763e 5970 e3be 958c 523e b857 8c3e
00000050: 4ae4 7a3e bc45 debd 8619 eebc e4ca 8fbe
00000060: ef5f a53e 15c2 48bd 65f5 bbbd c5b5 b73e
00000070: 567b be3d f934 fc3e 70ea 3abe 7897 2cbe
00000080: 63e5 953e 4445 dd3d a8fd d1bd 3c87 a7bd
00000090: 1c88 f6bc aed0 5abf 965a df3e eec3 843e
000000a0: 16eb 88be 1f56 9e3e 10a9 cebc ca6d c63e
000000b0: b527 6cbe 2143 003f dc04 f03e 4532 f43d
000000c0: e642 1dbe 468d fc3e c9c1 4e3f f5f1 883e
000000d0: fda0 b9be a20e 103f 7b63 98bd 4fed 11be
000000e0: 8124 06bf e0bf 30bd b637 133f 0601 793e
000000f0: 1ecc 67be 941b e1be bfbc a2bd 9b2b e53e
00000100: 5b8d ac3e a379 60be dbc9 813e 84da b53d
00000110: d8be bdbd be28 6dbe 6aa0 debe c255 8a3d
00000120: a5ea 6ebd bb4a b2be 75d2 33bf 8124 a93e
00000130: 4475 383e 7e95 383e a175 133d 4496 af3d
00000140: 4f86 96bd 8308 553e ff4c d3bd 3342 1d3f
00000150: 28ff 67bf 78a9 fbbc 3e14 1c3f 51a8 3c3e
00000160: e4ec 383d d4e9 303e cb20 e03e 4fd5 443f
00000170: 7f89 edbd 704f 93be c255 fd3d fef6 1bbe
00000180: d28d 743e d0ee 32bf a435 42bb 0a24 003f
00000190: fa65 05bf 6cc9 4e3d ae0b bbbe 21a8 ed3c
000001a0: ec2e 1a3f c5e8 15bf 52c7 e63e f6e9 cebe
000001b0: 5e10 453e ccf5 d5bd 7c9d 9cbe 23ea 07bf
000001c0: e971 e73e 66c4 473e 5603 70be fb8d 573e
000001d0: 9f45 85be 72a6 32bf fd7c 54be 67fe 893e
000001e0: d00e f43e eddb 913e 58f6 27be b197 ebbe
000001f0: dc09 3e3e fb71 e2bd e1ba 01bf cb32 8ebe
00000200: cb3c f43d e8e8 cdbd 434f 78bd 03b7 f53e
00000210: 9388 393d a41c 5ebe ff96 f4bd 36ee cebe
00000220: 0746 083f e821 fd3c 30bb 133f 6c29 6cbe
00000230: 8ae1 0e3d 90b2 883d 14f0 fa3e 8b66 efbe
00000240: 70e2 eabd adfa 6cbf 5e9b 853e f534 1bbe
00000250: c1b2 18be a2a1 8fbe a38c 853e 8630 08bf
00000260: bc60 bf3d c1ee 45bd 7ba6 1cbe e91e 543e
00000270: 89d4 15bf 2028 12be 4faa 9cbe 929e f63d
00000280: 400a c1be 923a 6cbe 6121 e1bd 620f 963d
00000290: d4d8 cbbd 0d30 dcbd 4652 a6be 0837 863d
000002a0: 11d2 2e3d 122d 43be 2482 953d 0224 5b3e
000002b0: 4ad4 4bbe 2d2c aebe 1168 5ebe a388 ad3c
000002c0: b276 763e 9082 c2be 27f9 243f eb01 2e3f
000002d0: 6736 05bc 52fd 3bbe a133 b03e 28e7 a63e
000002e0: bd93 75be c771 ebbd 48c4 b3be 8a61 123e
000002f0: 6026 23be c2be a93e 00a8 113e 026d e4be
00000300: 9e6b 993e e664 913d cd7a 00be e2f6 413e
00000310: dcc2 8fbe b068 d9be 978c 883e 1a5c 823c
00000320: 4194 043e a17a b83e bd8e db3e 80fd 32be
00000330: 5e0d 103f 104a 61bf 8194 7dbc 7fe6 b43e
00000340: 3f06 a6be 2ee5 bc3c ad1a 5bbf 3c65 1f3e
00000350: b182 6a3e 194b 4cbd a58c e23d 9958 12be
00000360: e319 8ebe 1bc9 943e bbd2 84bc 41b4 33bf
00000370: f42a ed3d 5ba4 6dbd fe1d 45bf 0e03 ce3e
00000380: 9c55 de3e 51e4 8ebd c358 97bd 501b 1ebe
00000390: 2564 153d a313 603e e417 9abe 7b8f d7bd
000003a0: f3f5 7abe ef7f 00be 94fc 203e 185e 27bf
000003b0: 5998 d43d a15b 873e 28c6 413e adf2 8abd
000003c0: 72bb b6be be16 9cbd 12f6 1ebe 14da 3d3f
000003d0: fab4 25be 1ee8 5ebe 982a 2c3f 355e 90be
000003e0: 4b00 dbbe 86a6 7c3d 0d24 1ebf abd9 843e
000003f0: f672 0f3f b9ed ee3d c530 253f 12a2 da3e
0.30060455 0.48725948 -0.087398805 0.14842278 -0.050579865 -0.061492655 -0.034064937 0.058390368
0.70804936 -0.38974607 0.029975532 0.3696231 0.38490123 0.5252534 0.16055 0.36149096
0.24033396 -0.44421652 0.2056144 0.27410674 0.24501148 -0.108531445 -0.029064905 -0.2808448
0.32299754 -0.049013216 -0.09177665 0.35880867 0.09300868 0.49259165 -0.18253493 -0.16854656
0.2927657 0.10804227 -0.10253459 -0.08180091 -0.030094199 -0.8547467 0.436238 0.25930732
-0.26741856 0.3092508 -0.0252271 0.38755637 -0.23062022 0.5010243 0.46878707 0.11923651
-0.15357551 0.49326533 0.8076444 0.267471 -0.36255637 0.5627233 -0.074408494 -0.14250682
-0.5239945 -0.043151736 0.57506883 0.24316797 -0.22636458 -0.43966353 -0.07946157 0.4475983
0.33701596 -0.219214 0.25349316 0.08879569 -0.09264916 -0.23160073 -0.4348176 0.06754638
-0.058329243 -0.3482264 -0.70243007 0.33035663 0.18013483 0.18025777 0.03600085 0.08573583
-0.07349836 0.20804028 -0.1031742 0.61429137 -0.9062371 -0.030720457 0.6096839 0.18423583
0.04514779 0.17276698 0.4377502 0.76887983 -0.11598491 -0.28771544 0.12369873 -0.15230939
0.23882225 -0.6989565 -0.0029634023 0.5005499 -0.5210873 0.05048506 -0.36532348 0.029010834
0.6022785 -0.58558303 0.45073944 -0.40412873 0.19244525 -0.10447273 -0.305889 -0.5309164
0.45204094 0.19508514 -0.23438773 0.21050255 -0.2602968 -0.69785225 -0.20750804 0.26951906
0.4766755 0.28488103 -0.16402566 -0.4601417 0.18558449 -0.11056896 -0.5067578 -0.27773127
0.11925658 -0.10054189 -0.060622465 0.4799119 0.045296263 -0.21690613 -0.11942863 -0.40416116
0.53231853 0.030899957 0.577075 -0.23062676 0.03488306 0.06674683 0.4901129 -0.46757922
-0.11468971 -0.9257 0.26095098 -0.1515692 -0.14911939 -0.28053004 0.2608386 -0.5319904
0.093446225 -0.048323397 -0.15297882 0.20714916 -0.5852743 -0.14273119 -0.30598685 0.12041964
-0.37703133 -0.23069218 -0.10992695 0.07327153 -0.09953466 -0.107513525 -0.32484645 0.06553465
0.042680804 -0.19060162 0.07300213 0.21400455 -0.199052 -0.34018078 -0.21719386 0.021183318
0.24068716 -0.37990236 0.64442676 0.67971677 -0.008130646 -0.18358353 0.3441439 0.32598233
-0.23982139 -0.11496311 -0.35110688 0.1429502 -0.15932608 0.3315335 0.14224243 -0.44614416
0.29964918 0.07099323 -0.12546845 0.18941835 -0.28078353 -0.42462683 0.26669762 0.015913058
0.1294718 0.36031058 0.42882338 -0.17479515 0.56270397 -0.88003635 -0.015477301 0.35332105
-0.3242664 0.0230585 -0.8558758 0.15565962 0.22901417 -0.049876306 0.11061982 -0.1429161
-0.27754125 0.2905968 -0.016213765 -0.7019692 0.11580458 -0.05801807 -0.7699889 0.40236706
0.4342469 -0.06977142 -0.07389977 -0.15440106 0.03647246 0.21882491 -0.30096352 -0.105254136
-0.24507885 -0.12548803 0.15721351 -0.6537795 0.103806205 0.26437095 0.18923247 -0.06784568
-0.35689884 -0.07621525 -0.15523556 0.74160886 -0.16182318 -0.21768233 0.6725249 -0.28196874
-0.4277366 0.061682247 -0.6177376 0.25947317 0.5603479 0.11666436 0.6452754 0.42701775

fc2.bias f4 [64]
00000000: 6b06 fbbd 2fd2 8b3d 3c84 90bd b217 6e3d
00000010: 5370 b43d 79fe 2cbd 6774 9b3d 2e92 833c
00000020: c38d 22bd 8601 a63b 5375 483d 5455 823d
00000030: 46a0 8ebd 6827 bd3d 31da 73bd fd06 d9bd
00000040: 61aa 5cbd 4d61 e1bd e1c1 0d3d 46a1 ed3b
00000050: 037e 5fbb 5839 aebd e6fc 7f3d 2087 703c
00000060: 55dd 07bd 36e5 b63c 6d1c 2f3d d938 a1bd
00000070: 1d9a 0dbd 61ea 57bd b54d e13d c656 eb3c
00000080: 79c0 bcbd d965 af3d a66a b0bc a4ff 343c
00000090: d35b 6e3c edbf 7fbc 525e f23d 4393 5e3d
000000a0: 1d5f db3c db74 3ebd 224b f53c b1d2 bbbd
000000b0: 2150 30bd 6e31 883d 67fb f8bd c1dc 85bb
000000c0: 04c5 3bbd 25ff 833d 2d7d 9fbd 910d b23c
000000d0: e5fb 25bd 0ac6 d43d cf6a 8bbc 33f0 b8bd
000000e0: 5837 49bd 56d4 b73d 50a1 3a3d 77be dc3c
000000f0: 0784 a53d 210f 453d 5185 7ebc 0531 8abd
-0.122570835 0.06827199 -0.07056472 0.058128066 0.08810487 -0.04223487 0.07590561 0.016060915
-0.039685976 0.0050660996 0.048940014 0.06363931 -0.069641635 0.09236032 -0.059534255 -0.10597036
-0.053873423 -0.11004887 0.034608725 0.0072518913 -0.0034102208 -0.08507031 0.062497042 0.014680654
-0.033170063 0.022326093 0.04275172 -0.07872171 -0.034570802 -0.052713756 0.110011496 0.0287279
-0.09216399 0.08564348 -0.021535229 0.011047278 0.01454826 -0.0156097235 0.118343964 0.05433966
0.026778752 -0.04649816 0.029943053 -0.091710456 -0.043045167 0.06650053 -0.12157326 -0.004085154
-0.045842186 0.06445149 -0.07787547 0.021734985 -0.04052343 0.103893355 -0.017018704 -0.09030189
-0.049125046 0.08976047 0.045563996 0.02694629 0.08081823 0.04811013 -0.015534715 -0.06747631

fc2_bn.weight f4 [64]
00000000: 6e4a 9a3f 85ad ac3f 8a9d e43f b35f ba3f
00000010: 4c9a a23f 51ae d03f 93ad 0e40 5121 0040
00000020: 0913 db3f 1e6b 0540 11bb bc3f dbc0 fe3f
00000030: a792 0a40 b266 fa3f b328 b23f 1f0b 0c40
00000040: 3037 d43f 100b d03f ba42 c13f db20 1640
00000050: 1e36 0a40 2de3 0040 85dc 2640 4e27 0640
00000060: 8525 d53f 8cb7 0640 4485 0b40 2b69 e23f
00000070: b12e 0f40 b085 2f40 39e2 9a3f 8000 b03f
00000080: 24a1 eb3f 4c94 b33f 16c9 1b40 0234 cb3f
00000090: 078d 1740 6ab5 da3f 8e04 1b40 a6bf ac3f
000000a0: 520a f43f 017f e43f 8ed7 e63f f7fe ba3f
000000b0: 93fa f43f 906a df3f bce7 3740 210b c13f
000000c0: 6c3f 3c40 bb72 b93f f0e3 0840 8c84 ce3f
000000d0: d480 c63f d0f9 d93f 0dd8 1740 13fd e33f
000000e0: 0270 dc3f 33c4 923f d26d c03f 42c4 9c3f
000000f0: 7882 fe3f 344c 0340 266b df3f 0539 cf3f
1.2053964 1.3490454 1.7860577 1.4560455 1.2703338 1.6303197 2.2293441 2.0020335
1.7115184 2.084663 1.4744588 1.9902605 2.165201 1.956259 1.391867 2.1881788
1.6579342 1.6253376 1.5098488 2.3457553 2.159553 2.0138657 2.6072094 2.096149
1.6652075 2.1049528 2.180009 1.7688345 2.2372248 2.7425346 1.2100288 1.3750153
1.8408551 1.4029632 2.4341483 1.5875247 2.3679826 1.7086613 2.422153 1.3495986
1.906565 1.7851259 1.8034532 1.4609059 1.9138969 1.7454395 2.873519 1.5081521
2.941371 1.4488138 2.1389122 1.61342 1.5508065 1.7029362 2.3725617 1.7811607
1.7221682 1.1466125 1.5033514 1.2247393 1.9883566 2.051526 1.7454574 1.6189276

fc2_bn.bias f4 [64]
00000000: a5f7 44bf 9085 87be 6587 a23c 5e34 7ebf
00000010: 6605 1dbf 0935 b5be fdce 85bf c0c7 f9bd
00000020: 0d38 56bf f7e1 2abe e385 01bf 23f3 afbd
00000030: 05d7 cabd 5d8c 8bbe 8d9e 62bf 5b3b 09bf
00000040: 6a08 3abf 1661 1dbf 22ad 8dbf 0abf 28be
00000050: 4be9 f7be 8a0a a2bf b269 b9be 3d06 80bf
00000060: b4bc bcbd da29 04bf 7193 afbf cad5 51bf
00000070: 45d3 83bf e9e5 b23d a4cb c4be 13f0 f5bd
00000080: df79 c2be c0d3 12bf 9b78 43bf d6cc d83d
00000090: 0826 e0be 26db 5bbf 9d8e 36bf 97f0 00bf
000000a0: ce27 e9bd 9454 3abf 7153 2abf b938 d53c
000000b0: 6ff5 f0bd c6e6 30bf 1e19 2ebf 001d db3c
000000c0: 36f5 eabe e4d0 2cbf 4693 88be 421e 6ebf
000000d0: d370 23bf 4bd6 b2bf 87de 02be c787 e9be
000000e0: 4923 c2be f429 74bd ab68 13bf 97ef 69bf
000000f0: 6632 f0bf 604a a8bb 5eb6 1ebf 137f c5be
-0.76940376 -0.26469088 0.019839952 -0.99298656 -0.6133636 -0.35392025 -1.0453793 -0.121963024
-0.83679277 -0.16687761 -0.5059492 -0.085912965 -0.09904293 -0.27255526 -0.8852318 -0.53606194
-0.7266909 -0.61476266 -1.1068461 -0.16479126 -0.48420176 -1.2659466 -0.36213452 -1.0001904
-0.0921568 -0.5162636 -1.371687 -0.8196684 -1.0298849 0.08735258 -0.38436615 -0.12008681
-0.37983605 -0.57354355 -0.76355904 0.10585944 -0.43779016 -0.8588127 -0.7131136 -0.5036711
-0.11384545 -0.72785306 -0.6653357 0.026028024 -0.11765563 -0.6910213 -0.68007076 0.026747227
-0.45890206 -0.6750624 -0.2667486 -0.9301492 -0.6384403 -1.3971647 -0.127802 -0.45611402
-0.37917545 -0.059610322 -0.57581586 -0.9138121 -1.876538 -0.0051358193 -0.6199702 -0.38573512

fc2_bn.running_mean f4 [64]
00000000: c276 073f 7eb7 133d cf38 fbbe 5474 7fbe
00000010: 0a3a 5b3f 79f2 213f 8cbd 833b 4bed 3dbf
00000020: 1d74 dcbe eb47 1ebd b8bf a9be 933a cb3d
00000030: c050 4a3f f31d 8cbe 2274 a8be 7510 f43c
00000040: 8056 c13e 6450 a3bf c009 343f 6de5 1c3e
00000050: 388c 00be b43d 2b3f a94d c23e 06e1 97bc
00000060: 786f 0dbf 397b 863f e2d3 143f cc8b b8be
00000070: 1f00 0fbf 452d a73e b989 02be 3029 383f
00000080: eac5 92bd d522 aa3d 3002 82bd 2451 25bf
00000090: 0e2e c2bd 73f4 93bf c6e7 613f f8a5 843e
000000a0: 23e5 083c a8ad 8e3f f0ba 753f 00e6 9abe
000000b0: 6ee7 10bf b449 d8bd 7c46 5c3f ec68 6c3e
000000c0: 66e5 01be a49f 843f cf8c 083f e982 803f
000000d0: 0f1a 7d3e 5311 563f 58a5 f53e c2d6 043f
000000e0: 7668 d3bd 8c02 223f 8c5f ae3e 7bd9 1abf
000000f0: d5ab 263f 9ff1 adbd f3de 8cbe a436 043f
0.52915585 0.036063664 -0.4906678 -0.2494672 0.85635436 0.6326061 0.0040203985 -0.74190205
-0.43057337 -0.038642805 -0.33154082 0.099232815 0.79029465 -0.273666 -0.32901102 0.029793004
0.37761307 -1.2758908 0.7032738 0.15321894 -0.12553489 0.66891026 0.37949875 -0.018539917
-0.5524821 1.0506355 0.5813581 -0.36044157 -0.5585956 0.32651725 -0.1274785 0.7193785
-0.07166655 0.08307425 -0.063480735 -0.64576936 -0.094814405 -1.1558975 0.88244283 0.25907874
0.008355412 1.1146746 0.9598837 -0.302536 -0.56603134 -0.10560933 0.8604505 0.230869
-0.12685165 1.0361218 0.53339857 1.0039951 0.24716972 0.83620185 0.4797771 0.51890194
-0.10322659 0.63285136 0.3405727 -0.604881 0.65105945 -0.08493351 -0.27513847 0.51645875

fc2_bn.running_var f4 [64]
00000000: 7f01 ac3e f42f de3e 74a5 a23e 267b 8d3e
00000010: 92ac 573f ed42 a53e 23cc b63e de46 273f
00000020: 6612 5f3f 6c0b 203f f641 de3f f256 483f
00000030: 4e03 fa3f 1d68 063f e901 9f3e db20 0b3f
00000040: ca21 ac3e 8c9c 623f 2392 953e 37d1 813f
00000050: de60 cc3e a376 1f3f 4857 d93e cc4f 543f
00000060: 9bf2 693f 524c 613f 1576 e63e 2351 da3e
00000070: f526 e83e f75c b73f c02d 1a3f 066f 8c3e
00000080: 71c3 743f 4081 ae3f 9d83 783f 7c2a 453f
00000090: beb0 1a3f 5f93 5e3f 7c20 bb3e bc9d b03e
000000a0: 7463 e13e 1523 263f b04e 353f 3b49 983f
000000b0: 3af9 533f 673b 033f 3a29 263f 3fed ab3e
000000c0: bd82 533f b03f f03e 6385 563f f788 c43e
000000d0: e29b a73e 2904 073f a2bc e73e f498 cf3e
000000e0: 5bd2 f33e 9803 213f 3d5d f93e f1d1 ac3e
000000f0: 2f4d 133f 92b3 f43e 41af bc3e 4ab7 0b3f
0.3359489 0.4339596 0.31766856 0.27633017 0.84247696 0.32277623 0.3570262 0.6534251
0.8713745 0.6251743 1.736388 0.7825767 1.9532259 0.52502614 0.31056145 0.5434701
0.3361953 0.8852012 0.29213056 1.0141972 0.39917654 0.622904 0.42449403 0.8293426
0.9138581 0.8800708 0.45011964 0.42640027 0.45342222 1.4325246 0.6022606 0.27428454
0.9561072 1.3633194 0.97075826 0.7701795 0.6042594 0.8694362 0.3654822 0.34495342
0.4402119 0.6489728 0.7082319 1.1897348 0.82802165 0.51262516 0.64906657 0.33579442
0.82621366 0.4692359 0.8379728 0.38385746 0.32736117 0.5274072 0.45261103 0.4054638
0.47621426 0.6289611 0.48703948 0.33753923 0.5753965 0.4779325 0.36852458 0.5457655

fc_out.weight f4 [2, 64]
00000000: 907e f7bf ffb4 5ebe 3916 d63e ad6a c5be
00000010: acd3 99bf 4b09 69bf e3b8 83be b7ee bfbe
00000020: e98d 403f e2af b13f 8fa3 c03f e473 f4be
00000030: 45f2 9cbf 48b6 a0bd a4ab 0ebf 6b05 b8bf
00000040: 49fd 5e3f 227b 433e ba5a fcbf fe85 a13f
00000050: a5f8 07bb 4078 a63f 87f2 ad3f c97a 86bf
00000060: 20b4 9c3e 51b6 b23f a3d1 e4bf 2e1c 9f3e
00000070: 7cf5 503d 4ae3 d83e bcd7 3bbf 7d66 ccbe
00000080: 7fa3 c0be 0a44 5c3f ef13 a83f 7a2f 1abf
00000090: 6aec c8be 0948 b33e 23e6 04bf 08f3 b43e
000000a0: 3c5b 6c3f 08ba 0dbf a85d e7bf ca8e 34bf
000000b0: 0693 81be 6ea2 a7bf 1683 0dc0 eaf6 583f
000000c0: 0c0d a93e 519a 7e3f 3da5 a03f 6cdd 3a3f
000000d0: 85f7 cf3e de40 10c0 400e d43f a7eb 333f
000000e0: ce2c 8abf ecf3 11bf 979a 26bf 3893 a9bf
000000f0: 85a6 4740 2edf 873c bb65 09bf 4ae1 523f
00000100: e26a 7c3e 4cab 3c3f e8e4 83bf cf43 f13f
00000110: aeb8 babd eccf 323f 6883 0fc0 00b7 853f
00000120: 455d bbbf 8fbb df3e 842d c9be ad5b b63f
00000130: 1a30 893f 855a a43f f5e3 35bf 7221 95bd
00000140: c059 a1bf 6902 ae3f 255f 413e b504 9abe
00000150: eff9 b1bf 8087 14c0 04f5 383f f1e7 08be
00000160: 44fc 49bf 7472 b5be 51d5 78bf 4a55 c3bf
00000170: 764a 0540 cbe9 c13f 7d27 143d e91c 003e
00000180: 438c b6bf 1260 2ebe b2e9 243f ee2c 083f
00000190: 4c2c bbbf 9e91 9f3f 90f5 06c0 067b 223f
000001a0: b8ae dc3d 72ff 8dbf 1ed7 4c3f f6f0 a4bf
000001b0: dca4 e4bf 06fa 583f 1fd0 e83f e2e8 7e3f
000001c0: efdf 23c0 3bad 2c3f effe 0440 43c4 99bf
000001d0: 3497 953f de34 67be b541 84bf 2bc5 873f
000001e0: e40c 75be c7b0 d63e 036b b23f 58d3 08bd
000001f0: 6a05 04be 7382 e1bf 3b79 2a3f 9879 3dbf
-1.9335499 -0.21748732 0.4181383 -0.3855795 -1.2017722 -0.91029805 -0.25726995 -0.37486812
0.7521654 1.38818 1.5049914 -0.47744668 -1.2261435 -0.078472674 -0.5573065 -1.4376653
0.8710523 0.1908994 -1.9715188 1.2619016 -0.002074757 1.3005447 1.3589638 -1.0506221
0.30606174 1.3961889 -1.7876476 0.31076187 0.051015362 0.42360908 -0.7337606 -0.39921942
-0.37624738 0.8604132 1.3131083 -0.60228693 -0.3924287 0.35015896 -0.5191366 0.35341668
0.9232671 -0.55361986 -1.8075457 -0.7053038 -0.25307482 -1.3096445 -2.2111259 0.8475176
0.33017766 0.9945422 1.2550427 0.7299411 0.4061853 -2.2539592 1.6566849 0.7028145
-1.0794923 -0.5701282 -0.65079635 -1.3248053 3.1195385 0.016585913 -0.53670853 0.82375014
0.24650148 0.7369888 -1.0304232 1.8848819 -0.09117256 0.69848514 -2.2423954 1.0446472
-1.4637839 0.43697783 -0.39292538 1.4246727 1.0717804 1.2840124 -0.7105096 -0.0728177
-1.2605515 1.3594486 0.18883951 -0.30081716 -1.3904399 -2.3207703 0.72248864 -0.13369729
-0.7890055 -0.35438883 -0.97200495 -1.5260403 2.0826697 1.5149473 0.03617047 0.12511028
-1.4261554 -0.17028835 0.6441909 0.5319356 -1.4622893 1.2466314 -2.108738 0.6346897
0.107755125 -1.1093581 0.8001574 -1.2886035 -1.7862811 0.84756505 1.8188514 0.995741
-2.5605428 0.6745183 2.07806 -1.2013019 1.1686769 -0.22578761 -1.0332552 1.0607046
-0.23930699 0.41931745 1.3938907 -0.033404678 -0.1289269 -1.7617935 0.66591233 -0.7401366

fc_out.bias f4 [2]
00000000: 29fe 57be ded9 9cbc
-0.21093048 -0.019146856
