checkpoint_critic_1.pth (torch_old, 51114 bytes, 15 tensors)

fc1.weight f4 [64, 48]
0.106700554 -0.1862471 -0.045654494 0.648185 0.057337947 -0.6802699 0.034841873 0.86250377
0.14108044 0.9869291 0.077726066 0.4520802 -0.16901015 -0.41858774 -0.12742719 0.37227434
0.2987531 1.2522595 -0.015779234 -1.4508469 0.022091601 0.5744052 -0.06270717 -1.4346418
-0.25975698 0.26480496 0.1034257 0.06429775 -0.04536569 -0.50055677 -0.054844555 0.041926865
-0.23740222 0.03815376 0.046069317 0.32924154 0.17622487 -0.41134614 0.0033515962 0.2397009
0.22984217 0.49657336 0.026380196 0.105469756 -0.042002816 0.5642767 -0.03618792 0.07569866
0.122133024 0.07125865 -0.04360289 0.08501051 -0.6791886 -0.2586753 0.038681917 -0.060629208
0.0148886535 0.052217923 -0.030484507 -0.014765717 0.06637476 -0.46036565 0.045801423 -0.051379923
0.077551536 0.2234348 -0.063008994 -0.081085294 0.6564523 -0.0025334223 0.08719149 0.075554565
0.1300863 -1.0530218 0.025849279 0.06617702 0.58985496 -0.42095897 -0.03178215 0.0015974214
-0.25154412 -1.3814505 0.06024156 -0.047638606 -0.059943542 -0.4550951 -0.046430636 -0.093833715
-0.8855477 -1.6576755 0.09794485 -0.41264334 -0.6707696 0.21424863 -0.08699439 -0.38244084
-0.4705614 -1.0814694 0.009188508 0.06415902 0.5384752 0.18773101 0.043715227 -0.14055312
0.21658444 -1.1817377 0.043484084 -0.060350623 0.1550092 -0.3404865 -0.11142866 0.088399895
0.44712535 -1.0185996 -0.05624902 0.17147699 0.20614417 -1.4851497 -0.0017894738 0.056347743
0.4064501 -0.51280576 0.015788296 -0.019023176 -0.46231785 0.05529037 0.07092337 -0.08731468
0.5753399 -0.4617867 0.022342853 -0.027103897 -0.19314007 -0.5410655 0.02453303 -0.0805842
0.39461285 -0.8696945 -0.016034989 -0.33465466 -0.054934755 -1.3001515 -0.12801117 -0.5396965
0.090310864 0.813186 0.019263934 -0.081389986 0.18546766 -0.0685433 0.008086667 -0.1651751
0.35362327 0.5889445 0.07219482 0.3209392 0.16375917 -0.23831041 -0.09003235 0.22846787
0.8001248 0.93480223 0.04464723 0.5577028 0.10036728 -0.37467366 -0.029886354 0.56302595
-0.07771724 0.47068548 -0.10632214 0.06605269 -0.30896005 0.042410698 0.09416298 0.0022685246
-0.21813273 0.78049165 -0.09331005 0.69392586 -0.26645803 -0.19679265 0.08664667 0.77195704
0.13183446 0.9624617 0.008250731 0.23347147 -0.13338327 -0.5428945 -0.028317336 0.11636463
-0.099833496 -1.0620388 0.04472698 0.36123672 0.1461643 -0.21149588 0.055856485 0.34941092
-0.2698842 -0.5596619 -0.10347 0.14377804 -0.17356688 -0.797984 0.08795813 0.24607904
-0.22010289 -0.38890058 -0.0365249 0.8560217 -0.13999388 -1.191415 0.11317051 0.8705185
0.1868807 0.1764472 -0.01662169 0.18151763 -0.28165954 -0.07753936 -0.12437865 0.14800417
0.46760368 0.3006259 -0.06483764 0.30583212 0.23339146 -0.7869667 -0.05746328 0.1338916
0.5787897 0.3805109 0.05294123 -0.2049154 0.24777561 -1.4008938 -0.0194099 -0.28868276
0.110352114 -0.061822794 -0.033751026 0.11340719 0.16068847 0.6686898 0.0810734 -0.088771306
-0.1752829 -0.018574188 0.010433416 -0.020264978 0.028445741 -0.021172477 0.034642953 -0.15622914
00000000: d285 da3d 8fb7 3ebe 3500 3bbd 74ef 253f
00000010: 32db 6a3d 2b26 2ebf 5ab6 0e3d 0ccd 5c3f
00000020: 6477 103e 63a7 7c3f d82e 9f3d 0e77 e73e
00000030: ff10 2dbe 2251 d6be 467c 02be be9a be3e
00000040: 2bf6 983e 0a4a a03f 7443 81bc 5ab5 b9bf
00000050: 72f9 b43c 380c 133f 9e6c 80bd 58a2 b7bf
00000060: defe 84be 8494 873e dad0 d33d 8aae 833d
00000070: 60d1 39bd 7d24 00bf afa4 60bd 81bb 2b3d
00000080: 9119 73be 1e47 1c3d 2eb3 3c3d 5992 a83e
00000090: 4b74 343e f69b d2be 74a6 5b3b 2774 753e
000000a0: bf5b 6b3e dd3e fe3e 481b d83c 8700 d83d
000000b0: 250b 2cbd 7074 103f c939 14bd e607 9b3d
000000c0: e120 fa3d 0ef0 913d f298 32bd fe19 ae3d
000000d0: 4edf 2dbf 1771 84be ee70 1e3d 5556 78bd
000000e0: 8aef 733c 76e2 553d a5ba f9bc e8eb 71bc
000000f0: 7def 873d 0cb5 ebbe 469a 3b3d c173 52bd
00000100: 57d3 9e3d 18cc 643e dc0a 81bd 0c10 a6bd
00000110: 420d 283f c607 26bb 7491 b23d 5abc 9a3d
00000120: 5835 053e 6bc9 86bf dec1 d33c d187 873d
00000130: bc00 173f ef87 d7be 002e 02bd 9160 d13a
00000140: 64ca 80be 5fd3 b0bf dbbf 763d b320 43bd
00000150: 5c87 75bd 3a02 e9be 0d2e 3ebd e42b c0bd
00000160: 41b3 62bf b62e d4bf 4f97 c83d fd45 d3be
00000170: 8eb7 2bbf fe63 5b3e 1d2a b2bd 49cf c3be
00000180: 6ced f0be 976d 8abf 658b 163c ce65 833d
00000190: 83d9 093f 8f3c 403e bd0e 333d 28ed 0fbe
000001a0: 50c8 5d3e 2e43 97bf 5e1c 323d 3732 77bd
000001b0: bbba 1e3e 3f54 aebe b634 e4bd 010b b53d
000001c0: 9ded e43e 7961 82bf 5f65 66bd aa97 2f3e
000001d0: 7517 533e 6319 bebf c78c eaba e4cc 663d
000001e0: 3a1a d03e 3d47 03bf 7556 813c 7ed6 9bbc
000001f0: edb4 ecbe 2878 623d 4640 913d 0ad2 b2bd
00000200: 7a49 133f 4e6f ecbe 5c08 b73c fe08 debc
00000210: 83c6 45be 4583 0abf 7ef9 c83c 5409 a5bd
00000220: b20a ca3e 4ca4 5ebf cf5b 83bc db57 abbe
00000230: 4403 61bd 5d6b a6bf 5c15 03be 8d29 0abf
00000240: e7f4 b83d f52c 503f 66cf 9d3c cbaf a6bd
00000250: 3ceb 3d3e 6e60 8cbd f17d 043c a923 29be
00000260: 1c0e b53e 11c5 163f e1da 933d 2552 a43e
00000270: 7cb0 273e a507 74be e162 b8bd 7bf3 693e
00000280: fbd4 4c3f 334f 6f3f 04e0 363d 9cc5 0e3f
00000290: 5c8d cd3d 3ad5 bfbe 3ad4 f4bc 7822 103f
000002a0: 372a 9fbd b0fd f03e 6cbf d9bd a246 873d
000002b0: 0330 9ebe d7b6 2d3d 85d8 c03d 87ab 143b
000002c0: 305e 5fbe 4dce 473f 5719 bfbd 20a5 313f
000002d0: 306d 88be 0384 49be cf73 b13d fa9e 453f
000002e0: 9dff 063e e463 763f 132e 073c 2513 6f3e
000002f0: a095 08be 22fb 0abf c2f9 e7bc 9450 ee3d
00000300: 8175 ccbd e3f0 87bf a333 373d 05f4 b83e
00000310: 18ac 153e 6092 58be c5c9 643d fde5 b23e
00000320: 432e 8abe 0146 0fbf 14e8 d3bd 8d3a 133e
00000330: 84bb 31be ae48 4cbf 6423 b43d 25fc 7b3e
00000340: a762 61be fa1d c7be 229b 15bd 3d24 5b3f
00000350: 8e5a 0fbe 4980 98bf f1c5 e73d 4dda 5e3f
00000360: a75d 3f3e 93ae 343e 362a 88bc c2df 393e
00000370: ae35 90be f5cc 9ebd 3cba febd 688e 173e
00000380: c069 ef3e a3eb 993e 99c9 84bd 0796 9c3e
00000390: 2cfe 6e3e a676 49bf 9e5e 6bbd e11a 093e
000003a0: 902b 143f 53d2 c23e e7d8 583d 58d5 51be
000003b0: e4b8 7d3e 7d50 b3bf 8301 9fbc 3ace 93be
000003c0: 4a00 e23d e639 7dbd 843e 0abd 0742 e83d
000003d0: 858b 243e 412f 2b3f d009 a63d bbcd b5bd
000003e0: 5c7d 33be e528 98bc ebf0 2a3c bd02 a6bc
000003f0: 0b07 e93c e771 adbc c5e5 0d3d 88fa 1fbe

fc1.bias f4 [64]
-0.3432802 -0.041234978 -0.5490225 -1.271678 0.44488782 0.688359 -0.40659598 0.013449841
-0.4900071 0.25097677 0.15957606 -0.12730451 0.22642745 -0.29726803 0.031544864 0.055429425
-0.69091606 0.18193407 -0.05253212 0.47256982 -0.059196677 0.34518597 -0.17051764 0.16223218
-0.43676966 -0.7639722 -0.3965095 -0.15387103 -0.6948174 -0.41492417 -0.24988176 -0.4905223
0.2588093 -0.303643 -0.36784923 -1.1764383 0.18616393 -0.14471576 -0.26450178 -0.22675878
-0.5189395 -1.3605307 0.716838 -0.5520034 -0.38254046 -0.52332217 0.32981825 -0.87051
-0.22108607 0.26298696 -0.049502213 -0.7891315 -0.31518924 -0.39098018 -0.50733656 -0.021737546
-0.25587374 -0.17034188 -0.29996645 0.8761705 0.036060497 -0.11257754 -0.6285358 0.015620306
00000000: 6cc2 afbe 02e6 28bd bd8c 0cbf 58c6 a2bf
00000010: 56c8 e33e 4c38 303f 592d d0be b95c 5c3c
00000020: 36e2 fabe 0780 803e e867 233e 1d5c 02be
00000030: 99dc 673e 8433 98be 3035 013d f709 633d
00000040: e0df 30bf ed4c 3a3e ec2b 57bd acf4 f13e
00000050: 3778 72bd 37bc b03e 2d9c 2ebe 3120 263e
00000060: 46a0 dfbe af93 43bf 4b03 cbbe 5e90 1dbe
00000070: 8edf 31bf f170 d4be 01e1 7fbe bd25 fbbe
00000080: a782 843e 1877 9bbe bc56 bcbe 8895 96bf
00000090: c2a1 3e3e 5e30 14be c76c 87be 7433 68be
000000a0: 38d9 04bf df25 aebf b282 373f 1850 0dbf
000000b0: 58dc c3be 71f8 05bf f0dd a83e bed9 5ebf
000000c0: 6364 62be 3aa6 863e d5c2 4abd 8604 4abf
000000d0: 7c60 a1be 8e2e c8be cfe0 01bf f012 b2bc
000000e0: e201 83be 1a6e 2ebe 3495 99be b64c 603f
000000f0: 2cb4 133d 0e8f e6bd b9e7 20bf 50ec 7f3c

fc2.weight f4 [64, 68]
0.19856589 0.099697314 -0.3874864 -0.45988142 -0.023105154 0.21140262 0.15453102 -0.59514976
0.14589907 0.08846346 0.5591956 0.5312332 0.29901984 -0.061073616 0.16144185 0.010404707
0.11297072 -0.03966121 0.6325129 -0.0958995 0.08576836 -0.46323046 0.12850823 0.10346907
-0.062304176 0.18872634 0.17545705 0.109232135 -0.1701138 -0.012048802 0.0071209124 0.7437691
0.10372859 0.16081347 -0.28516212 -0.063274205 -0.4337317 0.22403102 0.3789868 0.01459775
-0.28210464 -0.09989093 0.3259631 0.070521444 -0.019914106 -0.1697193 -0.17801009 0.18656312
-0.14358711 0.4399375 -0.070384674 0.17485403 0.14533745 -0.08276003 -0.089823216 -0.085402936
0.03641328 -0.880813 -0.0064012455 -0.12739868 0.2230106 -0.38715136 -0.06401662 -0.15116724
-0.5027437 1.2507007 1.3205 -1.23903 0.0056304373 -0.07661806 -0.14063473 0.24091047
-0.13983537 -0.4508061 -0.040520065 -0.3161264 0.054843802 0.008513794 0.05273765 0.09056812
0.10597395 0.07318962 0.0024053452 0.06588553 -0.010909621 -0.37462085 -0.28554744 0.32363132
-0.3045369 0.42639008 -0.13660419 0.036835115 0.08000463 -0.19989881 0.11448541 0.5034191
-0.470135 -0.030797224 -0.013411688 0.012994175 0.20875262 -0.16720836 -0.0076548895 -0.03583636
0.021616267 0.23895301 1.166779 -0.039104614 -1.7415686 0.073882475 -0.023695925 -5.2716437e-05
-0.16285564 0.08552088 -0.104906745 -0.038244583 -0.35539427 0.037897546 0.09924288 -0.031577073
-0.037322834 -0.06395344 -0.0057848967 -0.33594036 0.31359977 -0.3401001 -0.07448237 -0.12458002
-0.24080539 0.07004369 -0.06549588 0.19170284 0.20636147 -0.45800027 0.4960919 -0.18525144
0.06460266 -0.21085668 0.024407724 0.24936518 -0.032320198 -0.28049973 0.10178315 -0.17191744
-0.13978904 -0.25920954 0.19997737 -0.13882954 -0.18203968 -0.038106717 -0.052604426 -0.057701863
-0.83455193 0.039109074 0.06656786 -0.12795371 -0.00935175 -0.011717735 -0.23592968 0.19539867
0.09851282 0.03480246 -0.14764348 -0.28463015 -0.07009187 0.11584457 0.18477304 -0.14311333
-0.0463111 -0.11718489 -0.19259247 -0.05462803 0.06110904 0.15615398 0.062792405 0.1536518
-0.27162725 -0.20811844 0.028038282 -0.16594826 0.1314239 -0.23467523 -0.14252588 -0.12705566
0.3863768 -0.82447463 -0.23521417 0.12093087 -0.39857873 -0.1190315 -0.048467513 0.7832859
-0.062297635 -0.029461522 -0.14033006 0.08336829 0.067896314 0.19419901 0.09520665 -0.07316489
-0.21976896 1.5919143 -1.4915155 0.6158089 -0.27580503 0.13043092 -0.07135439 0.062211495
-0.34545046 0.44395462 -0.15406796 -0.026704893 -0.29382107 0.34644186 0.439679 0.12654808
0.0027179846 -0.23529613 -0.1073296 -0.4815211 0.0023403568 -0.13757561 0.046046134 -1.3144517
0.16787353 -0.6675055 -0.046755724 -0.61308104 -0.4604939 -0.18515857 -0.41427892 -0.075515054
-0.010909948 -0.18071634 0.008603759 -0.1573468 -0.15244551 -0.0965673 -0.036951363 -0.45162633
-0.16467504 0.066480294 -0.07640925 -0.13674225 0.16749966 -0.04027087 0.09735797 0.15909316
-0.26141143 -0.118982024 0.09182424 -0.3776146 0.45457822 0.033750948 -0.27306977 -0.09725191
00000000: db54 4b3e 1b2e cc3d 9e64 c6be 9475 ebbe
00000010: 0547 bdbc ee79 583e 613d 1e3e bc5b 18bf
00000020: 9166 153e 552c b53d 7127 0f3f e6fe 073f
00000030: 2119 993e 5428 7abd 0351 253e 8178 2a3c
00000040: 315d e73d cb73 22bd 5eec 213f f566 c4bd
00000050: 52a7 af3d 8b2c edbe a997 033e 97e7 d33d
00000060: aa32 7fbd 7a41 413e 03ab 333e 19b5 df3d
00000070: 5032 2ebe 5768 45bc 8b56 e93b a767 3e3f
00000080: a86f d43d 49ac 243e c500 92be e895 81bd
00000090: 1512 debe 6368 653e 8f0a c23e 672b 6f3c
000000a0: 0570 90be 9e93 ccbd a3e4 a63e 8c6d 903d
000000b0: e822 a3bc e5ca 2dbe 4748 36be 670a 3f3e
000000c0: 8008 13be 7d3f e13e d725 90bd ef0c 333e
000000d0: 57d3 143e 177e a9bd 3cf5 b7bd bce7 aebd
000000e0: 1726 153d f67c 61bf 8ac1 d1bb cd74 02be
000000f0: e45c 643e b438 c6be 251b 83bd 96cb 1abe
00000100: d0b3 00bf f616 a03f 2506 a93f 8998 9ebf
00000110: 887f b83b eee9 9cbd 8d02 10be 3cb1 763e
00000120: 0131 0fbe 0fd0 e6be 5ef8 25bd 52db a1be
00000130: e5a3 603d 717d 0b3c 6f03 583d c77b b93d
00000140: df08 d93d 71e4 953d ffa2 1d3b feee 863d
00000150: 44be 32bc 4ece bfbe 4633 92be 01b3 a53e
00000160: 43ec 9bbe cd4f da3e f8e1 0bbe 6be0 163d
00000170: 78d9 a33d 46b2 4cbe 5477 ea3d 13e0 003f
00000180: 89b5 f0be 764a fcbc b2bc 5bbc 85e5 543c
00000190: 3fc3 553e ab38 2bbe ded5 fabb 26c9 12bd
000001a0: 9914 b13c 19b0 743e 0459 953f 292c 20bd
000001b0: b8eb debf b24f 973d f51d c2bc d81b 5db8
000001c0: a1c3 26be 9225 af3d 59d9 d6bd 5aa6 1cbd
000001d0: 3df6 b5be 753a 1b3d da3f cb3d f656 01bd
000001e0: d4df 18bd 05fa 82bd 3b8f bdbb 6000 acbe
000001f0: 2690 a03e 9a21 aebe 368a 98bd cf23 ffbd
00000200: b095 76be 1173 8f3d b422 86bd c04d 443e
00000210: 6c50 533e 037f eabe c2ff fd3e 8eb2 3dbe
00000220: 664e 843d d0ea 57be b5f2 c73c 9659 7f3e
00000230: 2f62 04bd a99d 8fbe af73 d03d 200b 30be
00000240: dc24 0fbe 1db7 84be dec6 4c3e 5529 0ebe
00000250: 9c68 3abe ca15 1cbd bd77 57bd ca58 6cbd
00000260: 32a5 55bf d630 203d bb54 883d 4c06 03be
00000270: 1538 19bc befb 3fbc 8d97 71be 9716 483e
00000280: 17c1 c93d 068d 0e3d da2f 17be 0bbb 91be
00000290: 548c 8fbd eb3f ed3d 2535 3d3e 4d8c 12be
000002a0: b5b0 3dbd a2fe efbd f636 45be a4c1 5fbd
000002b0: 794d 7a3d d4e6 1f3e 4e99 803d e656 1d3e
000002c0: ba12 8bbe 001d 55be 8ab0 e53c 57ee 29be
000002d0: fd93 063e b44e 70be 4ef2 11be e11a 02be
000002e0: 2ed3 c53e c510 53bf fcdb 70be 9baa f73d
000002f0: 8312 ccbe c9c6 f3bd df85 46bd 6d85 483f
00000300: ce2b 7fbd 4a59 f1bc afb2 0fbe febc aa3d
00000310: 390d 8b3d 1bdc 463e b4fb c23d 79d7 95bd
00000320: 1d0b 61be d9c3 cb3f fbe9 bebf a7a5 1d3f
00000330: 5136 8dbe af8f 053e 4022 92bd 7bd1 7e3d
00000340: e2de b0be 054e e33e fec3 1dbe 38c4 dabc
00000350: b76f 96be d460 b13e 9b1d e13e d295 013e
00000360: 3720 323b 78f1 70be 9fcf dbbd ef89 f6be
00000370: ac60 193b 9fe0 0cbe df9a 3c3d f43f a8bf
00000380: 0ae7 2b3e a4e1 2abf ee82 3fbd e1f2 1cbf
00000390: dbc5 ebbe 359a 3dbe 5e1c d4be a3a7 9abd
000003a0: a3bf 32bc b40d 39be c8f6 0c3c 851f 21be
000003b0: ad1a 1cbe 14c5 c5bd 505a 17bd 913b e7be
000003c0: 93a0 28be d226 883d 747c 9cbd 2906 0cbe
000003d0: 0885 2b3e 11f3 24bd 9e63 c73d 51e9 223e
000003e0: b8d7 85be d9ac f3bd 590e bc3d b356 c1be
000003f0: 7abe e83e 6f3e 0a3d cdcf 8bbe 022c c7bd

fc2.bias f4 [64]
0.08817015 0.10627498 0.044682276 -0.11207796 0.10402591 0.095846735 0.03641049 -0.0100869415
-0.08354361 0.026764369 -0.042164605 0.108652376 -0.12085799 0.02612437 -0.0025521994 0.00033207008
-0.015072679 0.05130517 -0.104137644 0.026120503 -0.08073694 0.038576655 -0.010319157 0.01537855
0.06832566 -0.048200727 -0.09761055 -0.056466144 0.09885243 -0.098676555 0.076904535 -0.042825375
0.006330764 0.04967071 -0.042748652 -0.083527915 0.041076858 0.0732239 0.045247655 -0.004176401
0.01292866 0.050966915 0.03861707 -0.060093734 0.087363414 -0.016222002 -0.047863703 -0.03657932
0.016176281 -0.06276377 -0.08847347 0.06762162 0.09898285 -0.12057695 0.09650436 -0.07126006
0.028672308 0.11220185 -0.07579824 -0.04982841 0.034924936 -0.07586251 -0.04718696 -0.10164026
00000000: 8d92 b43d b2a6 d93d c304 373d 2189 e5bd
00000010: 890b d53d 4b4b c43d 2a23 153d b343 25bc
00000020: ea18 abbd f340 db3c cbb4 2cbd 2385 de3d
00000030: 6584 f7bd c602 d63c cd42 27bb b119 ae39
00000040: 66f3 76bc 5f25 523d 1e46 d5bd aafa d53c
00000050: 6959 a5bd 8e02 1e3d ae11 29bc 50f6 7b3c
00000060: 53ee 8b3d 206e 45bd 0ae8 c7bd 0b49 67bd
00000070: 2573 ca3d ef16 cabd 2080 9d3d a969 2fbd
00000080: 4c72 cf3b 8473 4b3d 3619 2fbd af10 abbd
00000090: 3540 283d 69f6 953d 9b55 393d 31da 88bb
000000a0: bbd2 533c afc2 503d ef2c 1e3d d924 76bd
000000b0: 97eb b23d 01e4 84bc bb0c 44bd 32d4 15bd
000000c0: 1f84 843c 4b8a 80bd 9431 b5bd 347d 8a3d
000000d0: 85b7 ca3d 0cf1 f6bd 14a4 c53d cbf0 91bd
000000e0: 30e2 ea3c 15ca e53d 1c3c 9bbd e018 4cbd
000000f0: 730d 0f3d ce5d 9bbd 1d47 41bd c528 d0bd

fc2_bn.weight f4 [64]
0.50167054 0.7703267 0.49251544 0.4681054 0.64817387 0.5912472 0.29472417 0.99101734
0.40529287 0.7706072 0.48773047 0.49386483 0.38911635 0.26647508 0.30356163 0.58728236
0.40793902 0.4634434 0.76192224 0.65540653 0.4645703 0.5695351 0.5991635 0.50438946
0.4536379 0.75031924 0.5099024 0.5130792 0.42776486 0.27256683 0.5868791 0.5205168
0.4847213 0.58574754 0.29002714 0.41482574 0.29817602 0.3667284 0.57388556 0.37928048
0.39227274 0.38056523 1.3451521 0.49321905 0.5578974 0.32172132 0.50050974 0.60280025
0.4519221 0.45865557 0.31246212 0.45480424 0.3041078 0.4463618 0.39170817 0.3614398
0.32991078 0.33482513 0.6632656 0.3633845 0.34457192 0.38886592 0.3442732 0.50068045
00000000: 7b6d 003f 2134 453f fc2a fc3e 83ab ef3e
00000010: b9ee 253f fa5b 173f 16e6 963e 50b3 7d3f
00000020: 8c82 cf3e 8346 453f cfb7 f93e dadb fc3e
00000030: 423a c73e 6c6f 883e 6e6c 9b3e 2358 163f
00000040: 62dd d03e 7448 ed3e 560d 433f b9c8 273f
00000050: 29dc ed3e 0dcd 113f c762 193f ab1f 013f
00000060: 3a43 e83e ec14 403f f788 023f 2959 033f
00000070: ff03 db3e e18d 8b3e b53d 163f 9740 053f
00000080: 642d f83e 8df3 153f 707e 943e 0a64 d43e
00000090: 87aa 983e d3c3 bb3e 2aea 123f 0d31 c23e
000000a0: f9d7 c83e 72d9 c23e f22d ac3f 3587 fc3e
000000b0: 5dd2 0e3f a8b8 a43e 6821 003f 1e51 1a3f
000000c0: 5562 e73e e7d4 ea3e 09fb 9f3e 1adc e83e
000000d0: 04b4 9b3e 8989 e43e f98d c83e a30e b93e
000000e0: 11ea a83e 336e ab3e c6cb 293f 880d ba3e
000000f0: bb6b b03e 6f19 c73e 9444 b03e 982c 003f

fc2_bn.bias f4 [64]
-0.20688155 -0.42715642 -0.11112168 -0.16497883 -0.099022985 0.03174708 0.04529933 -0.24634778
-0.43497014 -0.32952672 -0.4143662 -0.020745147 -0.07894818 -0.06745089 -0.26618505 -0.18102038
-0.23655504 -0.4800882 -0.34923652 -0.37212554 -0.24882421 0.01574188 -0.5381496 -0.421988
-0.5120514 -0.47151896 -0.30467966 -0.20038122 -0.1552267 0.0305979 -0.42840266 -0.1239041
-0.21708064 -0.5198613 -0.20427398 -0.06630223 -0.08394221 -0.10527318 -0.6987133 -0.30695176
-0.066110715 -0.30663714 -1.7360443 -0.26417673 -0.18651253 -0.21578579 -0.4502684 -0.24857555
-0.18957855 -0.25935596 -0.02754436 -0.31723222 -0.046844233 -0.5215388 -0.13830002 -0.27353245
-0.07295065 -0.24995492 -0.49749127 -0.2620733 -0.063740574 -0.07028484 -0.20143265 -0.3257774
00000000: c2d8 53be 3fb4 dabe c393 e3bd 36f0 28be
00000010: 90cc cabd 3a09 023d ca8b 393d 9842 7cbe
00000020: 68b4 debe bab7 a8be ce27 d4be baf1 a9bc
00000030: 95af a1bd b123 8abd 6849 88be 685d 39be
00000040: 7c3b 72be 1fce f5be 21cf b2be 3d87 bebe
00000050: c6cb 7ebe 1df5 803c 2cc4 09bf d00e d8be
00000060: cd15 03bf ef6a f1be f9fe 9bbe bc30 4dbe
00000070: bff3 1ebe 72a8 fa3c 9857 dbbe 6fc1 fdbd
00000080: 634a 5ebe a115 05bf 332d 51be 77c9 87bd
00000090: e5e9 abbd 7799 d7bd e0de 32bf c828 9dbe
000000a0: 0e65 87bd 8bff 9cbe b336 debf 2c42 87be
000000b0: 24fd 3ebe f3f6 5cbe 9489 e6be 978a 7ebe
000000c0: e120 42be 4eca 84be b6a4 e1bc 436c a2be
000000d0: bddf 3fbd 9183 05bf 859e 0dbe 720c 8cbe
000000e0: 2667 95bd 2ff4 7fbe 2db7 febe 792e 86be
000000f0: 6b8a 82bd 80f1 8fbd 5c44 4ebe 4ccc a6be

fc2_bn.running_mean f4 [64]
8.114841 -9.127869 -13.969141 -7.6168895 -5.4508905 -0.11432404 -7.353459 -3.922763
6.762471 -11.499901 -2.497478 -15.768146 5.5703745 -9.50678 2.8720934 -2.5610516
-3.9022207 -20.975157 -27.004187 -28.89087 -7.4777594 2.3934958 -8.076404 -15.75232
-7.752765 26.632128 -19.35892 6.2129245 -1.0244662 4.5566816 1.7701474 -3.4397874
-12.176755 -19.40286 6.9579396 2.3702862 -6.2791286 1.0250024 -29.638802 -1.1137154
0.49607256 -20.940725 2.8621652 -12.973918 -3.9733186 -12.628648 -12.011069 -5.4232197
4.4835105 -12.8994465 -15.401853 -8.615003 -4.1605754 -6.3316283 -1.8859122 12.5630245
4.074028 -10.047943 -11.484656 -4.790696 -0.06323373 -8.6914425 7.804925 -13.5035925
00000000: 64d6 0141 c00b 12c1 9a81 5fc1 8fbd f3c0
00000010: b26d aec0 b922 eabd 894f ebc0 8d0e 7bc0
00000020: 2a66 d840 98ff 37c1 aed6 1fc0 534a 7cc1
00000030: 8240 b240 c51b 18c1 61d0 3740 45e8 23c0
00000040: fcbd 79c0 1fcd a7c1 9308 d8c1 8020 e7c1
00000050: ce49 efc0 092f 1940 f338 01c1 8109 7cc1
00000060: a716 f8c0 990e d541 11df 9ac1 47d0 c640
00000070: b521 83bf 56d0 9140 3194 e23f 7a25 5cc0
00000080: fdd3 42c1 0f39 9bc1 71a7 de40 c5b2 1740
00000090: 9fee c8c0 4733 833f 441c edc1 3a8e 8ebf
000000a0: 39fd fd3e 9b86 a7c1 b72d 3740 2b95 4fc1
000000b0: da4a 7ec0 f10e 4ac1 572d 40c1 048b adc0
000000c0: eb78 8f40 2264 4ec1 fd6d 76c1 0dd7 09c1
000000d0: 6f23 85c0 b39c cac0 9265 f1bf 2602 4941
000000e0: 705e 8240 60c4 20c1 27c1 37c1 624d 99c0
000000f0: b080 81bd 2610 0bc1 f2c1 f940 b70e 58c1

fc2_bn.running_var f4 [64]
98.75286 74.502396 126.64823 130.90523 109.46821 24.81089 64.40524 33.901443
70.08877 220.67366 60.719772 207.20361 63.73747 89.08409 41.21756 93.81711
42.236633 61.810802 538.49255 646.41907 56.05006 112.53713 59.732254 89.17779
65.951225 103.87664 124.3392 194.66623 112.94885 100.44322 71.0547 117.06253
131.4929 383.23627 98.240486 118.89331 110.61859 63.179195 193.32626 62.11665
57.88732 129.38608 66.9951 154.80736 67.41913 61.964115 98.214676 251.0922
71.84964 149.83841 55.807217 81.08258 129.68921 59.511112 58.06582 90.40989
76.674 62.965572 83.55269 109.31655 111.59193 49.893665 65.24967 87.50351
00000000: 7781 c542 3a01 9542 e54b fd42 bde7 0243
00000010: b9ef da42 b47c c641 7ccf 8042 149b 0742
00000020: 732d 8c42 75ac 5c43 0ce1 7242 2034 4f43
00000030: 2bf3 7e42 0e2b b242 c8de 2442 5ca2 bb42
00000040: 50f2 2842 433e 7742 869f 0644 d29a 2144
00000050: 4333 6042 0313 e142 d4ed 6e42 075b b242
00000060: 07e7 8342 d7c0 cf42 acad f842 8eaa 4243
00000070: d0e5 e142 eee2 c842 021c 8e42 0420 ea42
00000080: 2f7e 0343 3e9e bf43 217b c442 60c9 ed42
00000090: b83c dd42 7fb7 7c42 8653 4143 7377 7842
000000a0: 9e8c 6742 d662 0143 7efd 8542 afce 1a43
000000b0: 98d6 8642 41db 7742 ea6d c442 9a17 7b43
000000c0: 04b3 8f42 a2d6 1543 973a 5f42 482a a242
000000d0: 70b0 0143 610b 6e42 6643 6842 ddd1 b442
000000e0: 1759 9942 bfdc 7b42 fa1a a742 13a2 da42
000000f0: 112f df42 1d93 4742 d57f 8242 cc01 af42

fc3.weight f4 [64, 64]
0.19812985 0.019838544 0.15323353 0.4512673 -0.07320111 0.12798007 -0.33509132 -0.32404754
0.06463043 0.39039466 -0.001429708 0.10201117 -0.31774682 0.04204675 0.10435699 0.16507594
0.42499927 0.2092237 0.14400174 -0.6995089 0.5252277 0.57232344 -0.0238863 0.14147982
-0.092731185 0.38330373 0.0060571865 0.15357415 0.5384925 0.20370378 0.17849146 0.22566399
0.15226626 -0.14259277 -0.30760533 0.19969872 0.10175302 -0.014493933 0.31611964 -0.041474484
0.2209443 0.1843363 -0.5853141 -0.19313918 0.71566707 0.11401679 -0.3068889 -0.13509874
0.13108231 -0.5888954 0.053508993 -0.19957861 0.12185544 0.038336895 0.28822964 0.31021357
0.6032138 -0.50849885 -0.16620253 0.21279527 0.75407135 -0.44049567 -0.36704862 0.26139605
0.0020270518 0.15325667 0.30922797 -0.32800946 -0.3103139 0.97619134 -0.1587499 -1.2603753
-0.05610748 0.1346926 0.10948129 -0.14500394 0.0340012 0.14266339 0.023327438 -0.35409316
0.07492524 0.43572482 -0.036781013 0.41129044 -0.011109042 0.0058064014 -0.4473618 -0.18984498
0.28497308 -0.4785727 -0.06086537 -0.14280914 -0.16794856 0.21738252 0.4573822 0.060499072
0.16728719 0.060969304 -0.31281987 0.14769095 -0.6078863 0.31159768 0.03450238 0.11629972
0.07213451 -0.18562552 -0.06375893 0.31886047 -0.22520232 0.1668206 0.2544662 0.02851342
-0.030270012 0.10953303 0.1671659 0.056179438 0.050694954 -0.23692815 -0.16172834 -0.20740424
-0.034741025 -0.17849426 0.2541779 -0.076080546 -0.044752374 -0.022522498 -0.16046464 0.08402434
-0.11275083 0.47023797 -0.06130824 -0.0714192 0.599278 0.20995323 -0.531579 0.035343025
0.27364948 0.8783685 0.34798643 -0.05736538 0.009495184 0.14480095 -0.02386251 0.57407266
0.10020024 0.16405216 -0.78640085 0.43071166 -0.23773868 0.040393304 0.050232675 -0.05194106
-0.16153142 0.58510506 -0.12243897 -0.14072983 0.046787787 -0.033629056 0.04921608 0.47904786
-0.010742825 0.098512605 0.13964425 0.01760589 0.34785905 0.16652435 -0.033771224 0.07588944
0.073077925 -0.09244285 0.13001914 0.15031473 0.39754254 0.11796145 0.11660764 0.1639195
0.23263386 -0.19644295 0.20739737 -0.056824338 0.1577012 0.0367013 -0.5535624 0.13772127
-0.10169533 -0.021993658 0.63921535 0.014319213 0.20663384 0.25069615 -0.012077929 -0.39855376
0.23571438 -1.1360376 -0.20643134 -0.022417177 -0.3344446 -0.5024732 0.1808549 0.5289751
-0.27266616 -0.034841534 -0.09169253 -0.07250625 -0.18307525 0.05230403 -0.122723415 -0.11961631
0.09800391 0.114126466 -0.06453344 -0.31957483 0.056622356 -0.074714996 -0.06406101 -0.04558829
-0.2808227 0.06500564 0.1890078 0.08108555 0.14691597 -0.24580467 -0.474817 0.04180985
0.38694677 0.15505493 0.1194144 0.2777732 0.07184933 -0.0073736324 0.23002066 -0.14081989
-0.7463508 0.40889862 0.48017955 -0.591337 -1.4135437 0.07378521 0.13852328 -0.34510008
0.07853519 0.2822572 -0.056328878 0.06254107 -0.3514757 -0.12090234 -0.07345121 -0.24261422
-0.056693617 0.021346297 -0.55590385 -0.006845235 -0.6356407 0.087397575 0.6109581 0.012832397
00000000: 8de2 4a3e 7184 a23c 40e9 1c3e 820c e73e
00000010: 77ea 95bd 350d 033e 1791 abbe 8fe9 a5be
00000020: f55c 843d cfe1 c73e 0a65 bbba 3beb d03d
00000030: b6af a2be 3739 2c3d 1eb9 d53d ab09 293e
00000040: 8199 d93e bd3e 563e 3175 133e 0413 33bf
00000050: 5375 063f ca83 123f 34ad c3bc 16e0 103e
00000060: d9e9 bdbd 6340 c43e 5d7b c63b 8b42 1d3e
00000070: a5da 093f b997 503e 77c6 363e 7614 673e
00000080: b0eb 1b3e d703 12be 727e 9dbe d27d 4c3e
00000090: e363 d03d f677 6dbc 6fda a13e 26e1 29bd
000000a0: 393f 623e a8c2 3c3e 25d7 15bf 47c6 45be
000000b0: f535 373f a381 e93d 8b20 9dbe 5357 0abe
000000c0: 713a 063e d9c1 16bf 3f2c 5b3d 565e 4cbe
000000d0: 588f f93d 2607 1d3d d692 933e 50d4 9e3e
000000e0: 386c 1a3f fb2c 02bf ff30 2abe 01e7 593e
000000f0: d20a 413f a688 e1be cced bbbe b4d5 853e
00000100: 49d8 043b 51ef 1c3e 2153 9e3e dbf0 a7be
00000110: 77e1 9ebe ade7 793f 558f 22be fa53 a1bf
00000120: f5d0 65bd dbec 093e ba37 e03d ea7b 14be
00000130: d844 0b3d 5a16 123e 2f19 bf3c b34b b5be
00000140: 6772 993d 5317 df3e b0a7 16bd a994 d23e
00000150: b302 36bc a043 be3b 9b0c e5be b966 42be
00000160: fee7 913e 7b07 f5be f74d 79bd 8f3c 12be
00000170: b5fa 2bbe 8699 5e3e 002e ea3e e0cd 773d
00000180: 554d 2b3e f3ba 793d ed29 a0be 4c3c 173e
00000190: 709e 1bbf bb89 9f3e 5e52 0d3d 8c2e ee3d
000001a0: 42bb 933d 9e14 3ebe 0b94 82bd ae41 a33e
000001b0: 709b 66be 05d3 2a3e 6549 823e fa94 e93c
000001c0: d1f8 f7bc da52 e03d 8a2d 2b3e 691c 663d
000001d0: 83a5 4f3d 4b9d 72be 1d9c 25be c761 54be
000001e0: 9b4c 0ebd 33c7 36be 9b23 823e 1ed0 9bbd
000001f0: 444e 37bd 1a81 b8bc d850 24be f414 ac3d
00000200: e8e9 e6bd 08c3 f03e 591e 7bbd 3b44 92bd
00000210: 486a 193f fbfd 563e 9015 08bf d9c3 103d
00000220: c91b 8c3e c2dc 603f 472b b23e f6f7 6abd
00000230: b091 1b3c b346 143e 507b c3bc 6df6 123f
00000240: c935 cd3d 4afd 273e 9151 49bf 3d86 dc3e
00000250: c571 73be 7373 253d c7c0 4d3d 26c0 54bd
00000260: 7e68 25be 72c9 153f 48c1 fabd 7b1b 10be
00000270: 8da4 3f3d 9fbe 09bd cd96 493d c345 f53e
00000280: ad02 30bc fac0 c93d e7fe 0e3e 3a3a 903c
00000290: 951a b23e 5c85 2a3e b253 0abd ec6b 9b3d
000002a0: e1a9 953d ad52 bdbd bd23 053e 1bec 193e
000002b0: b28a cb3e c695 f13d fdcf ee3d 83da 273e
000002c0: 9237 6e3e 5728 49be fa5f 543e a3c0 68bd
000002d0: 6c7c 213e 1a54 163d 44b6 0dbf ce06 0d3e
000002e0: a445 d0bd 0b2c b4bc 9ea3 233f 229b 6a3c
000002f0: d297 533e 3f5b 803e 82e2 45bc 3d0f ccbe
00000300: 1c5f 713e ae69 91bf bd62 53be 3aa4 b7bc
00000310: 533c abbe 15a2 00bf 0732 393e ea6a 073f
00000320: e69a 8bbe ffb5 0ebd 4bc9 bbbd 287e 94bd
00000330: 1478 3bbe c03c 563d 6a56 fbbd 65f9 f4bd
00000340: 46b6 c83d 23bb e93d 1c2a 84bd 509f a3be
00000350: d8ec 673d 2d04 99bd 6b32 83bd c9ba 3abd
00000360: fec7 8fbe ad21 853d 438b 413e 2e10 a63d
00000370: 2471 163e 38b4 7bbe 371b f3be ce40 2b3d
00000380: e31d c63e b8c6 1e3e 898f f43d 4a38 8e3e
00000390: be25 933d 839e f1bb 898a 6b3e 1733 10be
000003a0: d910 3fbf 295b d13e 18da f53e dd61 17bf
000003b0: 00ef b4bf b31c 973d 0cd9 0d3e f5b0 b0be
000003c0: 0fd7 a03d 0484 903e 1cb9 66bd 8815 803d
000003d0: 9ff4 b3be a59b f7bd 976d 96bd dd6f 78be
000003e0: 9137 68bd 6ede ae3c b74f 0ebf fe4d e0bb
000003f0: 59b9 22bf 80fd b23d c067 1c3f f93e 523c

fc3.bias f4 [64]
0.003954962 0.047037218 0.082669996 -0.051599056 -0.040505428 0.057097122 -0.03103513 0.035467822
0.054265406 -0.020378366 -0.035146993 0.11416723 0.048886172 -0.12137292 -0.117607616 -0.020691283
-0.07469231 0.099531025 0.09250263 0.08084045 0.10243459 0.09400318 0.10304372 0.004563748
0.10804164 0.041466378 0.064183876 -0.062086593 0.054821268 -0.10491539 0.0024034616 -0.06940548
0.011860862 0.012679643 -0.013000766 0.12428874 -0.11592008 -0.12231351 0.0076508424 -0.082229376
-0.08302472 -0.0746874 0.10041253 -0.07955296 -0.10272082 0.08980053 -0.080442876 -0.01389368
-0.07547102 0.036947913 0.10765726 -0.07541758 -0.09087456 0.05234123 -0.07582946 0.047905967
0.076946035 0.094688185 0.015993718 0.11491527 -0.033833764 0.07121421 -0.038657367 -0.06679369
00000000: a098 813b 19aa 403d e34e a93d 8859 53bd
00000010: 05e9 25bd acde 693d 633d febc b546 113d
00000020: 6745 5e3d 88f0 a6bc 4bf6 0fbd 82d0 e93d
00000030: de3c 483d 5e92 f8bd 43dc f0bd c480 a9bc
00000040: 48f8 98bd ecd6 cb3d 0572 bd3d ae8f a53d
00000050: 3ac9 d13d bd84 c03d 9608 d33d 7e8b 953b
00000060: ef44 dd3d a6d8 293d d672 833d 834e 7ebd
00000070: 448c 603d e1dd d6bd 6583 1d3b 7624 8ebd
00000080: 1054 423c 47be 4f3c 2a01 55bc 188b fe3d
00000090: 8267 edbd 817f fabd ebb3 fa3b e067 a8bd
000000a0: dd08 aabd b5f5 98bd 16a5 cd3d aaec a2bd
000000b0: 4b5f d2bd 57e9 b73d 3cbf a4bd 51a2 63bc
000000c0: 8d90 9abd b256 173d 697b dc3d 8874 9abd
000000d0: 711c babd c263 563d 7a4c 9bbd 0c39 443d
000000e0: e295 9d3d e1eb c13d 4205 833c b258 eb3d
000000f0: 4695 0abd c1d8 913d 3057 1ebd 21cb 88bd

fc3_bn.weight f4 [64]
0.36623982 0.7875746 0.71816427 1.4377369 0.059761435 1.1370618 0.71500564 0.34749213
0.32969823 2.324823 0.36681476 1.9580189 1.1634327 1.2801595 1.5681709 0.58480936
2.049592 0.8561979 0.6668444 0.9172991 0.53493154 1.1703428 0.680313 1.5701605
1.4067934 0.5997922 0.38431805 1.4435507 1.5921166 1.3641735 0.39885092 0.3545163
1.0331665 0.97650814 1.9435863 0.9946817 0.35866705 1.6663499 1.0478082 0.75488096
0.8392566 1.5168668 1.3317233 0.67538995 0.40123734 0.6963144 0.93862486 0.47926715
0.85273117 0.88239324 0.66789705 0.9965023 1.7839838 0.38395613 0.9227222 0.40282565
0.91018915 1.08725 0.8055283 0.61495167 1.2637461 0.082885884 0.6608366 1.8726424
00000000: c983 bb3e 7d9e 493f 9dd9 373f c307 b83f
00000010: 68c8 743d 3e8b 913f 9c0a 373f 7dea b13e
00000020: 35ce a83e e6c9 1440 25cf bb3e 5da0 fa3f
00000030: 5deb 943f 44dc a33f d3b9 c83f 11b6 153f
00000040: 842c 0340 c92f 5b3f 51b6 2a3f 1dd4 6a3f
00000050: 46f1 083f cbcd 953f fe28 2e3f 05fb c83f
00000060: ce11 b43f fb8b 193f 56c5 c43e 45c6 b83f
00000070: 7aca cb3f 3d9d ae3f 3036 cc3e 2983 b53e
00000080: cd3e 843f 70fc 793f 70c7 f83f 76a3 7e3f
00000090: 35a3 b73e f44a d53f 941e 863f e13f 413f
000000a0: 85d9 563f b128 c23f e975 aa3f 5be6 2c3f
000000b0: fb6e cd3e a941 323f b849 703f 8162 f53e
000000c0: 974c 5a3f 86e4 613f 4dfb 2a3f c61a 7f3f
000000d0: 9559 e43f e695 c43e 8637 6c3f 2a3f ce3e
000000e0: 2802 693f 022b 8b3f 1a37 4e3f 796d 1d3f
000000f0: 6fc2 a13f 13c0 a93d 962c 293f bfb2 ef3f

fc3_bn.bias f4 [64]
0.49746144 -0.06689078 0.39764434 -0.9092499 0.6230277 -0.9200972 0.011966839 0.22135603
0.76002574 -1.5370859 0.3543769 -1.3279048 -0.58027047 -1.1701111 -1.1983631 -0.7073321
-1.2730554 -0.07633716 0.2869367 -0.5485433 0.14413783 -1.0842124 0.39141917 -1.1080203
-1.0436177 -0.042309985 0.0680273 -1.2291542 -1.2061287 -1.1227463 0.11043708 0.17746021
-0.7489614 -0.8145235 -1.3054795 -0.68230474 0.668966 -1.2192466 -0.89721495 -0.99030256
-0.10414021 -1.160087 -0.9574531 0.03744229 0.49317053 0.21530692 -0.9454176 0.60419333
-0.46026435 -0.32887468 0.010009141 -0.9297931 -1.3946639 0.33686644 -0.022298543 0.2312084
-0.87428015 -0.23353153 -0.8291378 0.026515946 -1.1765294 0.79418486 -0.5329788 -1.2396684
00000000: 44b3 fe3e 09fe 88bd 0a98 cb3e 9ac4 68bf
00000010: be7e 1f3f 7d8b 6bbf 9010 443c 28ab 623e
00000020: 0c91 423f 3bbf c4bf e470 b53e c9f8 a9bf
00000030: 9b8c 14bf 33c6 95bf f663 99bf b713 35bf
00000040: 7bf3 a2bf a856 9cbd 5ee9 923e 556d 0cbf
00000050: de98 133e 79c7 8abf 1868 c83e 9cd3 8dbf
00000060: 4495 85bf 3c4d 2dbd e651 8b3d ed54 9dbf
00000070: 6d62 9abf 27b6 8fbf d62c e23d 21b8 353e
00000080: efbb 3fbf 9d84 50bf f419 a7bf 86ab 2ebf
00000090: 5b41 2b3f 4610 9cbf e1af 65bf 7884 7dbf
000000a0: 7647 d5bd bb7d 94bf a51b 75bf 165d 193d
000000b0: d980 fc3e 6b79 5c3e e306 72bf 6aac 1a3f
000000c0: c5a7 ebbe 4362 a8be 61fd 233c ec06 6ebf
000000d0: 5984 b2bf c279 ac3e 6fab b6bc e5c1 6c3e
000000e0: d3d0 5fbf e422 6fbe 6042 54bf f837 d93c
000000f0: 8498 96bf b34f 4b3f 4c71 08bf 74ad 9ebf

fc3_bn.running_mean f4 [64]
0.4983924 -0.15975909 0.7436282 -0.6223579 0.043863546 -0.5335476 0.29881915 0.5688706
0.1033323 -0.59525806 0.1348426 -0.31298742 -0.44028938 -0.8201352 -0.77457756 -0.31397948
-0.53932106 -0.025011308 0.55086344 -0.32036617 -0.31587636 -0.34259874 -0.1363969 -0.3886345
-0.20818496 0.07912344 -0.31405988 -0.5592437 -0.48214725 -0.4778884 -0.50034165 -0.0277763
-0.5946322 -0.43641207 -0.060770627 -0.3089948 0.1708121 -0.42529953 -0.50041866 -0.63454473
-0.46589902 -0.51958895 -0.6401642 -0.033981424 0.033951562 0.14204688 -0.47909424 0.30869114
-0.41381532 -0.27874598 0.14223087 -0.6973876 -0.42205617 0.22225611 -0.27741215 0.03550976
-0.31950772 0.0643979 -0.4268362 -0.15245053 -0.4104345 0.47079855 -0.35713 -0.41910848
00000000: 4a2d ff3e e397 23be 6b5e 3e3f d952 1fbf
00000010: 43aa 333d 9396 08bf d3fe 983e 81a1 113f
00000020: e39f d33d d562 18bf 2e14 0a3e e33f a0be
00000030: 9c6d e1be 61f4 51bf b74a 46bf ebc1 a0be
00000040: f210 0abf 84e4 ccbc 6305 0d3f 0907 a4be
00000050: 8cba a1be 1a69 afbe a1ab 0bbe 1afb c6be
00000060: 702e 55be 780b a23d 75cc a0be 982a 0fbf
00000070: 01dc f6be caad f4be 6416 00bf 208b e3bc
00000080: d139 18bf 6771 dfbe 9fea 78bd 9134 9ebe
00000090: 5ee9 2e3e dcc0 d9be 701b 00bf 8671 22bf
000000a0: 518a eebe c803 05bf cde1 23bf 1b30 0bbd
000000b0: cb10 0b3d bd74 113e d74b f5be c40c 9e3e
000000c0: 9adf d3be cbb7 8ebe f8a4 113e fe87 32bf
000000d0: bf17 d8be 1b97 633e f708 8ebe af72 113d
000000e0: 8496 a3be 0ce3 833d 468a dabe fe1b 1cbe
000000f0: 7924 d2be 820c f13e bed9 b6be 6395 d6be

fc3_bn.running_var f4 [64]
0.7468742 0.8431831 0.56054753 1.0013808 2.2364168 0.49406847 0.562167 0.33381933
1.2436533 0.7303847 0.43508044 0.5650071 0.54886293 0.6138284 0.5634659 0.34018278
0.72554964 0.67402565 0.48527724 0.25663918 0.3383937 0.3575658 0.83315504 0.58233255
0.5595518 0.30570954 0.26701307 0.53104615 0.61245114 0.53206676 0.5595637 0.28887975
0.37871003 0.41954446 0.7903513 0.660549 0.8002988 0.6848038 0.5657397 0.3175358
0.6630588 0.7920277 0.49495208 0.30639574 1.3992362 0.37154236 0.351991 0.60646886
0.44519368 0.33103552 0.4150755 0.4191728 0.54598445 0.42130747 0.32553622 0.608751
0.5013899 0.5543273 0.36022526 0.27360162 0.43743372 0.93934375 0.41068962 0.64986444
00000000: 2633 3f3f d9da 573f 0b80 0f3f 3f2d 803f
00000010: 7421 0f40 8bf6 fc3e 2dea 0f3f 5eea aa3e
00000020: 0830 9f3f 7efa 3a3f ddc2 de3e 4ea4 103f
00000030: 4882 0c3f dc23 1d3f 4d3f 103f 702c ae3e
00000040: 9fbd 393f f28c 2c3f 4276 f83e 3666 833e
00000050: f041 ad3e dd12 b73e a649 553f bf13 153f
00000060: c93e 0f3f f685 9c3e f0b5 883e a4f2 073f
00000070: 99c9 1c3f 8735 083f 913f 0f3f 0ce8 933e
00000080: 48e6 c13e 88ce d63e 7654 4a3f bd19 293f
00000090: 62e0 4c3f 4d4f 2f3f 51d4 103f 0d94 a23e
000000a0: 39be 293f 54c2 4a3f 5c6a fd3e e7df 9c3e
000000b0: 2c1a b33f cd3a be3e 2a38 b43e 8b41 1b3f
000000c0: 6df0 e33e 7d7d a93e c784 d43e d19d d63e
000000d0: a3c5 0b3f 9db5 d73e afac a63e 1bd7 1b3f
000000e0: 175b 003f 65e8 0d3f 726f b83e 8315 8c3e
000000f0: 50f7 df3e d578 703f e945 d23e 845d 263f

fc_out.weight f4 [1, 64]
-0.17472279 -0.1252631 -0.17682357 -1.3140033 -0.3543405 -0.92209566 -0.082217276 -0.22795546
-0.39956215 -2.592415 -0.18587852 -2.5874527 -0.46170086 -2.735455 -2.344564 -0.3005554
-2.6808288 -0.13962746 -0.09156722 -0.09649988 -0.081857674 -2.4802983 -0.11634569 -1.5431596
-2.002083 -0.08865015 -0.112621844 -2.347965 -3.2239213 -1.8878341 -0.20405295 -0.10037954
-0.64146227 -0.890708 -2.9452636 -0.23578858 -0.29425585 -2.7434154 -2.7520466 -2.3282778
-0.13465557 -2.737001 -0.799518 -0.09202956 -0.16833042 -0.08945929 -1.4350573 -0.26457173
-0.15472403 -0.103313595 -0.12318608 -1.4203062 -2.8189604 -0.12679012 -0.08842778 -0.14490876
-1.9363083 0.16868128 -1.1674883 -0.04866409 -1.8509235 -0.54776794 -0.2711935 -2.3808486
00000000: 88ea 32be f844 00be 3d11 35be 4331 a8bf
00000010: 1e6c b5be 760e 6cbf 8861 a8bd 286d 69be
00000020: 6993 ccbe 21ea 25c0 f056 3ebe d398 25c0
00000030: 0e64 ecbe b211 2fc0 560d 16c0 66e2 99be
00000040: b392 2bc0 80fa 0ebe 9887 bbbd bba1 c5bd
00000050: ffa4 a7bd 35bd 1ec0 a646 eebd 4186 c5bf
00000060: 2122 00c0 368e b5bd 48a6 e6bd 0f45 16c0
00000070: ba54 4ec0 8ca4 f1bf 42f3 50be ca93 cdbd
00000080: df36 24bf 7105 64bf 337f 3cc0 9072 71be
00000090: b4a8 96be 1e94 2fc0 8821 30c0 8102 15c0
000000a0: 26e3 09be 062b 2fc0 36ad 4cbf fe79 bcbd
000000b0: cf5e 2cbe 6f36 b7bd f5af b7bf f275 87be
000000c0: fa6f 1ebe 1496 d3bd fc48 fcbd 98cc b5bf
000000d0: d969 34c0 45d5 01be a019 b5bd f662 14be
000000e0: f3d8 f7bf c9ba 2c3e 4270 95bf ff53 47bd
000000f0: 10eb ecbf 853a 0cbf e0d9 8abe d35f 18c0
