checkpoint_actor_target_1.pth (torch_old, 27361 bytes, 14 tensors)

fc1.weight f4 [64, 24]
00000000: e65d cd3d f84c 503f 608e c8bc c5a6 233e
00000010: a6ef c1be fb42 debf 4090 c23d bf9c 8b3e
00000020: b620 f8be 97cc f43e 71ff 693d fb9d 463f
00000030: fdbb adbe d3ec 43be d316 83bd c071 543f
00000040: 8a2e 56bf 85e4 243f 18f2 b63d 7a05 07bf
00000050: 8f5e bfbc 8826 a63e eedf 033e d5b3 2bbf
00000060: 4897 c6bd cef9 a8be afce 24bd 71a5 c83c
00000070: 0c12 24bf 1ef1 6a3f 32f8 603d 7742 02bc
00000080: 2d07 fc3d 3c9b 013e 407a 923d 2600 15bd
00000090: 4313 0b3e 9490 b63e 5645 abbd 694c ba3c
000000a0: 9e50 ab3c dc54 033e ff25 7ebd 3630 6dbe
000000b0: 8217 1b40 d9a3 92bd 482d d53d 4ada 76be
000000c0: d4d5 60bf 79be 373e b682 043e f6b1 08bd
000000d0: fdcb d23e eb9a c1be 08f7 583e c760 66be
000000e0: aeb1 0dbf c028 183d f70d a93d f14b 8cbe
000000f0: 6a49 1abe c5ba 853f 84f2 653e c16e 50be
00000100: 4aa1 bfbe a063 a9bc ea78 9abd e7c6 123e
00000110: 8d30 02bf 3452 c13f be91 e43b 513e 7c3e
00000120: ab59 64bf 403b 083f a7dc 79bd 8b1d 0b3e
00000130: d186 cebe 5869 f33e 660a 5b3d 972d 373e
00000140: c31f 5cbf 677e 3b3f 6d7f 04be beea f7bd
00000150: cce0 d03d b523 e2bd 979b 04bc f6f2 78be
00000160: d0b0 97bf eea0 423f 3097 3bbe c94a 9d3e
00000170: d544 443f 47af 76bf 0f77 cebb efb5 c33e
00000180: 5986 eabe a06d a53e 3765 9bbd dd8e 033e
00000190: ea4f 48bf 8be7 59bf 356e 8e3d c236 6bbd
000001a0: 56ed 6c3d 1b5d 713d dbf1 18bd 6a71 d43d
000001b0: c385 e1be dea7 90bf 4c16 6bbd 02e5 373e
000001c0: c767 ee3e 7859 cd3d d8db 953e 96a2 3f3f
000001d0: 3ad7 42be 17ce a1bf a538 533e ec53 393f
000001e0: 9e30 4d3f e3d9 d7be e0ff aa3d 0e1a c53e
000001f0: a1e6 7fbd 826b 13bf aaa6 a3bc d32e 0f3f
00000200: b0d1 593f 3c8c 1abc 4b79 693e be23 813f
00000210: d289 d1be 1f1a 30be 761b 0c3e aa9a 843f
00000220: d697 443f db48 2e3e a93d b6bd 5bd2 a53e
00000230: 8ec4 a1be e7c3 9f3e 1e0c e1bd 4d76 e33e
00000240: 9848 58be 0209 40be eab4 053d 88db 2e3c
00000250: 3075 a53f f104 ab3f bec9 00bd c954 ca38
00000260: 2f77 953c 80fb 3d3e d6e7 08bd e889 10bb
00000270: 72a8 793c 2302 593c 9830 903c 20f8 893d
00000280: 0cc0 713e d75b b73e 2c86 49bc 0866 393e
00000290: a32c 0ac0 178a a4bf 4170 a83b 581d b4bc
000002a0: e479 873e 5629 9e3f 2226 b5bd 2e09 9b3e
000002b0: 68f3 61be 50c7 babf cd25 8c3d 6af8 da3e
000002c0: 939f a13d 51a1 ae3f a6aa d83d 402f 903c
000002d0: 5509 e43d ae30 81bf abd0 823e 544a b03d
000002e0: 8ef0 8bbd d924 a33f ee96 f7bc ad64 22be
000002f0: 4240 dc3e 4ab1 aebf dfc9 93bc 11e5 48be
00000300: 4648 49be a837 1c3f 888d aabc 808e 3cbe
00000310: 1013 73be c053 0ec0 fe84 85bc 5f92 13be
00000320: 34ce ddbd 6ec4 3d3f 28be b03c 9700 b9bd
00000330: b3c8 153d 8086 4cbf bc37 79bd 5cc1 84be
00000340: 1dc0 18bf eb00 ce3e 7130 b13d 9b61 cbbe
00000350: b200 37be 472e ae3f f6fa 33bd 1c35 8bbe
00000360: fbc4 7cbe 6a31 b3be 547e 97bd b353 e73c
00000370: 9dce c43d 4a3c 53bf c4da a43d 9ce4 16be
00000380: 528e a73d 10be 92be dc1e 603d 5774 d3bc
00000390: 6a1d a3be 2122 b13f a03f 56bd 7e45 a73d
000003a0: 603c 923e 8437 e8be 2c96 f03c b1a1 673d
000003b0: ec43 6ebf 5982 2640 0a33 5fbd 318a 44bd
000003c0: 8587 a0be 2614 233f 29ee b43d 1dc8 57bd
000003d0: 0696 9cbf efd3 13be c6d0 9dbd 5e6d 7d3d
000003e0: eb2b 003e ffd7 223f a65f b8bc 51bc f53d
000003f0: 5291 3a3c f6ee 233d 91fd 9ebc 42ef e9bc
0.10027675 0.81367445 -0.024481952 0.15981586 -0.3787815 -1.7364191 0.0950017 0.27268025
-0.48462456 0.4781234 0.057128374 0.7758481 -0.33932486 -0.1913331 -0.06400838 0.8298607
-0.8366476 0.64411193 0.089328945 -0.5274273 -0.023360519 0.32451272 0.12878391 -0.67071277
-0.09696823 -0.33003086 -0.04023617 0.024492951 -0.6409004 0.91774166 0.054924197 -0.007950417
0.12306056 0.12656873 0.071522236 -0.036377095 0.13581567 0.3565718 -0.08362834 0.022741513
0.020912465 0.1282534 -0.062047955 -0.23162922 2.4233098 -0.07160158 0.10409027 -0.24106708
-0.87826276 0.17943753 0.12940487 -0.03337284 0.41171256 -0.37813506 0.21187985 -0.22497855
-0.5534924 0.037148237 0.08254617 -0.2740169 -0.15067068 1.0447623 0.22455794 -0.2035475
-0.3742774 -0.020677388 -0.07542594 0.14333688 -0.5085533 1.5103211 0.0069753816 0.24633147
-0.8919932 0.5321541 -0.061001446 0.13585488 -0.40337232 0.47541308 0.053476714 0.17888485
-0.85985965 0.7323975 -0.12939234 -0.121053204 0.101991266 -0.11041967 -0.008093736 -0.24311432
-1.1850834 0.7602681 -0.18319392 0.3072112 0.7666753 -0.963612 -0.006300814 0.38224742
-0.45805624 0.323102 -0.075876646 0.12847467 -0.7824694 -0.8511893 0.06954614 -0.057425268
0.05784353 0.058926683 -0.037340026 0.103731945 -0.44047365 -1.1301229 -0.05739431 0.17958453
0.4656355 0.100268304 0.2926929 0.7485746 -0.19027415 -1.2641019 0.20627077 0.7239368
0.8015231 -0.42158422 0.083495855 0.3849644 -0.062475804 -0.5758592 -0.019976933 0.55930823
0.8508558 -0.009432849 0.22800176 1.0089033 -0.4092546 -0.17197464 0.1368235 1.03597
0.76794183 0.1701998 -0.088984795 0.3238705 -0.31595272 0.3120415 -0.10988639 0.44426194
-0.21121442 -0.18753436 0.032643236 0.0106724575 1.2926388 1.3360883 -0.031442396 9.647903e-05
0.018245308 0.18552971 -0.03342422 -0.0022054855 0.015237914 0.013245138 0.017601296 0.06736779
0.23608416 0.35812256 -0.0123000555 0.18105328 -2.1589744 -1.2854642 0.005140335 -0.021986648
0.26460183 1.2356365 -0.08845164 0.3028044 -0.22065508 -1.4592075 0.068431474 0.4276765
0.078917645 1.364298 0.105794236 0.017600656 0.111345924 -1.0092981 0.25549826 0.08607927
-0.068329915 1.274562 -0.030223336 -0.15858717 0.43017775 -1.3647854 -0.018040596 -0.19618632
-0.19656476 0.61022425 -0.02081944 -0.18413734 -0.2373774 -2.2238617 -0.016298767 -0.14411305
-0.10830346 0.7412785 0.021575049 -0.09033316 0.036568355 -0.7989273 -0.060844168 -0.25928771
-0.5966814 0.40235075 0.086518176 -0.39722905 -0.17871359 1.3607873 -0.043940507 -0.27188957
-0.24684517 -0.34998637 -0.07397142 0.028238153 0.09609721 -0.8251387 0.08049539 -0.14735645
0.08181442 -0.2866063 0.05471693 -0.025812311 -0.3185838 1.383854 -0.05230677 0.081675515
0.28561687 -0.45354855 0.029368483 0.056550685 -0.9307239 2.6017058 -0.054492034 -0.047983352
-0.31353393 0.6370262 0.08834488 -0.052681077 -1.2233284 -0.14436315 -0.07705836 0.06187188
0.12516753 0.63610834 -0.022506546 0.11998809 0.011387186 0.040022813 -0.01940802 -0.02855647

fc1.bias f4 [64]
00000000: fec7 8abd 2d56 873d c28f b93d 8cb8 eebb
00000010: 2b4c 473e 88a5 10be 0656 9d3d ee35 3c3e
00000020: bda4 11bd 0ab1 253e 147f 653b d871 1cbe
00000030: e662 e5bd 14b9 9b3d e0ff b4bd 86d6 483d
00000040: d7e4 4d3e 7632 8e3d cd57 9cbc 3032 513d
00000050: 06b7 efbd 6c63 2fbe 90e1 1cbe 1e88 2fbe
00000060: 8732 2b3d 644a 233d e5b3 b1bd e85d 4cbe
00000070: f499 e23d f1a1 ecbd c96d 0cbd 5037 2fbe
00000080: 5589 ebbd 9508 ae3d 2ea6 42be 8403 efbd
00000090: a4ff 1c3e 3611 d6bd b5b2 adbd f990 6abd
000000a0: 458b b23d 370c 09be 38c8 a63c e1ba aa3d
000000b0: d53c 71bc 2570 173d 8d97 1fbe c984 bc3d
000000c0: 5f1a 9c3d 288c d1bc 0ce2 2cbe 1ce2 a63d
000000d0: 8462 083e 3246 12bd 7e2f c53d 0133 9a3d
000000e0: e888 a7bd d247 6bbc 3c3d 503e 1e49 573a
000000f0: f55a 26be b93a 74bc 820e d03d 8f5a 88bd
-0.06776427 0.066082336 0.09060623 -0.0072851833 0.1946265 -0.14125645 0.07682423 0.18379948
-0.035557497 0.16180816 0.0035018371 -0.15277803 -0.11200504 0.0760366 -0.08837867 0.04903271
0.20106827 0.069432184 -0.019084835 0.051073253 -0.11704831 -0.1712777 -0.1532042 -0.17141768
0.041796234 0.039865866 -0.0867689 -0.19957697 0.110645205 -0.11554325 -0.034284387 -0.17110944
-0.115008034 0.08497731 -0.19008705 -0.116705924 0.15331894 -0.104525015 -0.08481351 -0.057267163
0.0871797 -0.13383566 0.020359144 0.083364256 -0.014723976 0.036972184 -0.15585156 0.09205014
0.076222174 -0.025579527 -0.16883105 0.08148596 0.1331883 -0.035711475 0.09628199 0.075292595
-0.0818041 -0.014360385 0.20335859 0.00082124944 -0.16245635 -0.014906579 0.10159017 -0.06657898

fc1_bn.weight f4 [64]
00000000: 0cc6 b63e 7240 873f da2c 5e3e ac3e dc3e
00000010: 04e5 f73e 10dd 9e3e 61a6 5d3f 5585 fa3e
00000020: 4d92 dc3e 9d66 663f eb79 b83e dde3 603f
00000030: 9a85 c13e 7c5f 983e 0812 bd3e 3a13 d93e
00000040: 37a5 fe3e c67c 853e 13a0 cb3e 9e78 e23e
00000050: e677 613f 5fab 0f3f 7f3c bd3e 3597 533f
00000060: d3e7 363f 8f0b 033f d0da 4e3f 8d94 183f
00000070: 4242 023f 24c2 0e3f 07b3 c73e 7823 753e
00000080: e37c 783f e7d9 c03e 623b 103f 7962 0d3f
00000090: 5dcb 0d3f 0331 fa3e eba4 453f 2aaa 0f3f
000000a0: ecec 283f 7c1c a63e d642 c53e eec5 39be
000000b0: 9fbf 943e a30e d43e f81c 113f 788a be3e
000000c0: c85d fb3e 8a80 b83e 1f8e 3a3f d410 8b3e
000000d0: 6d8b 183f f1de c53e 562e 3b3f cec7 353f
000000e0: e9e8 ff3e a0a7 de3e 2cf4 eb3e e1b2 233f
000000f0: cc41 943e 6b9c 993e f48c 423f b0a9 ce3e
0.35697973 1.0566542 0.21696797 0.43016565 0.48416913 0.31028032 0.86582 0.4892985
0.4308037 0.90000325 0.36030516 0.8784769 0.37797242 0.2976035 0.3692782 0.4239748
0.49735424 0.26071757 0.39770564 0.4423265 0.88073575 0.56120867 0.36960217 0.826526
0.71447486 0.5118951 0.8080263 0.5960167 0.5088235 0.55764985 0.39003775 0.23939312
0.9706556 0.37666246 0.5634061 0.5522838 0.5538843 0.48865518 0.7720477 0.56119025
0.65986514 0.32443607 0.38527554 -0.1814191 0.29052445 0.41417417 0.5668483 0.37215018
0.49094987 0.36035568 0.7287311 0.27161276 0.59587747 0.38646653 0.7311758 0.71008
0.49982384 0.43487263 0.46084726 0.6394482 0.2895645 0.3000215 0.7599633 0.40363836

fc1_bn.bias f4 [64]
00000000: d488 93be 124f edbe f0b6 013e f332 b3bd
00000010: 12db 16bf a190 2dbd c83d 963b 1662 08bf
00000020: 0c5b cbbe eab0 723e 73df 613a 6497 33bf
00000030: 1094 e3be ea35 d4bd 2c28 a3be 4169 95bd
00000040: 05a7 d5be 9481 40bd 819c 94be 7e40 f4be
00000050: 7d9e 0abf c357 b0be 586f 0bbf 78d6 d0be
00000060: b493 04bf 4ffc 613e c4ff 1fbf 5602 1bbf
00000070: 877e eebe 21d4 0fbf 0505 2dbd 85bb cfbd
00000080: 7c42 76bf d92b ccbe f86b 36bf 04cb 4cbf
00000090: fa1f bfbe efbc ddbe 2ff5 25bf 229d 0bbf
000000a0: 43cf d4be b393 65be 8df2 cebe 0d64 b4be
000000b0: e33d 63be 31a3 acbe 1d89 30bf ebc1 92be
000000c0: a274 02bf a9b6 d6be 9a21 81be c2bb ac3d
000000d0: 5314 0cbf 79b4 a7be 5f8a 46bd c934 1abf
000000e0: f994 ecbe 158d e9bc 28e6 21bf 0007 91bd
000000f0: 9dfb c9bd 4caf 69bd f07b 4cbf bc00 8fbe
-0.2881533 -0.46349388 0.12667441 -0.08749952 -0.58928025 -0.042374257 0.0045850016 -0.5327467
-0.397179 0.237003 0.00086163654 -0.7015288 -0.444489 -0.10361846 -0.31866586 -0.07295466
-0.41728988 -0.046998575 -0.29025653 -0.47705454 -0.54148084 -0.34441957 -0.5446677 -0.40788627
-0.5178788 0.22068904 -0.6249964 -0.6055044 -0.46580908 -0.5618306 -0.042241115 -0.101431884
-0.961952 -0.39877203 -0.712585 -0.7999728 -0.37329084 -0.43308207 -0.64827245 -0.5453664
-0.41564378 -0.22419624 -0.40419427 -0.35232583 -0.22191577 -0.33718255 -0.6895922 -0.28663573
-0.5095922 -0.41936234 -0.25220948 0.084342495 -0.5471851 -0.32754877 -0.048471805 -0.60236794
-0.46207407 -0.028509656 -0.63241816 -0.07081413 -0.098624445 -0.05705194 -0.79876614 -0.27930248

fc1_bn.running_mean f4 [64]
00000000: 6a87 4240 dd37 6e40 f48f af41 5d1f 1c41
00000010: b8fe f0c0 038e 3fc1 ff4e 143d 4698 55c1
00000020: db63 eebf 8246 2d41 1e83 9c3e 8e3c 5b3d
00000030: 1449 11c0 f640 bb40 2ccd 8241 a7fd 673f
00000040: aca1 0b41 740f 2641 278b b740 70a8 a5c1
00000050: 0bfc 3dc1 7334 7a41 4af6 65c1 7578 9740
00000060: dbab 10c1 ca59 0040 51e7 efc0 7e2f 7b41
00000070: 97e0 e6bf 3a5d 2041 bcb8 4641 5784 fa40
00000080: ea6f 8740 155e ee40 5e9b 68c1 085e 0ac1
00000090: 9aae 3740 2185 97c0 0126 1dc1 d6cc aec1
000000a0: c6e2 f140 9213 7941 89ed 9d40 17a3 8441
000000b0: e190 58c1 8d3d a1c1 02df 1c41 025a 9941
000000c0: 0d5f 83c0 0848 c1c0 5460 33c1 9a07 1941
000000d0: 2280 6540 a817 c7c0 d747 8740 82ce 55bf
000000e0: 2b99 1cc0 520f af40 182c 0a40 ee3c ed40
000000f0: 8567 62c1 17fc 2241 10ea c4c0 f840 97c0
3.039515 3.7221596 21.94529 9.757657 -7.5310936 -11.972171 0.03620815 -13.349676
-1.8624223 10.829714 0.30568784 0.053524546 -2.2700853 5.85168 16.350182 0.9062142
8.726971 10.378773 5.7357364 -20.707245 -11.874034 15.637805 -14.372629 4.733454
-9.041957 2.0054803 -7.496987 15.699095 -1.8037289 10.02276 12.420101 7.828655
4.2324114 7.4489846 -14.537931 -8.647957 2.8700318 -4.735001 -9.821778 -21.850018
7.5589323 15.567278 4.935246 16.579634 -13.535371 -20.155054 9.804445 19.16895
-4.105353 -6.040043 -11.211018 9.564356 3.5859456 -6.2216377 4.2275195 -0.8351823
-2.4468486 5.47062 2.1589413 7.4136877 -14.150273 10.186545 -6.153572 -4.7266808

fc1_bn.running_var f4 [64]
00000000: 0ada b142 fca1 1c43 7408 c042 4ca1 8843
00000010: c34a 5b43 5155 b243 468e 3d42 56bd be42
00000020: 44a6 7b42 4b8f 9142 4af8 2441 5e66 6142
00000030: 9720 6e42 e075 7a42 142b 0043 68a3 9842
00000040: f0f6 8143 e3be 7243 4d4d 8d43 8eea 3a43
00000050: 6459 9543 6c90 a542 2f20 b442 5da0 3343
00000060: 90f2 f141 165f 0941 84b3 9343 494e 9842
00000070: efee 2143 fdb7 8a43 268f cb41 f809 9543
00000080: 6672 1344 1ae1 9943 ccd8 5b42 881a 1444
00000090: 8d49 3f43 1398 4142 e1b4 9a42 43e6 1d43
000000a0: 9d1b 4c43 73ba d142 80ec f442 c4a5 f742
000000b0: 8bb8 4c43 fc9d 1a43 aca7 a342 f750 0b43
000000c0: 57ad 9943 9c8a 9243 8210 c943 4397 3b43
000000d0: 6468 0843 0847 8443 6805 b242 3670 f442
000000e0: efcb 6843 be6c 4342 8214 2e43 26ea 1a43
000000f0: 8801 9c43 a602 8f42 175b 4242 880e 8a43
88.92586 156.63275 96.01651 273.26013 219.29204 356.66653 47.38894 95.3698
62.91237 72.77987 10.310617 56.349968 59.531826 62.615112 128.16827 76.31915
259.9292 242.74565 282.6039 186.91623 298.69836 82.782074 90.06286 179.62642
30.243439 8.585714 295.40247 76.1529 161.93333 277.4374 25.444897 298.07788
589.7875 307.7586 54.961716 592.41455 191.28731 48.39851 77.35328 157.89946
204.10786 104.86416 122.461914 123.82376 204.72087 154.61713 81.827484 139.31627
307.35422 293.0829 402.12897 187.59087 136.40778 264.55493 89.01056 122.21916
232.79662 48.856194 174.08011 154.91464 312.01196 71.50517 48.588955 276.11353

fc2.weight f4 [64, 64]
00000000: 09cd ef3e 35cd dbbe 783b 18bd 4921 303f
00000010: 633a 24be c3fc 4d3e 6978 e83c c406 433d
00000020: d48e 6d3e 371d 253f b726 b1bd 5590 0bbf
00000030: dbda 4fbe c8fa 88be e65c af3e 56b8 a6be
00000040: b9c8 4b3c 0b01 b13e b0ec 773e 31d7 b83e
00000050: 8f14 febe fad0 a3be 249a a63e bb92 ff3e
00000060: 3ee5 10bf 7c20 d3be 6fd9 7dbd cc8d f1bd
00000070: ea52 01bf 4d61 b63d 4483 23be 9efe acbe
00000080: 0df5 08bf c8f7 aa3e 13aa 943e e779 93be
00000090: 3945 93be 84f2 d23e ba1e c93e 8e05 df3e
000000a0: ff47 01be 8e66 663e 2ae7 2f3e fa4a 4b3e
000000b0: 8dce 8f3e 0af8 953d d5ae 0d3f e5c7 a53d
000000c0: 69bf 9ebe 04f3 583e 529d 093d 064f 90be
000000d0: 6f40 373e 1f0f 873e 7c2b 21bf 7f53 a6be
000000e0: 6105 e23d 2b9a 95be 8bd2 883b e090 30bf
000000f0: a54f 3cbe 9065 c0be 462c a8be d1ee 403e
00000100: 0e19 11bf 8a31 ec3e d74c 81be 31c3 8b3e
00000110: 026d a5be 92c7 fc3d 06f9 f4be a7bd 853e
00000120: 1f30 4cbc 45ff 8ebe caca 843d 0cd5 783d
00000130: a12b 06bd 08b1 10bf aa7b acbe ed86 68be
00000140: 2142 49bd 51e5 aabd 7931 09be a1a6 113e
00000150: a2e2 1c3e 5f24 1e3e 03e6 85bf 2215 27bd
00000160: 3c23 c43d 4475 7c3e 54c5 2c3d 4607 273f
00000170: 7e29 723e ba99 f3be 6bad 73be 56fe 16bd
00000180: 5556 8c3e 246b bc3e 969e 9abe 52e7 07bf
00000190: 6e5f 233e d939 cebd 2986 1d3f fa14 56bf
000001a0: 48a4 0f3e b082 b6bd d8f8 113f f679 0d3f
000001b0: 1804 5bbe 52ec f6be 5ce1 5e3e 41d8 80bf
000001c0: 59da aebe dae0 a73c 4dc7 99bd 73a3 963c
000001d0: 88ca 4a3d 5242 833e 4f7a 27bf d490 12bf
000001e0: e443 4ebe 5548 a3be 1943 df3e d1a6 dbbe
000001f0: e27c 1c3e f009 fabd 9081 02be 79aa d1bd
00000200: 7140 ad3e 7c6a 043f 620f 06be d649 3a3e
00000210: 6fc7 28bc dc5d a93d 99af b3bd 501e d03e
00000220: af34 573e b77a 7fbf ae27 023f b4a8 85be
00000230: be78 c83a b76e febd 2226 813d 2888 51be
00000240: f316 36be 831c d0be e832 8d3d 5162 043e
00000250: d0a9 03bf 55e7 82be 4af2 73be e879 213e
00000260: 2c1d ed3d 6fa2 9c3e 858d 583e 9199 2ebb
00000270: da4b a23e 5ba6 bc3d 0032 f53d e450 353e
00000280: 1fe4 58be b612 f33d c3d3 4d3e 9939 c7be
00000290: 04b7 b4bc 5367 8f3d c23a bebe 351d 953d
000002a0: 8b2d db3b b299 20be 5508 ce3e f1ac 823e
000002b0: cc6e 923e 46de 313e 492c 983b a925 7abe
000002c0: 23fa 333e 44ca 4f3e a94b 4abf db02 1f3d
000002d0: 0634 0b3f 641f 323e f33d 93be 33bc 25bf
000002e0: 748c 5d3f be0d 1abd af2c 37be d984 9d3c
000002f0: 7bbe bbbe 1ae5 5b3d bc60 453e 7d20 34bd
00000300: fe01 49ba db51 903e 52f7 063e ab2f 283f
00000310: 9e36 053e 6997 b93e 8580 903e 884d fcbd
00000320: 2663 263e 672d 76bd 9b34 b5be 0623 01bf
00000330: 6ad5 b4bd 3ee0 0b3e 7a62 8e3e 3606 093e
00000340: dae5 083e 890e c0bb 7b45 4ebf d1d6 f5be
00000350: 3494 823d 75c5 ef3d 7160 a2be 9162 653e
00000360: 16e5 ba3c cdc0 abbe c805 fd3e c4ff bebf
00000370: 7428 bfbc 7f1a 543e 921b 873e d517 c8be
00000380: 5462 593f ea88 15be 1bbe 3cbf 88d8 653f
00000390: a48d 0a3f 53ae 0fbf 499b 0a3e a71c cebe
000003a0: a0e1 b83e 4f1e 34bf a86d c03e ed56 47be
000003b0: 84fc 5a3e a239 3abf 5d55 d4be a066 01be
000003c0: ad74 18bf 3920 ef3c 3183 003f ebbd e5bd
000003d0: e0eb 343e c253 4c3e 3547 ce3d c36c d33d
000003e0: ca6b a5bc f3c0 4c3f 459f 84bf c61c 6d3d
000003f0: 7fa7 923e d04c 363e e86a 69be 82b9 98be
0.46836117 -0.42929998 -0.03716609 0.6880079 -0.16037898 0.20115952 0.028377729 0.047613874
0.23199016 0.64497703 -0.086499624 -0.5451711 -0.2029833 -0.2675383 0.34250563 -0.32562512
0.012437993 0.34571108 0.24211383 0.36101678 -0.4962506 -0.31995374 0.32539475 0.49916634
-0.56599796 -0.4123572 -0.06197494 -0.11794624 -0.5051714 0.089052774 -0.15968043 -0.33788007
-0.5349892 0.33392167 0.29036006 -0.28803942 -0.2876375 0.4120065 0.39281255 0.43558925
-0.1262512 0.22500059 0.17178026 0.1985282 0.28087273 0.073227 0.553449 0.080947675
-0.3100541 0.21186453 0.033597298 -0.2818529 0.17895673 0.26378724 -0.62956977 -0.32485577
0.11036182 -0.29219183 0.0041754893 -0.6897106 -0.18389757 -0.37577486 -0.32846278 0.18841101
-0.56678855 0.46131545 -0.25253937 0.27297357 -0.3230973 0.123427525 -0.4784624 0.26121256
-0.012462645 -0.2792913 0.064839914 0.060750052 -0.03275645 -0.5652013 -0.33688098 -0.2270772
-0.04913533 -0.0834452 -0.13397779 0.1422372 0.15320829 0.15443562 -1.0460819 -0.04079164
0.09577033 0.24654108 0.042180374 0.65245473 0.2364864 -0.47578222 -0.23796622 -0.036863647
0.27409616 0.36800492 -0.30199116 -0.5308734 0.15954372 -0.10069627 0.6153284 -0.8362576
0.14027512 -0.089116454 0.5702033 0.5526422 -0.2138828 -0.48227173 0.21765655 -1.0065995
-0.3415096 0.02049296 -0.07508717 0.018388486 0.049509555 0.25636536 -0.65421003 -0.5725224
-0.20143086 -0.31891122 0.4360588 -0.42900708 0.15282014 -0.12208927 -0.12744737 -0.10237593
0.33838227 0.5172498 -0.13091806 0.18192229 -0.010301455 0.082698554 -0.08773727 0.40648127
0.21016191 -0.99796623 0.50841796 -0.26105273 0.0015294773 -0.12423461 0.063061014 -0.20462096
-0.17782192 -0.40646753 0.06894475 0.1292813 -0.5143099 -0.25567117 -0.23822895 0.1576916
0.1157783 0.30592677 0.21147735 -0.0026641826 0.31698495 0.09211417 0.11972427 0.17706639
-0.21180771 0.11868803 0.20100312 -0.3891113 -0.022059925 0.070021294 -0.37154204 0.072809614
0.0066887788 -0.1568363 0.40240732 0.2552257 0.28600156 0.17369947 0.004643951 -0.24428429
0.17575888 0.20292002 -0.790217 0.038821083 0.54376256 0.17394787 -0.287582 -0.64740294
0.8654244 -0.03761076 -0.17888139 0.019228386 -0.36668763 0.053685285 0.19275182 -0.043976296
-0.00076678384 0.2818745 0.13180283 0.65697736 0.13009116 0.3624833 0.28223053 -0.123194754
0.1624876 -0.060101893 -0.35391697 -0.50444067 -0.08829768 0.1365976 0.27809507 0.13381276
0.13368931 -0.0058611077 -0.8057477 -0.48015454 0.06375924 0.11707584 -0.31714204 0.22400881
0.022814315 -0.33545533 0.49418473 -1.4921803 -0.02333472 0.20713232 0.26388222 -0.39080682
0.8491566 -0.1460301 -0.7372758 0.89783525 0.54122376 -0.5612537 0.13535799 -0.40256235
0.36109638 -0.7035875 0.3758366 -0.19466753 0.2138539 -0.7274419 -0.41471377 -0.12636805
-0.59553033 0.02919017 0.5020018 -0.112178646 0.17668104 0.19953826 0.100721754 0.10323479
-0.020193 0.7998192 -1.0361105 0.05788877 0.28643414 0.17802739 -0.22794688 -0.2982903

fc2.bias f4 [64]
00000000: bf65 f6bd 2e63 8c3d f0bc 9dbd b187 6a3d
00000010: cea6 ae3d 8902 2abd 75bf 973d 57fa 683c
00000020: 1569 1abd c9bf db3b 2f6e 3f3d da0a 843d
00000030: 072e 95bd 84e4 c03d 522e 6cbd afd3 dbbd
00000040: cff8 62bd 573c dcbd 536c 093d 9f42 0d3c
00000050: e681 adbb a1b8 adbd 7c67 893d c072 863c
00000060: 82a4 06bd ca58 ae3c 2fe0 303d 6b5f 97bd
00000070: 5933 0abd 2820 67bd 77e6 e53d aa3d ed3c
00000080: d3fe c5bd 3cb0 bb3d 5aae 95bc a887 e23b
00000090: d4a8 8b3c 95fe 6dbc 3e1b eb3d 83d2 573d
000000a0: 2208 f53c 0b2a 41bd 2da6 f83c fe5d babd
000000b0: bc3a 31bd bd76 843d 0c1b ffbd b777 3fbb
000000c0: 76e6 34bd a3ab 773d 3e67 a1bd e7e5 ae3c
000000d0: 3486 0cbd f826 d23d dc8b a4bc 2623 b7bd
000000e0: 8578 1bbd 8d5b b53d 5cc0 423d 0941 e23c
000000f0: 7d86 9e3d fbb7 4b3d f7b1 74bc 4dd7 7bbd
-0.12031125 0.068548545 -0.077020526 0.05725831 0.08527909 -0.041506324 0.074095644 0.014219842
-0.03769787 0.006706212 0.04673594 0.06447382 -0.0728417 0.09418586 -0.057661362 -0.10733735
-0.055413064 -0.107536964 0.03355057 0.008621841 -0.005295026 -0.08482481 0.06709191 0.016412139
-0.03287173 0.021282572 0.043182548 -0.073912464 -0.033740375 -0.05642715 0.11225598 0.028960068
-0.096677445 0.091644734 -0.018271614 0.006913144 0.017048277 -0.014526029 0.114798054 0.052690994
0.029911105 -0.047159236 0.030352676 -0.09099959 -0.043268904 0.0646796 -0.12456331 -0.0029215643
-0.044165097 0.06046642 -0.0788102 0.02134986 -0.034307674 0.10261339 -0.020086221 -0.08942251
-0.037956733 0.088553526 0.04754673 0.027618902 0.07740495 0.049736004 -0.014935008 -0.061484624

fc2_bn.weight f4 [64]
00000000: 4e65 853f 72dd 0140 0431 0c40 d205 ee3f
00000010: 2645 993f 838e 1c40 8985 bb3f 846f ca3f
00000020: b3b5 ff3f 73f2 0140 2cde c23f ef09 ba3f
00000030: 2c4d fc3f 6e79 c63f b1a1 2940 aed7 e73f
00000040: 33c8 0740 435f bb3f aa58 aa3f 4e99 0640
00000050: f23d 0140 d5b8 fa3f 2783 0340 b7fa 2b40
00000060: 7c38 1d40 f675 d63f 92b5 f93f 718a ce3f
00000070: 0e2f d23f 2f14 0140 5aa4 b13f 81cf eb3f
00000080: c20e e33f 0055 d23f 1538 1040 48e5 2b40
00000090: e7af ac3f c4df b93f f869 bb3f 68f1 0f40
000000a0: b01d 1940 b4b5 4040 aa52 be3f a443 1a40
000000b0: e7f2 b73f 4803 d33f a53f ea3f cd56 d93f
000000c0: a556 1a40 4bbf d23f 00eb f23f a7c4 e33f
000000d0: e2aa ab3f e2ff fa3f fb39 df3f 43db ea3f
000000e0: 0a65 d33f cfa8 c23f 3ae4 0f40 7e94 0040
000000f0: 4d7c 0740 f503 ac3f fdb4 ed3f a7b5 dd3f
1.0421541 2.029141 2.1904917 1.8595526 1.1974227 2.4461982 1.4650127 1.5815282
1.9977325 2.030423 1.5224051 1.4534281 1.9711051 1.5505807 2.6504939 1.8112695
2.1215942 1.4638447 1.3308308 2.103107 2.0194058 1.9587656 2.05488 2.6871774
2.4565725 1.6754749 1.9508536 1.6135999 1.642061 2.016857 1.3878281 1.84227
1.7738879 1.643219 2.253423 2.6858692 1.3491181 1.4521413 1.4641714 2.2491093
2.392437 3.0110903 1.4868977 2.4103785 1.4371003 1.6485376 1.8300673 1.6979614
2.4115384 1.6464628 1.8977966 1.7794389 1.3411524 1.9609339 1.7439569 1.8348163
1.651521 1.5207766 2.2483048 2.0090632 2.1169617 1.3438708 1.8570858 1.7321061

fc2_bn.bias f4 [64]
00000000: 9632 59be 93c0 b5be a919 3bbf 44b3 84be
00000010: 3107 25bf 5b82 a3be 2e6e 98bf b146 d5bc
00000020: 79f3 0dbe 8ebc b83e 6edf 14be d198 0fbf
00000030: bb07 e0be 5422 a7bd 8681 aebe 2157 12bf
00000040: 2b6b 40bf 679c 11bf 3418 09bf 3bde 30bf
00000050: 3f51 a33e f0bb dbbf c9fd 16be 7f9a 82bf
00000060: b5cd efbd 63b1 3cbf b1ec 0fbf 09f3 2fbf
00000070: 8026 2bbf 4b16 b2be 5893 03bf 896c 2dbf
00000080: 1344 6abe 257a b3bf 5d38 3ebf be3a cdbe
00000090: 9379 e93d 7390 20bf a710 94be f9a4 acbd
000000a0: 47ec bfbf 9c44 bd3d 4927 cdbe 4215 10bf
000000b0: e970 5fbf 6ae5 12bf 6b48 babf d0eb 11be
000000c0: 0307 24be e694 b7be cd46 95be 3205 eebe
000000d0: a2d7 80bf 4988 30be 81db aabe cca8 7ebe
000000e0: cab3 45bf d738 a2bd 5f78 76be 9922 65be
000000f0: 5d56 2bbf a3a6 3dbf 83d4 fabe 8e82 60bd
-0.21210703 -0.35498485 -0.7308603 -0.2591802 -0.644641 -0.3193539 -1.1908624 -0.026034685
-0.13862409 0.36081356 -0.14538357 -0.56092554 -0.43755898 -0.081608444 -0.34083194 -0.571642
-0.75163525 -0.56879276 -0.53552556 -0.69089097 0.31897923 -1.7166729 -0.14745249 -1.0203398
-0.117091574 -0.7370817 -0.5622054 -0.6873022 -0.6685562 -0.34782633 -0.51396704 -0.67743737
-0.22877531 -1.402165 -0.74304754 -0.4008388 0.114001416 -0.6272041 -0.28918955 -0.084299035
-1.4993981 0.09241602 -0.40069035 -0.56282437 -0.8728166 -0.5738131 -1.455335 -0.14250112
-0.160183 -0.35855788 -0.2915558 -0.4648834 -1.0065806 -0.17239489 -0.33370593 -0.24869078
-0.7722746 -0.079209976 -0.24069355 -0.22376479 -0.66928655 -0.7408239 -0.4899026 -0.054812007

fc2_bn.running_mean f4 [64]
00000000: b31a f5be 15dd 0ebf 9b9d 11bf 13a0 da3e
00000010: 69f1 073f ff99 aebe 82c1 5c3c abc4 3d3f
00000020: 9bf3 cdbe 5284 153e 5ae4 d63e a7dc ddbd
00000030: e22b 9f3e 9ef7 4a3e 19cf dc3d 491d 23bf
00000040: 8f60 cc3e c864 fcbe 6db2 1abe 2dca f3be
00000050: 7b3d 713e 0dbe 033f 482a 0dbf fc66 463d
00000060: a5ee 0dbf adc9 373f fc31 1dbe 1bc9 4ebe
00000070: 3edf f43e 5101 31bf 28f2 543f f391 a8be
00000080: 9d57 5cbe ca90 a43e a0a3 3c3f c505 9cbe
00000090: 49c3 47be 3886 5dbd 9818 183e 65f9 e23e
000000a0: d020 cf3e 7e15 3d3d b98c 053e 1c1a 1dbf
000000b0: 713f 7b3e 26d9 0b3e f488 8c3c f235 283f
000000c0: 0009 b8be 18a5 103d 7a8e 9cbe ac0b 2a3f
000000d0: 69b2 2e3f ad5b 533e e259 513f 1f1c 2c3e
000000e0: 9a68 3ebd 2d4f d63c a022 c3be cc49 d6be
000000f0: 82de 103f 21a2 be3e 8849 aebc 9751 babe
-0.47871932 -0.55806094 -0.5688111 0.42700252 0.5310274 -0.34101865 0.01347387 0.74128217
-0.4022492 0.14601257 0.41971093 -0.10833102 0.31088167 0.19821021 0.10781688 -0.6371656
0.39917418 -0.4929564 -0.15107127 -0.47615185 0.23558609 0.5146187 -0.5514264 0.048438057
-0.5544227 0.7179211 -0.15351099 -0.20193903 0.4782657 -0.69142634 0.83182 -0.3292385
-0.21517797 0.32141715 0.7368717 -0.30473152 -0.19508089 -0.05408308 0.14853132 0.44330898
0.4045472 0.046163075 0.13041963 -0.61367965 0.2453592 0.13657054 0.017155148 0.65707314
-0.35944366 0.035313696 -0.3057745 0.6642406 0.6824098 0.2064044 0.81777775 0.16807602
-0.046486475 0.0261608 -0.38112354 -0.41853178 0.5658952 0.3723307 -0.021275297 -0.36390373

fc2_bn.running_var f4 [64]
00000000: 3e23 3d3f eaa7 8d3e 753d 483f fa4b c63e
00000010: d95c ca3e d569 553e 858d b03e 8ab9 c93e
00000020: f437 aa3e df73 4a3f 700d 9d3e e614 603e
00000030: 83e9 0b3f 377d 913e 4dbb dd3e eb9a a13e
00000040: 7097 7a3e 7455 983e 9a09 ad3e 1893 a83e
00000050: de64 433f 8082 503e 5de4 f93e 2a2f 1c3e
00000060: 1781 8c3f 3665 883e 9196 333f 3cfe f43e
00000070: 93ea 823f a025 c23e d321 833e 0866 6d3e
00000080: 1030 363f 4fc7 093f d9e5 9b3e d3d3 bb3e
00000090: 8276 9c3e 5857 8b3e e6e2 dc3e 39a7 8e3e
000000a0: 5fc6 ee3e 2cd7 543f a261 263e 56ac 453f
000000b0: d0e4 ca3e 2fed f13e 3cb4 ad3e 08ad a93e
000000c0: 8781 d23e ffd7 3b3f 7463 ad3e 5621 da3e
000000d0: da33 ca3e 7b3f 653e 5667 a73e 52e2 183f
000000e0: 5ba0 bb3e fad5 d63e 24d1 af3e 872d e13e
000000f0: 9348 ac3e dfa5 883e 09b6 9c3e e1d9 ba3e
0.738819 0.2766717 0.78218776 0.3872984 0.39523962 0.20841153 0.3448297 0.39399368
0.33245814 0.79083055 0.30674314 0.21882972 0.54653186 0.28415844 0.43306962 0.31563506
0.24471831 0.29752696 0.33796388 0.32924724 0.76325786 0.20362282 0.4880704 0.15252367
1.0976895 0.26639718 0.7015162 0.47850215 1.0227836 0.3791933 0.25611743 0.23183453
0.7116709 0.53819746 0.30448797 0.36685047 0.30559164 0.27215075 0.4314186 0.27861956
0.4663572 0.83140826 0.16248181 0.7721609 0.39627695 0.4725127 0.3392657 0.33139825
0.41114447 0.7337646 0.3386494 0.42603558 0.39492685 0.22387497 0.32696027 0.5972034
0.3664578 0.41960126 0.3433925 0.43980047 0.3364912 0.2668905 0.30607632 0.36494353

fc_out.weight f4 [2, 64]
00000000: bc21 3c3f 7574 f73d 30a3 8f3f 90fb 043e
00000010: e0b2 4fbf af04 bdbd 6e6c 573f 423e a43e
00000020: 13c8 1dbd b0eb 303f 932c dcbd c79d 4fbf
00000030: 5ea8 b5bf 5fe0 da3e a7c7 9c3d 9cfa 82bf
00000040: b8a4 f3bf 9afe 833f ed75 4c3f 556f 19bf
00000050: 6a71 c23e ba8a 1ec0 1974 11bf 061b b4bf
00000060: f95e a33f cc4c 68bf b3dd 863f d704 0d3f
00000070: aba9 6cbf 5ce9 963e 8d6a 97be eaae a6bf
00000080: df8f 69bf e132 e03f a70c a03e 677d 69bf
00000090: d307 09bf 243c 503f ab28 7d3f 173f 0c3e
000000a0: 18c4 0540 dc24 943f dedc 1bbe f5b1 b9bf
000000b0: bf2c 0040 7efe 6bbf 186e ad3f 1ae9 09be
000000c0: 7776 743e b5b6 90bf a85d 8ebf 9758 a5bf
000000d0: b56b 91bf cb36 363f 6c1a af3f d9c7 803f
000000e0: 6d15 33be 885e 1ebf 21a7 e0bd 1c90 bb3f
000000f0: 370b b0bd 358f 89bf bb50 82bf 4169 07bf
00000100: f33b 70bf 905d 80bf 6eeb 88be 0aa6 0140
00000110: fcba 17bf d514 d1bf 536f 833f c71f 813f
00000120: eb2b d83f bb8f 65bf 92fe d3bf b3dd f0be
00000130: 2897 643c 5d3b 983f 6fa3 00c0 2ca5 523e
00000140: e69d 0fbf ecd4 7fbe f107 8b3e 0fef 6c3f
00000150: 5e19 783f 69d3 b63f 8de2 ebbe 3b64 be3f
00000160: 66a2 853f 4582 553f 9afa 3a3f 40c2 b73f
00000170: 6db5 b4be 950d 7abf db58 2dbf 5619 29bf
00000180: f2d1 c1bf 31b5 f43c a414 bebf c97a da3f
00000190: 6eac 05bf be84 8d3e 7948 293e ffc2 adbf
000001a0: bdff 133f 73d0 91bf f565 0640 e95f c23f
000001b0: 549f e2be f137 e53d b428 bfbe 5106 c03f
000001c0: 7b81 d03f 8b89 b43e 27e0 09c0 14b0 2dbf
000001d0: 0d8f 663c f2e2 84bf 2c7b 803f 9db8 f7bb
000001e0: 9d17 dabf 771e 393f 827b ebbf 42ad 3a3f
000001f0: 2930 edbf 3694 b8bd 1446 73bf 729f 983f
0.73488975 0.12082759 1.1221676 0.12986588 -0.81132317 -0.09229409 0.84149826 0.3207875
-0.038520884 0.6910963 -0.10750689 -0.81100124 -1.4192007 0.42749307 0.07655268 -1.023273
-1.9034643 1.0312073 0.7986744 -0.59935504 0.37977153 -2.4772172 -0.56817776 -1.4070747
1.2763358 -0.9074218 1.0536407 0.5508551 -0.9244639 0.29474914 -0.2957348 -1.302213
-0.91235155 1.7515527 0.31259653 -0.91206974 -0.53527564 0.8134177 0.9889018 0.13695942
2.0900936 1.1573749 -0.15220973 -1.4507433 2.002731 -0.921852 1.3549223 -0.13467827
0.23873316 -1.1305758 -1.1122332 -1.291766 -1.1360995 0.7117736 1.3679938 1.0060989
-0.17488642 -0.61862993 -0.10969377 1.4653354 -0.08595889 -1.0746828 -1.0180887 -0.5289498
-0.93841475 -1.0028553 -0.2674212 2.0257592 -0.5926969 -1.6334482 1.0268348 1.0087823
1.6888403 -0.8967244 -1.6562064 -0.47044143 0.013952054 1.1893116 -2.0099752 0.2057082
-0.5610031 -0.24983567 0.27154496 0.92552274 0.9691371 1.4283267 -0.46071282 1.4874338
1.0440185 0.834019 0.7303864 1.4356155 -0.35294667 -0.97676975 -0.6771371 -0.66054285
-1.5142195 0.029871555 -1.4850049 1.7068721 -0.5221623 0.27640337 0.16531552 -1.3575133
0.578121 -1.1391739 2.099973 1.518552 -0.44262183 0.111923106 -0.37335742 1.5001928
1.6289514 0.35261187 -2.1543062 -0.678468 0.014072192 -1.0381758 1.0037589 -0.0075598494
-1.7038456 0.7231211 -1.8397067 0.7292062 -1.8530322 -0.09012644 -0.95028806 1.1923659

fc_out.bias f4 [2]
00000000: be11 b23d ab86 5c3d
0.0869479 0.053839367
