checkpoint_actor_0.pth (torch_old, 27361 bytes, 14 tensors)

fc1.weight f4 [64, 24]
00000000: 09bf f5be f1e0 07bf 746c 543c a93b e3bd
00000010: 2f77 b23f 6238 8ebf 95a0 073e 85e1 fa3a
00000020: 73d5 69be 7005 18bf ee7e d33d 3ed1 edbd
00000030: 7e8b 9f3f f6d6 12bf b55b 92bc d565 7ebd
00000040: 9f95 cebe 5bca 76be 76f3 3fbd 6080 4fbe
00000050: 16ca ec3e 3554 703f a2b7 f2bb 5c1c b1be
00000060: 9986 93bd bb61 e03e 7247 953c ce08 8bbf
00000070: 1115 4ebf 960f 763f db34 e83d da2f 8fbf
00000080: 7ec9 66be 939d d8bd f26e b93d 6e0d a2be
00000090: 5ab0 58be 859c 6f3f 0451 84bd 73c8 83be
000000a0: 18f7 f1be 82b0 e5be a29e bebd 89a2 43be
000000b0: b9f8 4b3e 211d 753f f2a2 953d c74c 4dbe
000000c0: 5bb2 863f df68 623f 8622 5fbd 4baa 183f
000000d0: 2ab2 623d 24e5 f63d 8f62 e53c 673c cf3e
000000e0: 8244 c53d cb9f d03e c63f 9abd 7613 df3d
000000f0: 51cf 1dbf 1b4e 0140 0d97 883d 1db3 373e
00000100: 220d 8b3e ae64 903e fa7a f8bc c8ce efbd
00000110: 12e6 e7be 3a13 dc3f 9645 553d c201 67bc
00000120: c303 6fbf 43b0 c3be 64a9 debc 1cb2 0a3e
00000130: 2f0a 86be e741 223f 02ca b23d 94c2 363e
00000140: 641a 6cbf c6e2 58be bbb9 f6bb 32ee 81be
00000150: 7c9f d8bd bf15 413f 4700 e93d 546c c0be
00000160: 8d80 82bf e4e5 9c3c d0cb a6bd 9bb0 3d3f
00000170: 8040 243e bfa1 873f 987a c33d 0be6 503f
00000180: ec88 323e 4291 fa3f 0787 e7bd 2d0d 7a3e
00000190: 1b34 5e3f a52a a8be 3f97 043d 29c1 6e3d
000001a0: 534e 733e 5724 ec3f 8789 57bd a111 a13d
000001b0: d35d 693f 4f92 c9be bbd5 94bd ec34 1e3e
000001c0: 9bd2 0a3f f97c 0340 1552 313d 7f10 323e
000001d0: 7f52 153f 5e66 bebe 9daf 30bd 37d5 183e
000001e0: d632 05be 177f 4a3e 822c 683d 5871 afbd
000001f0: 1886 a53e 2165 fcbf 98a6 3fbd 629a b53d
00000200: 29d2 063a 7468 cc3e 73c1 173d 0d0d 12bd
00000210: 1e06 d2bd 0273 c6bd 31ba 5dbd 88b5 0cbc
00000220: 7ce8 683e 8d45 8e3e 41d7 23b9 4553 aebd
00000230: 039c b4be 7905 2740 3c83 acbc 3276 103d
00000240: de8d 06bf 6a56 e03f d914 ba3d ed70 123e
00000250: 5b01 5e3d 5679 8f3d b955 db3c 619c 073e
00000260: 93e7 7dbf 370a f33f 4908 64ba 6d37 863e
00000270: 5a09 63bd 0eb4 25be 686f 4d3d 70d6 a93e
00000280: 657d bebf e219 f43f 4371 15bd 774c 31be
00000290: 62b7 3abc 6744 a2be dc04 9cbc 2a9b c0be
000002a0: c473 4fbd a3c4 4cba 8445 9abd 52c6 303d
000002b0: 7748 15bf 7596 983f 2807 a73d 8f10 2c3e
000002c0: dbf0 20be 02db d8bd c363 a9bd e3cd 68bd
000002d0: 8b60 8c3b 0f5a 063f 2f33 893d 99b3 3e3c
000002e0: b60f 0fbe 6a64 abbe 432e 52bb 71c9 3bbd
000002f0: 32c9 513f 31d4 3bc0 3b0f 133c 46e5 aabd
00000300: 0d2f 083d a22a 15bf 9bc2 debc 40d3 6dbe
00000310: 23e7 703f 5395 afbf 3bbc b9bc d4d6 44be
00000320: 0a0d 983d a384 49bf 0285 733d d090 003e
00000330: bba7 743f f7d3 abbf ff29 bcbc 82c1 31bd
00000340: 8e8b 743e 5c6a 6ebf 2e8b 053e 24ce 46be
00000350: 1d36 d93e 7970 42bf 38a0 3bb8 57eb 8cbd
00000360: 25c3 53be d59a aabe fcff 003d 692f 533f
00000370: e64d 1e3e 1446 8b3f 7c6c 3e3e db3b 263f
00000380: ec93 c03d 4585 89be 61f4 a53d 76fa bebd
00000390: 0d69 a43d 0f08 d7be 04e9 d4bc 3743 693c
000003a0: 24bd 42bd 51fc 79be 7245 d9bd 7918 3e3e
000003b0: d609 8b3c 1ca8 0bc0 9882 42be 511b a63d
000003c0: 2519 68bf 01f8 d03d db35 9c3d ee88 b23d
000003d0: f769 fb3e 779f 43be 3389 b6bd 0c91 4e3e
000003e0: b471 4bbf df0f 053f 5a63 2dbd 03bf 803e
000003f0: 03f3 803e 134c 50bf ffb1 20bd 75c4 d23d
-0.4799731 -0.5307761 0.01296531 -0.11095364 1.3942622 -1.1110957 0.13244851 0.0019140696
-0.2283533 -0.59383297 0.10326944 -0.116121754 1.2464445 -0.57359254 -0.017865995 -0.062108833
-0.40348527 -0.2410063 -0.04686304 -0.20263815 0.4624793 0.9387849 -0.0074071446 -0.3459195
-0.07203407 0.43824562 0.018222544 -1.0862062 -0.80500895 0.9611753 0.113382064 -1.1186478
-0.225378 -0.1057693 0.09054364 -0.3165087 -0.21161023 0.93598205 -0.06460765 -0.25738868
-0.4725883 -0.44861227 -0.093076006 -0.19104971 0.19919099 0.9574757 0.0730647 -0.2004882
1.052318 0.8844127 -0.054476283 0.59634846 0.05534569 0.12055424 0.028001098 0.4047577
0.096322075 0.40746912 -0.07531695 0.10892384 -0.61644465 2.0203922 0.06669436 0.1793942
0.27158457 0.28201813 -0.030332077 -0.11709362 -0.45292717 1.7193367 0.052068315 -0.01409954
-0.93365115 -0.38220415 -0.027180381 0.13544506 -0.26179644 0.6338181 0.08729936 0.17847663
-0.9222777 -0.21180257 -0.007529465 -0.2537704 -0.10577294 0.75423807 0.11377006 -0.37582648
-1.019548 0.01915259 -0.08144343 0.74097604 0.1604023 1.0596236 0.09544867 0.8160102
0.17435044 1.9575579 -0.11305051 0.24419089 0.86798257 -0.32845035 0.032370802 0.05828968
0.23760347 1.844859 -0.05262139 0.078646906 0.9115879 -0.39369437 -0.07267328 0.15449876
0.5422761 2.0545027 0.04329117 0.17389105 0.58329004 -0.37187475 -0.043136228 0.14925085
-0.13007674 0.19775043 0.05668307 -0.085665405 0.32328868 -1.9718362 -0.046789736 0.08867337
0.00051430106 0.3992344 0.037049722 -0.035656977 -0.10255073 -0.09689905 -0.054132644 -0.008588202
0.22744936 0.27787438 -0.0001562508 -0.08511976 -0.35275277 2.609709 -0.021058671 0.03526897
-0.5256022 1.7526371 0.090860076 0.1430089 0.05420051 0.07005565 0.026774274 0.13243248
-0.9918148 1.8987492 -0.00086987444 0.26214162 -0.05542884 -0.16181967 0.050155073 0.33171415
-1.4882017 1.9070399 -0.036484968 -0.17314325 -0.011396261 -0.31692812 -0.019045286 -0.3761838
-0.050647512 -0.00078112836 -0.0753279 0.043157883 -0.583137 1.1920916 0.08155662 0.16803192
-0.15716879 -0.105886474 -0.08270981 -0.056836974 0.0042839698 0.5248117 0.066992156 0.011639499
-0.13970837 -0.33475047 -0.0032071031 -0.045846406 0.81947625 -2.9348261 0.008975799 -0.08344512
0.033247996 -0.5826818 -0.027192404 -0.23225117 0.94102687 -1.3717445 -0.022672763 -0.19222575
0.07424362 -0.7871801 0.059453018 0.12555242 0.95568436 -1.3424062 -0.022969244 -0.043397434
0.23881361 -0.9313104 0.13041374 -0.19414574 0.42424098 -0.7595287 -4.473349e-05 -0.06880825
-0.2067991 -0.33321252 0.031494126 0.8249422 0.15459403 1.0880761 0.18596071 0.6493508
0.09403214 -0.2685949 0.08103252 -0.093251154 0.08027849 -0.41998336 -0.025990017 0.014237217
-0.04754366 -0.24412657 -0.10608949 0.18564023 0.016972464 -2.1821356 -0.1899513 0.08110679
-0.9066337 0.10203553 0.076274596 0.087175235 0.49104282 -0.191038 -0.089128874 0.20172518
-0.7947037 0.5197734 -0.042331077 0.2514573 0.25185403 -0.8136608 -0.03923225 0.102913775

fc1.bias f4 [64]
00000000: 5fda 8abd d7a2 863d a8c9 b73d 0e42 ecbb
00000010: 1783 473e a6ed 10be 923b a03d a5df 3c3e
00000020: af97 11bd cc82 253e 687e 573b f861 1cbe
00000030: 4c41 e5bd 8989 9b3d caf8 b4bd 668f 493d
00000040: a379 4d3e 7c50 8d3d b6a6 9cbc 57d9 503d
00000050: 11cd f0bd 91a0 2fbe f31f 1dbe dd60 2fbe
00000060: 710f 2b3d 0084 263d 7b3f b1bd c253 4cbe
00000070: 67f7 e13d 764c edbd 42fa 0bbd 8e30 2fbe
00000080: aa12 ecbd c3c4 ae3d 3dc1 42be 7a54 eebd
00000090: 9c90 1c3e 6436 d6bd 2341 aebd 9d5e 6bbd
000000a0: c0f6 b23d 1252 09be ac4d a53c 82f5 aa3d
000000b0: 4f91 74bc c6b5 173d 9976 1fbe 293c bd3d
000000c0: 7fbd 9b3d bd4b d1bc 20aa 2cbe acdc a63d
000000d0: a29b 083e 2e95 12bd 5cc1 c43d 44d0 9a3d
000000e0: 8b52 a7bd a31c 66bc 7a4b 503e 1fce 483a
000000f0: a960 26be b988 75bc 3edd cf3d 8520 87bd
-0.06779932 0.06574028 0.0897401 -0.007210023 0.194836 -0.14153156 0.07823862 0.18444689
-0.035545047 0.16163176 0.003288174 -0.15271747 -0.11194095 0.07594592 -0.08836515 0.04920902
0.20065932 0.06900117 -0.019122463 0.05098852 -0.11757863 -0.17151095 -0.15344219 -0.17126794
0.041762773 0.04065323 -0.08654686 -0.19953826 0.110335164 -0.115868494 -0.03417421 -0.17108366
-0.115269974 0.08533623 -0.19019027 -0.116372064 0.15289539 -0.10459593 -0.085085176 -0.057463277
0.0873847 -0.13410214 0.020178638 0.08347608 -0.014927222 0.037038587 -0.15572585 0.0923999
0.07604503 -0.02554881 -0.16861773 0.081475586 0.13340619 -0.0357868 0.09607193 0.07559255
-0.08170041 -0.014044913 0.20341292 0.0007660109 -0.1624781 -0.0149862105 0.101496205 -0.065979995

fc1_bn.weight f4 [64]
00000000: bc2a 343f 6857 3e3f 17b6 133f 7425 f53e
00000010: cdee 593f 06bd 503f bbc7 063f 4010 3b3f
00000020: fad7 fd3e 39d7 993e d4a2 da3e af67 ed3e
00000030: 8b98 a23e 5981 143f fea2 2d3f 304d 213f
00000040: 5b12 283f b774 4b3f 4a1a db3e fb5c f53e
00000050: 268b 2c3f b327 893e 29f6 da3e 0974 523f
00000060: e3af 1a3f 9570 333f e9ee 563f 0d6a d13e
00000070: 3ee9 883f 9e7c 3b3f 8729 c13e a167 f33e
00000080: cf1b 6b3f a0dc 8f3e 04f8 093e 6662 f23e
00000090: e36f 063f c8d7 1d3f 232b 1c3f ecf3 ca3e
000000a0: e18e 423f 7bdc fc3e fbd3 dd3e 18d5 4f3f
000000b0: 36e8 123f 4d53 e03e 8b57 093f 67ef c43e
000000c0: 3f52 e03e 35f8 8c3e a6cd 733f 77c9 253f
000000d0: 1175 ba3e 142f de3e 0538 463f e125 2a3f
000000e0: d4e7 243f be32 953e 9df8 493f 24a9 e43e
000000f0: a759 803e 0886 dd3e 1972 033f ef05 373f
0.7037771 0.7435212 0.5769972 0.47880137 0.85130006 0.81538427 0.52648515 0.7307167
0.4957884 0.30047014 0.42702353 0.46368167 0.31757006 0.5800987 0.6782683 0.63008404
0.6565301 0.7947497 0.42793494 0.479225 0.67399824 0.267881 0.4276593 0.82208306
0.6042463 0.7009366 0.839583 0.40901223 1.069618 0.73237026 0.37726995 0.4754
0.9183931 0.2809801 0.13473517 0.47340697 0.52514476 0.6165738 0.6100332 0.39639223
0.75999266 0.49386963 0.4332579 0.8118453 0.57385576 0.43813553 0.53649205 0.384639
0.4381275 0.27533117 0.9523567 0.64760536 0.3641744 0.43395293 0.7742923 0.6646405
0.6441624 0.29140276 0.7889498 0.44660294 0.250684 0.4326632 0.51345974 0.7149343

fc1_bn.bias f4 [64]
00000000: 4b61 69bd a7a1 01bf 7d6f d7be 5ef0 0abf
00000010: f6fe 0ebe fd5e 1d3f 7b7a 38be cbd9 86be
00000020: 918d fcbe 750e d7bd 0ba5 08be a2ba 86be
00000030: ab3d e7be ee32 77be 7ffa 57be 5f7a abbe
00000040: 04ec f1be 4864 49bf 3108 8ebe 640d 01bf
00000050: 498e bebe 13f6 7bbe 2ac1 92bd 82c3 3ebf
00000060: 0ca6 c7be 73d2 e83d e1db 6cbe bc07 c6be
00000070: 027f e63e b3eb c4be 7628 d5be b3d7 c1be
00000080: 0152 4abf 1be3 bdbe 3fb2 e63c b107 33bd
00000090: 6c44 52be b5d8 25bf a99d 47bf 6ebf 603d
000000a0: c94e 3cbe 6730 5fbe ab58 0a3d 0fb8 aebe
000000b0: c4f7 dabe e5ba c6be 8095 51be c481 8cbe
000000c0: 3a88 8bbc 0679 d4bd 7b06 e3be 3b31 c6be
000000d0: ee72 c0be e791 d1be 61a8 7dbf b5d8 08bf
000000e0: 9aa8 0fbf 6fa5 cdbe b989 3ebf 99fa 99be
000000f0: 94b0 a7bd 0c65 a0be faa5 aabe 2be8 5cbf
-0.05697755 -0.50637287 -0.42077246 -0.5427302 -0.13964447 0.61473066 -0.18015473 -0.26338038
-0.49326757 -0.10500804 -0.13344209 -0.26314265 -0.45164236 -0.24140522 -0.2109165 -0.334918
-0.47250378 -0.7866864 -0.27740625 -0.5041106 -0.3721793 -0.24605589 -0.07165749 -0.7451707
-0.3899387 0.11368265 -0.23130752 -0.38677776 0.45018774 -0.38461074 -0.41632432 -0.37859878
-0.7903138 -0.3708733 0.028161166 -0.043708507 -0.20533913 -0.64783794 -0.77974945 0.05487006
-0.18389429 -0.21795808 0.033775967 -0.341248 -0.42767155 -0.38814464 -0.20467186 -0.27442753
-0.017032731 -0.10374646 -0.44340882 -0.38709435 -0.37587684 -0.40931627 -0.9908505 -0.5345567
-0.5611664 -0.40165278 -0.744289 -0.30074003 -0.081879765 -0.31327093 -0.33329755 -0.8629176

fc1_bn.running_mean f4 [64]
00000000: fa1c b440 9895 6941 61c6 a640 ac32 c341
00000010: 55ba 3ac1 73ee 103f 25b5 4641 ee16 f8bf
00000020: fe31 35c1 ba75 79c0 d8dd ff40 3fb1 efc0
00000030: 7380 bfc1 f0eb 8d41 4636 7540 df8e 9041
00000040: b398 8241 7068 b6c0 305e 59c0 e7c9 3f41
00000050: d260 1141 f3b3 9bc0 7a43 2dc0 c650 db40
00000060: c826 07c1 e4d3 2c41 e976 ee3f b6bd f240
00000070: 330b f93f 8452 3141 8b72 0ec0 7c10 d940
00000080: aa89 66c0 4bb2 3041 deee 27c1 d614 ce40
00000090: cb1d 50c1 40e5 02c1 39df 5cc1 487d 21c1
000000a0: 344e 4041 79f0 0dc1 9e8d 8b40 311c dbc0
000000b0: 60ea 0440 d50e 843f b81c 7141 44ac f340
000000c0: 954d 7a40 ca85 debf 1a00 0341 ff1c bc40
000000d0: 84ac 8ac1 844c 54bf 84ac 5fc1 9f6d 70c0
000000e0: dab1 66c1 6733 0fc1 2d32 823f 333b c440
000000f0: 1495 eac0 519f 8d41 9659 1140 edc7 a9c1
5.628537 14.599022 5.211716 24.399742 -11.670491 0.56613845 12.419225 -1.9381998
-11.324705 -3.8978105 7.9958305 -7.4903865 -23.93772 17.740204 3.8314376 18.069761
16.32456 -5.7002487 -3.3963737 11.986793 9.086138 -4.8657165 -2.7072434 6.85361
-8.446968 10.801731 1.8630038 7.585658 1.9456543 11.082645 -2.2257411 6.7832623
-3.6021523 11.043529 -10.495817 6.4400434 -13.007274 -8.180969 -13.804498 -10.093086
12.019093 -8.871209 4.3610373 -6.8471913 2.076805 1.0317026 15.069511 7.6147785
3.9109852 -1.7384579 8.187525 5.8785396 -17.334236 -0.82929254 -13.979618 -3.7566907
-14.418421 -8.950049 1.0171562 6.1322265 -7.330698 17.702791 2.271093 -21.22262

fc1_bn.running_var f4 [64]
00000000: 6fab a243 7bcf 2843 d199 0443 b7a2 0143
00000010: 2690 8e43 4d97 4941 f6ec 1943 bb29 a341
00000020: c8f7 7d43 8ce8 b842 93f1 7d43 695f f642
00000030: 324f 3d43 27e0 0643 d23f cc42 296b 1f43
00000040: a31b 7a43 d6d9 1942 6117 3d43 f577 1642
00000050: cc15 4c43 e1b6 5843 e214 7f43 3ed7 bf43
00000060: a8d5 5143 12c2 b841 e017 8842 5a90 a143
00000070: fab4 2a41 0b73 a342 f48c 8443 0bde 6f43
00000080: 9739 f043 2eda e943 b152 e743 e266 7e43
00000090: 4976 8443 c562 5b43 404b db42 3215 4843
000000a0: 2cd1 4943 1ab3 0e43 2519 5d43 5289 5243
000000b0: 5d8c f643 fd0b 5443 d09c 9942 628e 3f44
000000c0: 4036 1043 56ee 2343 934d 8243 c8d8 3e43
000000d0: 2a3d f542 3a3d 9843 b0c9 7342 90df d242
000000e0: a2cb 1243 4826 3144 2ca3 8a43 6139 b143
000000f0: eb65 3843 f6db e342 31a1 a143 41d7 5d42
325.33932 168.81047 132.60085 129.6356 285.12616 12.599439 153.92563 20.395376
253.9679 92.45419 253.94365 123.18635 189.30936 134.8756 102.12465 159.4186
250.10796 38.46273 189.09132 37.617146 204.08514 216.71437 255.08157 383.68158
209.8346 23.09476 68.04663 323.12775 10.669184 81.72469 265.1012 239.86736
480.44992 467.70453 462.64603 254.40189 264.9241 219.38582 109.64697 200.0828
201.81708 142.69962 221.09822 210.5364 493.0966 212.04683 76.806274 766.22473
144.21191 163.931 260.60605 190.8468 122.61946 304.47833 60.94696 105.436646
146.79544 708.59814 277.27478 354.44827 184.39812 113.92961 323.2593 55.46021

fc2.weight f4 [64, 64]
00000000: a569 993e ece9 fc3e 82d7 adbd 72a3 293e
00000010: 19cf 52bd 92b2 59bd 8e9d 1fbd a4dc 4f3d
00000020: d3f0 353f 7900 c9be 1290 2a3d 035e b73e
00000030: d883 c03e 0406 0a3f dca1 233e 1a65 bb3e
00000040: 4cc0 753e b8be e8be b50b 543e 1889 893e
00000050: 7f3a 7a3e 3ec8 ddbd 958d 13bd a3a6 92be
00000060: 2691 a43e 9a2f 1fbd 456d c1bd f0f1 bc3e
00000070: 03a9 d23d 8eae fc3e 4e7f 51be ac1d 25be
00000080: 0ace 933e 4d2c dd3d 46c1 e2bd 0616 9abd
00000090: cff9 ffbc a801 5dbf 7cf5 df3e 7026 773e
000000a0: 9283 86be db4e 973e 25e2 d1bc 2927 c33e
000000b0: c0f9 78be bcaa 013f 5156 f33e 8918 c83d
000000c0: c97e 17be df1f f53e 02e2 4d3f a87d 8c3e
000000d0: 335d bfbe 4a53 103f b6c0 a3bd b471 13be
000000e0: 5d07 07bf 071a 14bd 4400 133f 8d36 7f3e
000000f0: 55ab 5fbe ebe1 debe a6d8 9bbd 93e3 e33e
00000100: b166 a83e d32a 66be da57 8a3e 4434 d23d
00000110: 0cd1 ccbd a257 6abe 47ac dcbe 3feb 873d
00000120: ae78 86bd 23b7 b1be 850e 32bf 1d04 a73e
00000130: 363d 383e 3f10 423e 67b6 ee3c f8e4 c43d
00000140: ee13 9abd e977 573e 9b71 ebbd f30c 1f3f
00000150: c676 6bbf 21b3 08bd 000c 1e3f 8772 433e
00000160: d576 0c3d f1d4 2c3e 32fb da3e cd43 453f
00000170: 127a eabd 566a 8fbe 8b3c 013e fd0b 14be
00000180: 380d 6f3e 4529 32bf 115c 49bb f895 023f
00000190: fedc 08bf 5036 643d 6ead babe 721e cd3c
000001a0: bf5f 1a3f bbf1 14bf 29c3 e33e 517a cfbe
000001b0: a0df 383e 9f20 e5bd 24e9 9bbe 1f63 05bf
000001c0: f738 e43e 5fa7 533e b29b 64be fdae 603e
000001d0: 3a52 84be 46c9 35bf 7423 54be e83c 843e
000001e0: 5177 f43e cf5c 933e 21cd 24be b0e4 ecbe
000001f0: 2143 3f3e 0a4d eabd 24dd 00bf 7e1f 91be
00000200: 2b94 f73d 2ab0 d5bd 94c1 8cbd 3c2e f43e
00000210: 70b1 483d b0b0 62be 2203 ffbd de47 cebe
00000220: b0b5 083f 19f2 033d dd65 143f 5257 6ebe
00000230: 6c40 1f3d 6e19 7e3d 0ab4 fb3e e72d f1be
00000240: 32c7 e6bd 347d 6cbf 6eb1 863e b2ec 1ebe
00000250: ceff 1abe 8d5f 8fbe 7e76 853e f1cb 08bf
00000260: 2db6 c43d c36e 5abd 877e 1dbe ef1f 513e
00000270: 2e1a 18bf 823d 1cbe 8017 9abe 6c13 fc3d
00000280: 464f c2be f781 6bbe c72e d4bd 8cd5 893d
00000290: 933a c9bd fadf cebd c293 a3be bd90 863d
000002a0: 546d 2c3d bf2c 42be 818a 973d e958 5a3e
000002b0: 71c2 48be 5c05 afbe ac5a 64be df4a e73c
000002c0: 8441 703e 258c c3be ab38 233f 6b76 2b3f
000002d0: 1cfb 0cbb cd54 3bbe 9fd9 b23e 0be1 a83e
000002e0: 6ca9 77be 73cc f4bd 7f38 b3be 7865 0c3e
000002f0: 3805 23be b22b a93e 54dc 0f3e 0100 e0be
00000300: 4c80 983e 889b 8a3d b817 f4bd 792a 3d3e
00000310: 5beb 8fbe be6a d9be e195 873e 03ab b13c
00000320: b390 013e 12b5 b93e 2070 d93e 7d66 2ebe
00000330: f001 103f 85b6 62bf ff4d 85bc b532 b33e
00000340: 8cea a4be 752e be3c 5283 5bbf 8c03 203e
00000350: daf1 653e 3c78 49bd f04c e53d a6e3 12be
00000360: a52b 8dbe 217b 933e 65ef a3bc 4475 34bf
00000370: 02b0 f13d b02b 71bd c680 45bf 9244 cd3e
00000380: 674e de3e 9201 89bd 1973 99bd 3707 1fbe
00000390: 52e4 243d a33d 5e3e bf0b 9abe 6f4e c2bd
000003a0: 09f4 7ebe ae9d ffbd af75 1d3e 884c 27bf
000003b0: 7230 cc3d 18f0 883e 9be5 383e 4c58 8dbd
000003c0: 7a02 b7be 0f33 9ebd 27d6 1cbe 4f17 3e3f
000003d0: 0b9e 27be 8d0f 69be 2c34 2c3f d84a 8fbe
000003e0: f78f d9be 2125 703d e470 20bf e0d5 873e
000003f0: 75c7 0e3f 846a e93d 9ad8 253f e82f de3e
0.29963413 0.49397218 -0.084883705 0.16566256 -0.051467035 -0.053148814 -0.038968615 0.05074753
0.71070594 -0.39258173 0.041641302 0.35813913 0.3760059 0.5391543 0.15979713 0.36600572
0.23999137 -0.45458007 0.20707591 0.26862407 0.24436377 -0.10829209 -0.036023695 -0.2864276
0.3214199 -0.038863756 -0.0944467 0.36903334 0.10286143 0.49351925 -0.20458719 -0.161246
0.28868133 0.10799465 -0.1107202 -0.07523732 -0.031247048 -0.8633065 0.43741977 0.24135756
-0.26272255 0.2955235 -0.02562053 0.38115814 -0.24314022 0.50651145 0.47526792 0.09770305
-0.14794458 0.47875878 0.80422986 0.27439618 -0.37375793 0.5637709 -0.07995741 -0.14398843
-0.5274561 -0.036157634 0.5742228 0.24923153 -0.21842702 -0.43531737 -0.07609682 0.44509563
0.32890847 -0.22477274 0.2702015 0.10263875 -0.1000081 -0.22884992 -0.43100187 0.066366665
-0.065659866 -0.34710035 -0.69553405 0.32620326 0.179921 0.1895151 0.02913971 0.09613985
-0.075233325 0.21041836 -0.11496278 0.62129134 -0.9197811 -0.033373956 0.6173706 0.19086657
0.034293015 0.16878106 0.42769772 0.7705658 -0.11449064 -0.28010815 0.12620752 -0.14457698
0.23344886 -0.6959422 -0.0030725042 0.51010084 -0.5346221 0.05571586 -0.3646044 0.025038932
0.60302347 -0.5818135 0.44484833 -0.40523008 0.18054056 -0.111878626 -0.3045131 -0.5210437
0.4457471 0.20669316 -0.22325018 0.21941753 -0.25843984 -0.71010244 -0.2071665 0.25827718
0.4774728 0.28781745 -0.16093875 -0.46268225 0.18677951 -0.11440475 -0.50337434 -0.2834434
0.12088808 -0.10433991 -0.068728596 0.47691524 0.048997343 -0.22137713 -0.124517694 -0.40289205
0.53402233 0.032213304 0.5796793 -0.23275498 0.038879797 0.06203597 0.49160796 -0.47105333
-0.11268462 -0.92378545 0.26307243 -0.1551998 -0.15136644 -0.28002587 0.26066965 -0.5343619
0.0960506 -0.053328287 -0.15380298 0.20422338 -0.5941495 -0.15257838 -0.30096054 0.12308392
-0.37951106 -0.22998796 -0.103604846 0.06730184 -0.09825625 -0.10101314 -0.31948668 0.065705754
0.04209645 -0.18962382 0.073994644 0.21322979 -0.19605424 -0.34183776 -0.22300214 0.028233944
0.23462492 -0.3819286 0.63758343 0.66977566 -0.0021511978 -0.18294068 0.34931657 0.32984194
-0.24185723 -0.11953058 -0.3500404 0.13710582 -0.1591996 0.3304115 0.14048892 -0.43750003
0.29785383 0.067679465 -0.119185865 0.18473233 -0.2810925 -0.4246425 0.26481536 0.02168799
0.12652855 0.36270958 0.42468357 -0.17031284 0.56252956 -0.8855975 -0.016272543 0.34999624
-0.32210195 0.023215512 -0.85747254 0.15626353 0.2245554 -0.04918693 0.11196315 -0.14344653
-0.2757236 0.28804877 -0.020011613 -0.70491433 0.11801149 -0.058879554 -0.7714962 0.40091377
0.4341919 -0.06689753 -0.07492656 -0.15530096 0.040256806 0.217032 -0.30087087 -0.09487616
-0.2489778 -0.12481247 0.15376924 -0.6535115 0.09970178 0.26745677 0.18056338 -0.06901607
-0.35744077 -0.077245824 -0.15316068 0.74254316 -0.16368882 -0.22759838 0.6726711 -0.2798679
-0.4249265 0.05862916 -0.6267226 0.2653036 0.557731 0.11397269 0.6478363 0.43395925

fc2.bias f4 [64]
00000000: f803 fbbd abd6 8b3d fb7f 90bd 4b0e 6e3d
00000010: 4474 b43d 1212 2dbd ed7f 9b3d 5981 833c
00000020: 7c81 22bd f480 a63b 4467 483d 3b57 823d
00000030: f2a0 8ebd 9431 bd3d e0cc 73bd c306 d9bd
00000040: 84ab 5cbd ec5f e1bd 9fbb 0d3d 62a6 ed3b
00000050: f3dc 5ebb a536 aebd bd01 803d daa1 703c
00000060: 77da 07bd 2114 b73c b91a 2f3d c437 a1bd
00000070: ef8d 0dbd c0ea 57bd ec4d e13d 7e56 eb3c
00000080: c2c8 bcbd 1162 af3d 3615 b0bc 55e2 343c
00000090: bf91 6e3c b8c3 7fbc 315d f23d 1593 5e3d
000000a0: 275a db3c aa6b 3ebd cf41 f53c 91d2 bbbd
000000b0: 5d51 30bd b32f 883d 64f4 f8bd 0de6 85bb
000000c0: dcce 3bbd 89fd 833d 5a78 9fbd e51c b23c
000000d0: c6fb 25bd 92d3 d43d b389 8bbc 5af1 b8bd
000000e0: 475a 49bd a0d3 b73d 9fa5 3a3d 1ac8 dc3c
000000f0: 1183 a53d e215 453d 40c3 7ebc b92d 8abd
-0.12256616 0.06828054 -0.0705566 0.0581191 0.088112384 -0.04225356 0.07592759 0.016052889
-0.039674267 0.0050812904 0.048926607 0.06364294 -0.06964292 0.09237972 -0.059521556 -0.10596993
-0.053874508 -0.11004624 0.034602758 0.0072525004 -0.0034006208 -0.08506516 0.062503316 0.014687026
-0.03316733 0.022348465 0.042750094 -0.078719646 -0.034559187 -0.05271411 0.110011905 0.028727766
-0.09217979 0.085636266 -0.02149449 0.01104029 0.014561116 -0.015610628 0.11834181 0.054339487
0.026776386 -0.046489395 0.029938607 -0.09171022 -0.043046344 0.06649723 -0.12155989 -0.004086262
-0.045851573 0.06444842 -0.07786627 0.021742294 -0.040523313 0.10391916 -0.017033434 -0.09030409
-0.04915836 0.08975911 0.045568105 0.026950885 0.080816396 0.048116572 -0.015549481 -0.06747002

fc2_bn.weight f4 [64]
00000000: 57b1 993f 0edb ac3f cc6d e43f dfb9 ba3f
00000010: af4a a23f ef69 d03f 6008 0e40 c14e ff3f
00000020: 8821 db3f 658d 0540 bb85 bd3f d2a0 fe3f
00000030: aef2 0940 94d9 f93f 3882 b13f 6ea4 0b40
00000040: 001e d53f cca7 cf3f 68e6 c03f 536d 1640
00000050: 2f25 0a40 40ca 0040 984d 2740 62ee 0540
00000060: 7050 d53f c903 0740 68d0 0a40 f534 e23f
00000070: 493d 0f40 4e0d 3040 2f48 9b3f 9ba6 af3f
00000080: 6edc ea3f 7c92 b33f 4472 1c40 f15e cb3f
00000090: 795b 1740 6f95 da3f 1bfa 1a40 fcad ad3f
000000a0: e6d4 f43f 600b e43f 119c e53f 6765 bb3f
000000b0: 4de1 f33f 50dd df3f eb03 3840 e106 c33f
000000c0: 9ca0 3c40 c071 bb3f b066 0940 00f0 ce3f
000000d0: 7d69 c63f f23a d83f bd42 1840 d656 e53f
000000e0: 0452 db3f 2370 913f dd0e c03f 63ca 9c3f
000000f0: 42aa ff3f 0cb3 0340 4985 df3f 7164 d03f
1.2007245 1.350435 1.7846007 1.4587973 1.2679042 1.6282328 2.2192612 1.9945909
1.7119608 2.086755 1.4806436 1.9892828 2.155437 1.9519525 1.3867865 2.181911
1.664978 1.6223083 1.5070314 2.3504226 2.1585195 2.0123444 2.614111 2.0926747
1.6665173 2.109606 2.16897 1.7672411 2.2381155 2.750812 1.2131404 1.3722719
1.834852 1.4029078 2.4444742 1.5888349 2.364958 1.7076854 2.4215152 1.3568721
1.9127471 1.7815971 1.7938253 1.464032 1.9053131 1.7489414 2.8752391 1.5236474
2.9473028 1.4644089 2.1468925 1.6166992 1.5500942 1.6892989 2.3790734 1.7917125
1.7134404 1.1362346 1.5004536 1.2249264 1.9973834 2.0578032 1.746255 1.6280652

fc2_bn.bias f4 [64]
00000000: a884 46bf f384 87be 25a2 bd3c f964 7dbf
00000010: 7f03 1dbf 05fe b7be 7d2a 87bf 48ba ffbd
00000020: 35df 55bf 3fbc 2bbe b4d7 00bf 331d acbd
00000030: ea6f d2bd 549c 8fbe d088 64bf d298 0bbf
00000040: ef7c 38bf 4c21 1ebf 7ce0 8dbf b451 27be
00000050: 0417 f9be 6a46 a2bf 0257 b8be 8a28 80bf
00000060: 4606 c1bd 085b 03bf d7fc b0bf ca30 52bf
00000070: a933 84bf 383b ba3d 9a94 c3be 460c f8bd
00000080: 78bb c3be 5fed 14bf 9697 40bf 9b5e dd3d
00000090: 231a e1be 3d2a 5dbf 3ce0 35bf 9d18 00bf
000000a0: e238 ecbd ffb9 3abf 17c8 2cbf 899e d43c
000000b0: 6765 02be 017d 30bf 609e 2dbf dfcd fe3c
000000c0: ef6d e7be c23f 29bf 0ccd 85be 5951 6dbf
000000d0: 004c 23bf 8aaa b4bf df30 fcbd 1c9e e5be
000000e0: 74e3 c5be de75 85bd 86ac 13bf 9207 6abf
000000f0: 2af0 eebf 45c2 c4ba 6ac7 1dbf 2c8f c2be
-0.7754617 -0.2646862 0.023148606 -0.989822 -0.6133346 -0.3593599 -1.0559841 -0.12486702
-0.8354371 -0.16771029 -0.50329137 -0.08404007 -0.10275252 -0.28048956 -0.8927126 -0.5453006
-0.72065634 -0.61769557 -1.1084132 -0.16339761 -0.48650372 -1.2677739 -0.36003882 -1.0012372
-0.09425025 -0.5131078 -1.3827161 -0.82105696 -1.0328265 0.09093326 -0.38199311 -0.12111716
-0.38228965 -0.581747 -0.752313 0.1080906 -0.43965253 -0.86392576 -0.7104528 -0.50037557
-0.11534287 -0.7294006 -0.6749281 0.025954502 -0.12733994 -0.6894074 -0.67819786 0.031104026
-0.4520106 -0.6611291 -0.26133 -0.9270225 -0.6378784 -1.4114544 -0.12314009 -0.4484719
-0.38650095 -0.06516622 -0.57685125 -0.914178 -1.8667042 -0.001501151 -0.61632407 -0.37999856

fc2_bn.running_mean f4 [64]
00000000: 93e1 073f 2fa5 163d 95b5 03bf cc58 80be
00000010: 3ed8 593f afe3 253f 1c78 d0bb 96ed 3cbf
00000020: a475 dbbe 019a 14bd 4300 b1be c7b6 cc3d
00000030: 9c01 443f 56bc 72be 32ae a2be 1ef7 2e3d
00000040: da8f c33e b86f a2bf 55ba 313f 41f2 213e
00000050: 33f9 f2bd 383e 2c3f 2dc9 be3e 47a8 cdbc
00000060: d49e 0ebf b173 873f c0cd 173f baa1 c0be
00000070: f2ec 0cbf c772 a63e 132b 22be 370e 373f
00000080: af9d 9ebd 8293 ea3d 9d46 bdbd 6eb0 22bf
00000090: 95b8 c6bd bb46 93bf 41ae 5d3f 8f56 8d3e
000000a0: d2d1 a33c f06f 8d3f ef82 753f ea13 94be
000000b0: 02d8 11bf 7777 e8bd a3a9 5a3f 9324 5f3e
000000c0: b965 11be c964 823f a826 0a3f 49fc 813f
000000d0: cc90 803e 05e3 593f 8f01 f23e b1d6 083f
000000e0: 5ff6 a4bd 518b 223f e517 ab3e 8c1f 1abf
000000f0: ee42 263f ebea c9bd d99b 97be 9862 063f
0.53078574 0.036778625 -0.5144895 -0.25067747 0.85095584 0.6480054 -0.0063619744 -0.7380003
-0.4286319 -0.036279682 -0.34570512 0.099957995 0.76564956 -0.23704657 -0.31773525 0.042716138
0.38195688 -1.2690344 0.69424945 0.15815069 -0.11863937 0.6728244 0.3726286 -0.025104655
-0.557111 1.0582181 0.59298325 -0.37623388 -0.5504905 0.32509443 -0.15836744 0.71506065
-0.077449195 0.11453916 -0.09241984 -0.6355046 -0.09703175 -1.150596 0.86594015 0.276051
0.019997511 1.1049786 0.95902914 -0.28921443 -0.56970227 -0.11350911 0.85415095 0.21791296
-0.1419896 1.0187007 0.53965235 1.0155116 0.2511047 0.8511203 0.47266814 0.53452593
-0.08054804 0.6349383 0.33416668 -0.60204387 0.64945877 -0.0985926 -0.2961109 0.5249419

fc2_bn.running_var f4 [64]
00000000: 31dd b13e 924e d63e fc81 a33e 8cd0 8b3e
00000010: f44d 673f aed8 9f3e 375d bb3e 622d 2b3f
00000020: b502 5b3f 3fcc 233f d0cd e23f 944f 4a3f
00000030: aab8 fc3f 7ec7 033f 7e9b a03e 9394 073f
00000040: b9d7 b03e 6c3c 643f 8a99 8c3e 9aea 853f
00000050: 6df5 d23e 1e09 1c3f 4fd9 d93e df2d 533f
00000060: 2bd6 6e3f d744 603f 6750 f03e 3dd9 d93e
00000070: 0c55 eb3e 3a96 b73f cbb5 183f cf91 923e
00000080: 23fa 7c3f 0905 ae3f e4df 7a3f 62a5 443f
00000090: cabe 173f 1626 563f ea61 b73e ff77 b43e
000000a0: d733 dc3e c47e 2f3f 3537 303f b7cc 953f
000000b0: 8b7e 5b3f 01d7 003f ffa0 273f 5ae7 af3e
000000c0: 098a 523f 99b1 f43e 816c 513f 8d7e c73e
000000d0: 7a7f a93e 0636 063f 6da4 e33e 5ec2 c93e
000000e0: cab0 fc3e a5a9 213f 74b3 f23e a5f5 ac3e
000000f0: 5c90 0f3f 720a f93e 871e bc3e 5f60 123f
0.34739068 0.4185682 0.31935108 0.27307546 0.9035332 0.3122 0.36594555 0.66866124
0.85551006 0.6398353 1.7719059 0.79027677 1.9743855 0.51476276 0.3136863 0.5296108
0.34539583 0.89154696 0.2746089 1.046222 0.4120287 0.6095141 0.42548606 0.8249187
0.93295544 0.8760504 0.46936342 0.42548552 0.45963323 1.434272 0.59652394 0.28626868
0.9881918 1.3595287 0.9799788 0.76814854 0.59275496 0.83651865 0.3581689 0.352478
0.430083 0.68552804 0.6883424 1.1703099 0.85739964 0.5032807 0.65480036 0.34356195
0.82241875 0.47791746 0.8180619 0.38963738 0.3310507 0.52426183 0.44461384 0.39406103
0.4935363 0.6314948 0.47402537 0.33781162 0.5607965 0.48640782 0.3674204 0.571783

fc_out.weight f4 [2, 64]
00000000: d40a f7bf feb5 57be 0176 d43e a46e c6be
00000010: 9846 99bf c84b 68bf d257 80be 04c4 bdbe
00000020: de7f 403f 3707 b23f b496 c13f 1d1e f2be
00000030: 0e90 9bbf 1fec 90bd 8a3d 0ebf ad84 b7bf
00000040: 9042 603f 6df8 433e cad4 fbbf 183b a23f
00000050: 282d f1bb cf9a a73f 05b2 ae3f 36e5 85bf
00000060: a2af 9e3e f06a b33f 69a9 e3bf 216b a03e
00000070: f040 4f3d f648 dd3e 10ab 3cbf 23d8 cabe
00000080: c84a bdbe 4977 5d3f 67dd a83f b3c0 1abf
00000090: 8f40 c7be e305 b43e 64a7 03bf 63f8 b73e
000000a0: 5a10 6e3f 8bf9 0dbf cd35 e6bf 219a 34bf
000000b0: 7e0d 7dbe 8d3e a8bf 297c 0dc0 17bb 5c3f
000000c0: 3c62 ab3e 4a94 803f c768 a13f 443c 3d3f
000000d0: 5b3c ce3e 9194 0fc0 c416 d53f 8563 363f
000000e0: 0018 89bf ab02 0fbf eb96 25bf 30b0 a9bf
000000f0: cb15 4840 05f0 b13c 4877 08bf ae59 553f
00000100: 8424 813e fb26 3f3f 4859 84bf b559 f13f
00000110: 3791 b4bd 0364 343f 3618 0fc0 ecad 843f
00000120: c06f bbbf 08bf de3e e16e c8be dbbe b63f
00000130: b75c 893f 9c22 a43f fcce 35bf cbf9 94bd
00000140: 5b19 a2bf cc77 ad3f 76f5 453e 2545 97be
00000150: f7ea b1bf 355e 13c0 8ca5 3b3f a982 05be
00000160: f29c 49bf 613a b2be 31d5 77bf 01c5 c2bf
00000170: ca7d 0540 9b64 c23f 43e0 193d 5907 033e
00000180: 7621 b6bf 7a69 2cbe 6cf6 273f b867 073f
00000190: 9b0a bbbf 7b87 9f3f b100 07c0 8024 243f
000001a0: f749 de3d 70e6 8cbf 7925 4d3f a1f2 a5bf
000001b0: 0edb e3bf 0ab4 583f e787 e93f fff1 7f3f
000001c0: 0d16 24c0 4dfe 313f c260 0540 b5dc 98bf
000001d0: e204 963f 3377 64be ea53 83bf 0965 883f
000001e0: 869b 70be 6b58 d83e a755 b23f 551e 15bd
000001f0: 9d76 fcbd 6f48 e2bf 8298 2b3f e110 3ebf
-1.930018 -0.21065518 0.4149628 -0.38756287 -1.1974669 -0.90740633 -0.25067002 -0.3706361
0.7519511 1.3908452 1.5124116 -0.472886 -1.2153337 -0.070762865 -0.5556265 -1.4337364
0.87601566 0.19137736 -1.9674313 1.2674284 -0.0073601194 1.3094119 1.3648077 -1.0460575
0.30993372 1.401701 -1.7786075 0.31331733 0.05059904 0.43219727 -0.7369852 -0.39618024
-0.36971116 0.8651014 1.3192567 -0.60450286 -0.38916442 0.3516074 -0.5142729 0.35931692
0.929937 -0.554589 -1.7985169 -0.7054768 -0.24712178 -1.3144089 -2.2107031 0.86222976
0.33473384 1.0045254 1.26101 0.73920083 0.40280423 -2.2434428 1.6647573 0.71245605
-1.0710449 -0.55863446 -0.6468341 -1.3256893 3.1263301 0.021720896 -0.5330701 0.83339965
0.25223172 0.74668854 -1.0339746 1.8855501 -0.0881676 0.70465106 -2.2358527 1.0365577
-1.4643478 0.4350512 -0.39147094 1.4276994 1.0731419 1.2823062 -0.7101896 -0.07274207
-1.2663988 1.3552184 0.19331917 -0.2954494 -1.389983 -2.302625 0.7329948 -0.13038124
-0.78755105 -0.34810165 -0.9680968 -1.5216371 2.0858026 1.5186952 0.03756739 0.12795772
-1.4228961 -0.16837111 0.65610385 0.5289264 -1.4612612 1.246322 -2.1094172 0.64118195
0.108539514 -1.1007824 0.80135304 -1.296467 -1.7801225 0.8464972 1.8244599 0.9997863
-2.5638459 0.6952866 2.0840306 -1.1942354 1.172024 -0.22311096 -1.0259984 1.0655833
-0.23496827 0.42254958 1.3932389 -0.03640588 -0.12327311 -1.7678355 0.67029583 -0.74244505

fc_out.bias f4 [2]
00000000: 1078 55be 6660 87bc
-0.20846581 -0.016525459
