checkpoint_actor_1.pth (torch_old, 27361 bytes, 14 tensors)

fc1.weight f4 [64, 24]
00000000: 5f6b be3d fece 503f c308 e0bc d0c7 1f3e
00000010: d622 c1be b6b6 ddbf 9fb1 bc3d 44ad 893e
00000020: b758 fcbe 66fc f53e bf1f 6d3d 8476 463f
00000030: 7d17 adbe d7ea 41be 9b86 81bd 4a4a 543f
00000040: 5acb 57bf 0d00 253f 0b42 b53d db46 08bf
00000050: b17b b6bc ffb9 a53e e407 033e 30f5 2cbf
00000060: b9d2 c1bd 1a3f aabe 24c5 27bd 6034 b23c
00000070: 962a 24bf 2205 6b3f a601 5e3d 7924 2fbc
00000080: 4f35 003e e12d fe3d cee1 953d 0005 11bd
00000090: 8560 0a3e c06f b73e b6dd a7bd a542 c23c
000000a0: f86c b63c 33ac 013e ba03 7abd 101c 68be
000000b0: c23b 1b40 ad50 92bd 533e d73d 21c6 71be
000000c0: 7f3a 60bf 3aaa 363e eb69 083e ba60 19bd
000000d0: 8eb4 d03e eeba c2be 37de 5c3e 6e8c 6abe
000000e0: 8ddb 0cbf 78a3 153d 5742 b43d 761e 8abe
000000f0: fef9 1dbe 259f 853f ab8c 6b3e d113 4cbe
00000100: 7463 bcbe fb18 9fbc 3a4a 88bd 9cf8 163e
00000110: eaf5 02bf b006 c13f 0adf 813c fa37 803e
00000120: 8aa8 63bf 032d 073f 6f01 75bd 1e5b 103e
00000130: 8bad cebe a8b9 f03e 81e5 5f3d 286b 3c3e
00000140: a0b3 5bbf 72b4 3a3f 81b2 06be 5d4b f2bd
00000150: 9988 d03d 9142 edbd 3bcd 27bc 4523 76be
00000160: 6183 97bf f750 423f de43 3cbe 0b7d 9f3e
00000170: 0a5f 443f 9aef 77bf e00d e4bb 2de8 c53e
00000180: fdf5 ecbe 781c aa3e dab7 99bd 7ece 063e
00000190: 5d29 49bf 266a 5abf 801b 903d 0638 5ebd
000001a0: 0a3a 5f3d acb4 843d f128 23bd 12bd ca3d
000001b0: 7b46 e3be f4d4 90bf 634d 75bd d30a 333e
000001c0: e899 ed3e 022e d73d 8032 973e 151c 3d3f
000001d0: 02ec 45be 25ed a1bf eee5 553e 6fcd 363f
000001e0: eb24 4d3f 1a64 d6be 3930 a33d dd60 c13e
000001f0: 9611 81bd 60fb 12bf 2ae5 c2bc 4052 0d3f
00000200: eaf4 5a3f 6532 e3bb 11de 6d3e 3317 813f
00000210: 6cac d1be 98c8 32be 4380 103e 248e 843f
00000220: a2ad 453f f7c0 2e3e d013 bcbd ee5e a03e
00000230: bda9 a1be eb0c 9d3e 44e2 e6bd da02 de3e
00000240: e289 52be d5c0 3cbe 2acb 0c3d 77bf 553c
00000250: 0bc9 a43f 6eb1 aa3f e966 f3bc a6e2 213b
00000260: 2146 cb3c f084 403e 2cfe f2bc d56c bfbb
00000270: a175 0d3c 2098 2d3c 0902 af3c 9a85 823d
00000280: 9346 773e 520e b73e 929f 4bbc 3bd6 333e
00000290: a8bb 0ac0 81e3 a4bf 4d3d a43b 6a9b e0bc
000002a0: d108 883e 1ac9 9d3f 63f5 acbd 0e3e 9a3e
000002b0: c6b0 62be dd79 bbbf 7b56 943d 4c2d da3e
000002c0: cc24 a13d c34c ae3f 2219 d23d bfd5 a43c
000002d0: 9a20 e43d e6ae 81bf 452c 813e f173 b53d
000002e0: cb7e 90bd 1de7 a23f db8e 15bd c7bc 21be
000002f0: 14a9 dc3e fadf aebf af50 c7bc 2e3d 48be
00000300: 15f8 4bbe 88f3 1d3f 6c44 95bc 0929 3fbe
00000310: a00e 69be 843c 0ec0 c277 60bc ea2c 16be
00000320: f5a5 dfbd d7f8 3e3f 9a19 d23c 869a bfbd
00000330: 27d4 3f3d 02e6 4bbf f389 68bd d667 86be
00000340: 09ae 19bf aff9 ce3e b5b7 ad3d 2890 ccbe
00000350: 70ad 2cbe a7f7 ae3f 43ec 3abd a763 8cbe
00000360: fc81 80be 1437 b4be a437 9bbd 1c02 013d
00000370: ba40 c73d 3225 52bf 5e21 a13d 838e 13be
00000380: 3ae5 9f3d 225e 92be d988 573d d789 b3bc
00000390: 87c8 a2be 0767 b13f 8bd5 5ebd 0e40 af3d
000003a0: 53e1 913e aedb e7be 6751 f93c e8e1 683d
000003b0: d453 6ebf e9a0 2640 5cd5 5abd e449 43bd
000003c0: 9b98 a0be 1c94 213f 2e82 a73d 7e52 48bd
000003d0: 2246 9dbf 20fa 16be a83c abbd 6f71 863d
000003e0: 81bf 003e 388b 213f f34c d9bc 251a fe3d
000003f0: 246c dc3b 6735 1e3d e1ea bfbc b077 c8bc
0.09297823 0.81565845 -0.027347928 0.15603566 -0.3772189 -1.7321384 0.09213566 0.26890004
-0.49286434 0.48044127 0.057891604 0.7752459 -0.33806983 -0.1893724 -0.06324502 0.82925856
-0.84294665 0.644532 0.08850487 -0.53233117 -0.022275778 0.32368466 0.12795979 -0.67561626
-0.0946402 -0.33251268 -0.040959492 0.02175349 -0.6412748 0.9180471 0.05420079 -0.010689848
0.12520336 0.124110945 0.073184595 -0.03540516 0.13513382 0.35827446 -0.08196585 0.02371342
0.022268757 0.12663345 -0.06103871 -0.22666955 2.4255223 -0.07144294 0.10509934 -0.23610736
-0.8758926 0.17838374 0.13321654 -0.03744576 0.40762752 -0.3803324 0.21569143 -0.22905132
-0.5502251 0.03653285 0.08801716 -0.26976365 -0.15427396 1.0439192 0.2300288 -0.19929434
-0.36794627 -0.019421091 -0.066547826 0.14743274 -0.51156485 1.5080166 0.015853424 0.25042707
-0.88929045 0.5280306 -0.05981582 0.14097258 -0.40366778 0.47016644 0.05466223 0.18400252
-0.8582096 0.7293159 -0.13154031 -0.11830781 0.10182304 -0.11584962 -0.010241802 -0.24036892
-1.1836969 0.7590479 -0.18385264 0.31150088 0.7670752 -0.9684998 -0.006959662 0.386537
-0.46281424 0.33224845 -0.0750577 0.13164708 -0.7857874 -0.8531822 0.07036495 -0.054252647
0.05449871 0.06479773 -0.039833967 0.098993436 -0.4438971 -1.1314988 -0.059888255 0.17484598
0.46406484 0.10506822 0.29530716 0.73870975 -0.19328311 -1.2650496 0.20888492 0.71407217
0.8013446 -0.41873246 0.07968182 0.37769213 -0.063021824 -0.5741482 -0.023790915 0.5520363
0.8552996 -0.0069334977 0.23229243 1.0085205 -0.4095186 -0.17459333 0.14111428 1.0355878
0.7721807 0.17065798 -0.091834664 0.31322426 -0.31574813 0.30673918 -0.112736255 0.4336155
-0.2056041 -0.18432935 0.03437344 0.013046137 1.2873853 1.3335397 -0.029712157 0.0024701743
0.024813714 0.18800712 -0.029662214 -0.005841831 0.008634002 0.010595351 0.021363275 0.06373139
0.24148016 0.35753113 -0.012428181 0.17562191 -2.1677036 -1.2881929 0.0050121904 -0.027417857
0.26569226 1.2326996 -0.08445241 0.3012547 -0.22137746 -1.4646565 0.07243057 0.42612684
0.078683466 1.3617176 0.102587 0.020121453 0.11139031 -1.01315 0.25229087 0.08860005
-0.07055434 1.272678 -0.03651319 -0.15794669 0.43097746 -1.3662102 -0.024330465 -0.19554588
-0.19918855 0.61699724 -0.018221103 -0.18667997 -0.22759485 -2.2224436 -0.0137004275 -0.14665571
-0.10920326 0.7459845 0.025646973 -0.09355645 0.046833184 -0.7964784 -0.056772184 -0.26251096
-0.6003118 0.40424868 0.08482305 -0.39953732 -0.16863036 1.3669327 -0.045635473 -0.2741978
-0.2509917 -0.3519827 -0.07578972 0.031496152 0.097291425 -0.82088006 0.078676924 -0.14409833
0.07807393 -0.28587443 0.052620742 -0.021916313 -0.31793615 1.3859566 -0.05440287 0.08557139
0.2849222 -0.4528479 0.030434323 0.056856066 -0.9309666 2.6035712 -0.05342613 -0.04767789
-0.3136643 0.6311662 0.08179127 -0.048906796 -1.2287028 -0.14743853 -0.08361179 0.065646045
0.12573053 0.63103056 -0.02652595 0.124073304 0.0067267586 0.038625147 -0.023427429 -0.024471134

fc1.bias f4 [64]
00000000: 5bc8 8abd 4157 873d 638f b93d 20ad eebb
00000010: 494c 473e 84a5 10be 7f55 9d3d 5935 3c3e
00000020: 3ba2 11bd 2eb2 253e 1499 653b 1b72 1cbe
00000030: 0263 e5bd 4ab9 9b3d e3ff b4bd d4d7 483d
00000040: e5e4 4d3e 9b32 8e3d 8058 9cbc ae33 513d
00000050: 85b3 efbd e862 2fbe 8ce1 1cbe d487 2fbe
00000060: 3435 2b3d a050 233d 14b4 b1bd f75d 4cbe
00000070: 8899 e23d 52a1 ecbd 1d6c 0cbd 3137 2fbe
00000080: e18a ebbd 9808 ae3d c8a5 42be 3003 efbd
00000090: b4ff 1c3e d911 d6bd 24b3 adbd 5794 6abd
000000a0: 108b b23d 5f0c 09be 02c9 a63c ecba aa3d
000000b0: 303d 71bc 5670 173d 0397 1fbe 7684 bc3d
000000c0: de1a 9c3d 968c d1bc ede1 2cbe 11e2 a63d
000000d0: 9a62 083e d345 12bd e52d c53d 4432 9a3d
000000e0: 9688 a7bd 0956 6bbc 723d 503e 23c7 563a
000000f0: 4d5b 26be 1a3a 74bc eb11 d03d e35a 88bd
-0.06776496 0.06608439 0.09060552 -0.0072838217 0.19462694 -0.14125639 0.07682323 0.18379726
-0.035555106 0.16181251 0.0035033869 -0.15277903 -0.11200525 0.076037005 -0.08837869 0.049033955
0.20106848 0.06943246 -0.019085169 0.051074676 -0.117041625 -0.17127573 -0.15320414 -0.17141658
0.041798785 0.039871812 -0.08676925 -0.1995772 0.1106444 -0.11554207 -0.034282792 -0.17110898
-0.115010984 0.08497733 -0.19008553 -0.1167053 0.15331918 -0.10452623 -0.08481434 -0.057270374
0.0871793 -0.13383625 0.02035952 0.08336434 -0.014724061 0.036972366 -0.1558495 0.092049524
0.07622312 -0.025579732 -0.16883059 0.081485875 0.13318864 -0.03571112 0.09627894 0.07529119
-0.081803486 -0.014363774 0.2033594 0.0008193126 -0.16245766 -0.014906431 0.101596676 -0.0665796

fc1_bn.weight f4 [64]
00000000: 634a b73e 7ebd 863f 22b3 5a3e cfe6 db3e
00000010: def6 f33e f575 a03e 7ebf 5e3f 45b1 fd3e
00000020: 90bd d83e 0ef7 653f 77bd b73e 5e2b 633f
00000030: 4c57 bd3e aea5 973e 7219 bb3e 2b2d dd3e
00000040: bc26 fe3e c0ea 833e c04d cc3e 34d8 e33e
00000050: 296b 623f 6d6a 0f3f cfc9 be3e 1ce5 543f
00000060: fd4e 363f dd4b 043f 7096 4d3f ff52 173f
00000070: 0e0b 033f 0829 0e3f 3a71 c83e c753 733e
00000080: d52e 793f 7722 be3e 35fe 0f3f 1d32 0e3f
00000090: 2aba 0e3f fce6 fa3e 86b7 453f 90d4 0e3f
000000a0: 2d54 283f ed31 a73e c846 c43e 3104 32be
000000b0: 3cf7 983e 4a40 d33e b526 123f 9340 ba3e
000000c0: e074 fb3e f2c6 b73e cc99 3a3f dc47 893e
000000d0: ac60 183f 9489 c53e acbc 3b3f 9379 343f
000000e0: 097d 003f 9aba dd3e 26b2 e63e 93af 233f
000000f0: 985c 943e 2c92 9a3e 1e77 423f 0da8 d03e
0.3579894 1.0526578 0.21357396 0.4294953 0.47649282 0.31339994 0.87010944 0.49549308
0.42332125 0.898301 0.35886738 0.8873805 0.36980665 0.2961859 0.3654285 0.43198523
0.49638927 0.25765038 0.3990307 0.44500887 0.88444763 0.5602177 0.37263343 0.83162093
0.71214277 0.5167826 0.80307674 0.59111017 0.51188743 0.5553136 0.39148885 0.23762427
0.97337085 0.3713567 0.56247264 0.55545217 0.55752814 0.49004352 0.7723316 0.55793095
0.6575344 0.32655278 0.38335252 -0.17384411 0.29876125 0.41259986 0.5709031 0.3637739
0.49112606 0.3589397 0.72890925 0.26812637 0.5952251 0.38581526 0.73334765 0.7049801
0.5019079 0.43306428 0.4505779 0.6393978 0.28976893 0.30189645 0.7596301 0.40753213

fc1_bn.bias f4 [64]
00000000: afca 92be 4e54 efbe 74b3 003e 3305 b4bd
00000010: 29c2 18bf e85c 23bd d373 65ba 37b3 06bf
00000020: 6682 cfbe 5311 723e 9a64 3dba 1b0f 31bf
00000030: 9ea0 e8be 6909 d1bd 4e4e a3be 94ca 81bd
00000040: e450 d6be 2427 5fbd 8cf0 94be 2f42 f3be
00000050: b489 09bf c5fb b0be 0da6 0abf 1a98 cfbe
00000060: 501b 04bf 5f32 633e b801 21bf 1ba5 1bbf
00000070: dad9 edbe 3b6e 10bf 3066 35bd 6309 d1bd
00000080: c28c 75bf f41a cfbe bc16 37bf bb24 4cbf
00000090: ccf1 bdbe 9a8e ddbe ccd9 25bf 4f9f 0cbf
000000a0: f367 d6be 5559 64be 50e5 cebe 1b74 b7be
000000b0: 2342 5abe dbd1 adbe 2cee 2fbf 17c1 94be
000000c0: 4d72 02bf 4f62 d8be 7831 80be 0b3e a73d
000000d0: 7687 0cbf d1b4 a6be 9c3f 54bd 9e42 1bbf
000000e0: cda7 ebbe ed3f dbbc a778 24bf 2f83 8cbd
000000f0: ee18 c0bd 849d 6abd 27bb 4cbf d29e 8dbe
-0.2867026 -0.46744007 0.12568456 -0.08790054 -0.59671265 -0.039883524 -0.0008752916 -0.5261721
-0.40529174 0.23639421 -0.00072247686 -0.69163674 -0.4543504 -0.10206873 -0.3189568 -0.06337467
-0.4185859 -0.054480687 -0.29089773 -0.47511432 -0.53725743 -0.34567085 -0.54159623 -0.40545732
-0.51604176 0.22187184 -0.6289325 -0.60798806 -0.4645527 -0.564182 -0.044286907 -0.102068685
-0.95917904 -0.4045025 -0.71519065 -0.79743546 -0.3709854 -0.4327286 -0.64785457 -0.54930586
-0.41876182 -0.22299702 -0.40409327 -0.3583077 -0.21314292 -0.3394917 -0.68722796 -0.29053566
-0.5095566 -0.42262504 -0.25037742 0.08166131 -0.54894197 -0.32559827 -0.051818475 -0.60648525
-0.4602646 -0.02676388 -0.642466 -0.06860959 -0.09379755 -0.057279125 -0.7997307 -0.27660233

fc1_bn.running_mean f4 [64]
00000000: 7031 4440 24ab 6740 c5a8 b141 e83e 1941
00000010: 86e8 f0c0 d3a1 3ec1 d164 123d f50f 58c1
00000020: 664f dabf 0fb0 2e41 c246 d33c 1d66 253c
00000030: 265f 07c0 adc4 b640 1d1b 8341 661e 443f
00000040: f5f3 0b41 683d 2641 8f46 b640 d201 a4c1
00000050: 3459 3cc1 1c69 7841 b30b 6dc1 b654 9640
00000060: 4691 10c1 9f41 0440 5503 f0c0 f48d 7741
00000070: 513f d3bf f426 1f41 b923 4641 a6c2 fd40
00000080: cf5a 8940 8818 f040 4e62 6cc1 96a1 05c1
00000090: 8634 3740 d624 a0c0 a987 1bc1 2a12 b0c1
000000a0: 1100 f240 beef 7c41 3370 9340 6822 8341
000000b0: 6f0f 5ac1 3c28 a3c1 f6f0 1b41 0970 9b41
000000c0: 6f66 82c0 4484 c8c0 c491 35c1 62b9 1641
000000d0: fc6c 6940 1e59 cdc0 6fa4 8640 43cb 18bf
000000e0: b1ff 2dc0 83f8 af40 1982 1a40 202b ec40
000000f0: 28a5 60c1 e502 2641 95f9 cbc0 8619 96c0
3.0655174 3.6198206 22.207407 9.577858 -7.528384 -11.914508 0.035740677 -13.503896
-1.705548 10.917983 0.025790576 0.0100951465 -2.1151824 5.7115083 16.388239 0.76608884
8.74706 10.389992 5.696113 -20.500889 -11.771778 15.525661 -14.815356 4.6978407
-9.035467 2.0665052 -7.5004067 15.472157 -1.6503698 9.94701 12.383721 7.930011
4.292335 7.5029945 -14.774 -8.35195 2.8625808 -5.0044966 -9.72062 -22.00887
7.562508 15.808531 4.607446 16.3918 -13.628768 -20.394646 9.746328 19.429705
-4.075004 -6.2661457 -11.348087 9.420259 3.6472769 -6.4171286 4.2075725 -0.5968515
-2.7187312 5.499086 2.4141905 7.3802643 -14.040321 10.375707 -6.3742166 -4.6906157

fc1_bn.running_var f4 [64]
00000000: 978c ad42 eb44 1e43 ffba cd42 f576 8a43
00000010: 0d67 5e43 4d72 b243 5840 3e42 4c26 bf42
00000020: 69d0 7242 8458 9142 3ef1 2c41 2f9f 6442
00000030: f770 6a42 0871 7742 b4ed 0043 a090 9842
00000040: 810d 8443 67db 6e43 ff9a 9043 b1bc 3943
00000050: 45cb 9543 4bf2 a842 3709 b342 1d52 3243
00000060: 2b0d f441 0b00 0941 6f45 9243 ee53 9b42
00000070: 3818 2743 0f8f 8d43 2caa cb41 54bd 9543
00000080: 3616 1444 9bae 9c43 f756 5d42 75e4 1444
00000090: ae25 4143 c6ac 3a42 c99c a242 6ac7 1a43
000000a0: 6b51 4743 e12d d342 19d8 fb42 6a82 fd42
000000b0: 115a 4843 f845 1b43 0cd0 a242 1cee 0a43
000000c0: ca2b 9a43 fd1b 9343 8e77 c843 89cf 3e43
000000d0: 92ee 0b43 0901 8543 c9cc b242 fa5d fa42
000000e0: a964 6e43 f8b9 3e42 e5e0 2e43 4eab 1d43
000000f0: 9661 9d43 c743 9442 3506 4a42 7c42 8943
86.77459 158.26921 102.86523 276.92935 222.40254 356.89297 47.562836 95.5748
60.703526 72.67288 10.808897 57.155453 58.610317 61.860382 128.92853 76.28247
264.1055 238.85704 289.2109 185.73708 299.58804 84.47323 89.518 178.32076
30.50643 8.5625105 292.54245 77.663925 167.0946 283.11765 25.458092 299.47913
592.34705 313.3641 55.334927 595.56964 193.14719 46.668724 81.30622 154.77896
199.31804 105.58961 125.922066 126.754715 200.35182 155.27332 81.40634 138.93011
308.3421 294.21866 400.93402 190.81068 139.93192 266.0081 89.39997 125.18355
238.3932 47.68161 174.8785 157.66916 314.7624 74.13238 50.50606 274.5194

fc2.weight f4 [64, 64]
00000000: 1a5e ee3e 4e43 ddbe 111f 10bd 9c51 2e3f
00000010: 13ee 27be 69a3 543e 3d21 cc3c 66f3 5c3d
00000020: a7b3 6a3e 5b4f 263f 5826 b5bd 6349 0cbf
00000030: 6ed7 4fbe b0bb 8abe cf52 ad3e 51f1 a6be
00000040: 234b 873c bf70 af3e 9681 7b3e 1964 b73e
00000050: 269b fdbe 15a6 a2be af25 a93e ab91 fe3e
00000060: 1e68 11bf 51b8 d0be 6e7c 87bd 7549 ecbd
00000070: e9fd 01bf ac4f b13d 5bb0 1cbe 1417 adbe
00000080: e214 0abf b7b0 a83e d6d8 963e b861 93be
00000090: 0fac 96be a450 d53e 5513 cb3e c61c df3e
000000a0: d6be 03be 74f9 6a3e 0275 2e3e 15f6 443e
000000b0: d587 903e 6d99 8e3d 202e 0d3f f2bb a43d
000000c0: f5ee 9dbe d98d 5c3e 2076 023d 9add 90be
000000d0: 8f4e 323e f0cc 863e baad 21bf 5a02 a6be
000000e0: d10d e03d d689 91be 57ba d6ba 40de 30bf
000000f0: 4138 3bbe b42d bdbe 299b a9be 2173 453e
00000100: 2709 11bf 5ec1 e83e 5ba8 80be acde 883e
00000110: 824a a7be 7799 053e b36d f4be 7ae6 8a3e
00000120: b4fb 6ebc 713b 8dbe 3453 863d 6849 6c3d
00000130: b25a 20bd 0d99 10bf b935 acbe 0033 6abe
00000140: 9b52 51bd e7b4 b5bd 768c 08be d992 0d3e
00000150: beb6 1e3e ed2b 1a3e 4884 86bf 7d0f 13bd
00000160: d33e c73d bebf 773e eedd 1c3d baa4 273f
00000170: a20a 773e 6b74 f3be 69e5 73be ae77 1cbd
00000180: 5cca 8a3e 3130 ba3e 8ccc 98be f0ba 08bf
00000190: 41b0 1b3e a0f9 cbbd d0f8 1e3f 405b 57bf
000001a0: 6349 073e 94cb b5bd 2615 123f cf07 103f
000001b0: 65e7 60be 1b07 f3be e258 653e 0eb2 7fbf
000001c0: e4c3 b4be 5366 ab3c 6c2f 93bd bb4e 763c
000001d0: eed8 3c3d 0dca 823e 3641 28bf f41d 12bf
000001e0: b81f 4ebe 432c a5be 5877 dc3e 1faf dfbe
000001f0: 9b12 1f3e e865 00be 55f7 01be 2224 d2bd
00000200: ac32 aa3e 82b7 043f 8dad 07be b801 393e
00000210: 66fc 36bc f5d0 b53d 225a b9bd ef76 d03e
00000220: 6103 5a3e 1ea7 7fbf 76cb 013f 7f4d 84be
00000230: f1f3 e43b fc1d 05be dbca 873d f244 4cbe
00000240: c2f5 32be e407 cfbe 6ce2 833d fa38 033e
00000250: ec74 02bf 8f14 82be 1552 6dbe 58e3 1f3e
00000260: 6af6 e13d 1caf a03e d95d 593e fe6c e8bb
00000270: f11e a23e b59b bc3d 82b8 fa3d fc88 333e
00000280: 4ac7 58be 08d1 ef3d 0c86 503e f8fd c4be
00000290: 59b2 aabc 0460 8d3d 5107 bfbe a5d9 a23d
000002a0: 8023 223c 9afc 1cbe 39f7 ce3e 2745 843e
000002b0: 9cde 943e c630 333e 4c9a f23b 34c8 75be
000002c0: 5fff 373e 0c11 553e adde 49bf 0963 263d
000002d0: a28f 0b3f 64fc 2e3e 7379 92be 0898 25bf
000002e0: e24c 5e3f 3f1a 06bd 174f 3bbe 0e54 b33c
000002f0: eaf7 babe 3d83 6b3d 2f7f 453e 4a05 3bbd
00000300: 29ba 3f3b 281f 913e 2d92 063e b496 293f
00000310: 0038 063e 183e b93e 5ef5 913e 25eb fcbd
00000320: a336 2a3e 8925 74bd e1c3 b4be cfe0 01bf
00000330: 7db1 b0bd ec2e 103e d02d 8e3e 5dda 0e3e
00000340: 119f 093e c36a 48bb f7b2 4ebf 1819 f5be
00000350: d424 773d 832e fb3d ec6b a4be 2803 663e
00000360: dd9a 863c 1242 aabe da6e fa3e ef36 bebf
00000370: 9fa3 c0bc b17e 593e 237f 883e a041 c6be
00000380: 0bc1 5a3f fc8c 13be 62f0 3abf b7d2 663f
00000390: a3a7 0b3f 25ac 0fbf bf4e fd3d 9122 cfbe
000003a0: 7423 b93e 1366 31bf 4c4e c33e a2d4 4abe
000003b0: 7eb5 5b3e c3e5 38bf 195b d1be 66dd 00be
000003c0: 66d9 18bf c2f3 e83c 3daa 003f 285c dbbd
000003d0: 3a7f 343e 6334 4e3e 9b26 d33d 6cfa d33d
000003e0: 1115 83bc 1942 4c3f 5b14 84bf 6241 6c3d
000003f0: ed19 903e 13e0 363e 513d 62be f215 9bbe
0.4655617 -0.43215412 -0.035185877 0.68093276 -0.16399412 0.20765461 0.024918193 0.05394306
0.22920094 0.64964837 -0.08845204 -0.5479948 -0.20297024 -0.2709632 0.3385224 -0.32605985
0.01651532 0.34265706 0.24561152 0.35818556 -0.4953243 -0.31767336 0.33036563 0.4972051
-0.56799495 -0.40765622 -0.0661553 -0.11537448 -0.5077806 0.08657774 -0.1530165 -0.3380667
-0.53938115 0.32947323 0.29462308 -0.2878549 -0.29428145 0.41663086 0.39663187 0.4357664
-0.12865767 0.22946721 0.17036822 0.19234498 0.28228632 0.069628574 0.55148506 0.0804366
-0.30846372 0.21538486 0.031850934 -0.2829407 0.1741278 0.2632823 -0.6315571 -0.3242367
0.10940135 -0.28425473 -0.0016382438 -0.69089127 -0.18283178 -0.3694893 -0.3312619 0.192822
-0.5665459 0.45460027 -0.25128445 0.26732385 -0.32674032 0.13046823 -0.47739944 0.27128965
-0.014586378 -0.27584413 0.065588385 0.057687193 -0.039148994 -0.56483537 -0.33634737 -0.22871017
-0.05110417 -0.08872395 -0.13334832 0.13825549 0.15499398 0.15055819 -1.0509119 -0.035903443
0.0972878 0.24194238 0.038297586 0.6548573 0.2412515 -0.47549757 -0.23817982 -0.038200073
0.27107513 0.36364892 -0.29843557 -0.53410244 0.15203954 -0.099597216 0.6209841 -0.8412361
0.13211589 -0.0887672 0.5706352 0.56261915 -0.2196327 -0.4746636 0.22397187 -0.99881065
-0.35305703 0.020922815 -0.071867794 0.015033419 0.046105318 0.25544778 -0.65724504 -0.57076955
-0.20129287 -0.32260332 0.43059802 -0.43688294 0.15534441 -0.12538874 -0.12692006 -0.10260798
0.33241785 0.5184251 -0.13249798 0.18067062 -0.011168575 0.08877746 -0.090503946 0.4071574
0.21290351 -0.99864376 0.5070108 -0.25840375 0.006987088 -0.1299972 0.066304885 -0.19948176
-0.17476562 -0.40435708 0.06439671 0.12814704 -0.5095966 -0.2540631 -0.23175843 0.15614069
0.11033328 0.31383598 0.21227206 -0.007093071 0.3166423 0.09209386 0.12242223 0.17532724
-0.21169773 0.117097914 0.20363635 -0.38475013 -0.020836996 0.06903079 -0.3731027 0.07951669
0.009896159 -0.15330735 0.4042299 0.2583401 0.29076087 0.17499074 0.0074036475 -0.24002153
0.1796851 0.20807284 -0.788554 0.04062179 0.5451604 0.17088467 -0.28608283 -0.64685106
0.86836064 -0.032739874 -0.18291889 0.021890666 -0.36517268 0.057498205 0.19286798 -0.04565934
0.0029255247 0.28344083 0.13141699 0.6624558 0.131073 0.36180186 0.28507513 -0.12349538
0.16622405 -0.05960611 -0.35305694 -0.50733656 -0.08627603 0.140804 0.27769327 0.13950486
0.13439585 -0.0030581213 -0.8074183 -0.47870708 0.060337856 0.12264731 -0.32113588 0.22462142
0.016431266 -0.33253533 0.48912698 -1.4860514 -0.02351552 0.21239735 0.26659498 -0.38721943
0.8545081 -0.1440925 -0.73023045 0.90165275 0.5455267 -0.56122047 0.12368535 -0.4045606
0.3615986 -0.6929638 0.38145673 -0.19807675 0.21455953 -0.7222559 -0.40889814 -0.12584457
-0.59706724 0.028436545 0.50259763 -0.10710937 0.17626658 0.20137171 0.10310098 0.103504986
-0.016001256 0.79788357 -1.0318712 0.05767954 0.2814478 0.17858915 -0.22093703 -0.3029018

fc2.bias f4 [64]
00000000: 4c68 f6bd 5767 8c3d baa6 9dbd c673 6a3d
00000010: fba6 ae3d f203 2abd 01c0 973d 0a15 693c
00000020: 5a6c 1abd ed51 db3b 086d 3f3d d024 843d
00000030: 7429 95bd 2ed9 c03d 6e32 6cbd 2ada dbbd
00000040: cae8 62bd 812d dcbd a169 093d 242b 0d3c
00000050: 758e acbb 49b1 adbd 635f 893d 8d43 863c
00000060: f6b0 06bd bb30 ae3c 1fe6 303d 9a58 97bd
00000070: c751 0abd 702e 67bd 91ea e53d 69bd ec3c
00000080: 51e9 c5bd 63b0 bb3d 8cc8 95bc b0ef e23b
00000090: 4494 8b3c f7ab 6dbc fb1d eb3d b7bd 573d
000000a0: bee1 f43c 4221 41bd b1a5 f83c 4c66 babd
000000b0: 9e51 31bd 3f78 843d 7422 ffbd 2954 3fbb
000000c0: 48df 34bd 4888 773d c663 a1bd 8bd4 ae3c
000000d0: c88c 0cbd 111f d23d d55e a4bc 461b b7bd
000000e0: 7b7f 1bbd 385f b53d 1c9e 423d 4a6c e23c
000000f0: ab82 9e3d 02ae 4b3d 3450 74bc 08de 7bbd
-0.12031612 0.06855648 -0.07697816 0.057239316 0.08527943 -0.04150767 0.07409669 0.0142262075
-0.03770099 0.006693116 0.04673484 0.06452334 -0.07283297 0.09416424 -0.05766528 -0.10734971
-0.055397786 -0.10750867 0.033548 0.008616243 -0.0052660056 -0.0848108 0.06707647 0.016389633
-0.032883607 0.02126347 0.04318821 -0.07389946 -0.033769395 -0.05644077 0.112263806 0.028898912
-0.09663642 0.091645025 -0.018284105 0.0069255456 0.017038472 -0.014506332 0.11480328 0.05267116
0.029892799 -0.047150858 0.030352445 -0.09101543 -0.043290727 0.064682476 -0.12457743 -0.002919445
-0.04415825 0.060432702 -0.078803584 0.021341583 -0.034313947 0.10259832 -0.02006475 -0.08940749
-0.03796337 0.08856052 0.047514066 0.027639527 0.07739767 0.049726494 -0.0149117 -0.061491042

fc2_bn.weight f4 [64]
00000000: 9fef 843f 9c0d 0240 e407 0c40 211d ee3f
00000010: 70fe 983f 5eb5 1c40 039f ba3f d98b ca3f
00000020: 411f 0040 7b3b 0240 c441 c33f e08a ba3f
00000030: 320f fd3f 8a48 c63f 99c2 2940 d1de e73f
00000040: 932d 0840 1466 bb3f 07fb a93f da2e 0740
00000050: 321d 0140 9a08 fb3f 51a8 0340 be3b 2c40
00000060: 793b 1d40 652a d63f bd6f f93f 4d03 cf3f
00000070: d85f d23f 30e9 0040 4c74 b13f 05dd eb3f
00000080: 4187 e33f 1da4 d23f 5830 1040 51f8 2b40
00000090: 8ada ac3f 0cc4 b93f 8702 bc3f 5440 1040
000000a0: 053f 1940 1566 4040 2e4b bd3f 1834 1a40
000000b0: 6842 b83f 4282 d33f b472 ea3f 4f1b d93f
000000c0: 9c63 1a40 b2f3 d23f 2e99 f23f 47be e33f
000000d0: 6da2 ab3f 420e fb3f 3f2c df3f 1d29 eb3f
000000e0: cc94 d23f 07bd c23f a3c0 0f40 444d 0040
000000f0: fc87 0740 c49c ab3f e4f5 ec3f f8bb dd3f
1.0385627 2.0320807 2.1879816 1.860264 1.1952648 2.4485698 1.4579777 1.5823928
2.0019076 2.0348804 1.5254445 1.4573631 1.9770262 1.5490887 2.6525023 1.8114873
2.1277816 1.4640527 1.3279732 2.1122346 2.017407 1.9612 2.0571482 2.6911464
2.456755 1.6731688 1.9487225 1.6172882 1.6435499 2.0142326 1.3863616 1.8426825
1.7775651 1.6456333 2.2529507 2.687031 1.3504193 1.4512954 1.4688271 2.2539263
2.3944714 3.0062306 1.4788568 2.4094296 1.4395266 1.6524127 1.8316255 1.6961459
2.4123297 1.648062 1.8952997 1.7792443 1.3408943 1.9613726 1.7435378 1.8371922
1.6451659 1.5213937 2.2461326 2.004716 2.1176748 1.3407216 1.851254 1.7322989

fc2_bn.bias f4 [64]
00000000: aa1a 5cbe 5cd3 b4be 6d1a 3cbf cc70 84be
00000010: ef91 24bf 0b84 a4be 212e 99bf 52a4 f3bc
00000020: 2886 09be 539f b93e bf2b 11be 7823 10bf
00000030: 23ca ddbe a084 abbd 1d43 aebe 4dfa 11bf
00000040: c3d6 3fbf 2437 12bf 780f 0abf 2a69 2ebf
00000050: 1acb a33e 319f dbbf 6abe 14be e8ac 82bf
00000060: f987 edbd 88a7 3cbf b5e6 0fbf f99d 2ebf
00000070: 78ed 2abf 4f49 b3be 3f12 04bf 3be1 2cbf
00000080: 584b 6abe 1422 b3bf db7e 3ebf d101 cdbe
00000090: 7194 ea3d f6da 20bf c6a8 92be bbbb a9bd
000000a0: 22c7 bfbf 7f51 b63d 4001 d0be 1c39 0fbf
000000b0: cbfa 5ebf a81e 12bf 6649 babf dffb 17be
000000c0: b626 23be a653 b7be d18a 96be e6a8 edbe
000000d0: 69f0 80bf 9be3 33be d764 aabe 3454 7fbe
000000e0: 38f3 46bf cc6c a2bd b9f1 7cbe ecf2 6abe
000000f0: 6b3e 2bbf 54b5 3ebf a759 ffbe ce25 53bd
-0.21494547 -0.35317504 -0.7347782 -0.25867307 -0.64285177 -0.3213199 -1.1967202 -0.02974144
-0.13430083 0.36254367 -0.14176844 -0.5630412 -0.4331828 -0.083749056 -0.34035578 -0.57022554
-0.74937075 -0.5711539 -0.53929853 -0.6812922 0.31990892 -1.7157956 -0.14525762 -1.0209017
-0.115982 -0.7369313 -0.56211406 -0.682098 -0.667686 -0.35016868 -0.5159034 -0.67531174
-0.22880304 -1.3994775 -0.74412316 -0.40040448 0.11454094 -0.6283411 -0.2864439 -0.0828776
-1.4982646 0.08902263 -0.40625954 -0.55946517 -0.8710143 -0.5707803 -1.455365 -0.14842175
-0.15932736 -0.35806006 -0.29402784 -0.46417922 -1.0073367 -0.17567293 -0.3328006 -0.24934465
-0.7771487 -0.079309076 -0.24701585 -0.2294423 -0.6689212 -0.74495435 -0.49873087 -0.051549725

fc2_bn.running_mean f4 [64]
00000000: 5160 f5be c733 0fbf d467 10bf ca72 e03e
00000010: 179a 073f 3ee7 b3be ecac da3c 3fbf 3d3f
00000020: bab8 d1be 8169 1c3e f6de d43e e470 c5bd
00000030: caa0 9a3e 58b7 453e 9f2d d53d 2950 22bf
00000040: c8ab cf3e 4e92 fbbe 987b 1bbe 8bc7 03bf
00000050: 2e05 683e 037b 023f 718f 0cbf 6e45 f83c
00000060: fc6e 0dbf 5268 373f 3c64 0bbe 315f 5fbe
00000070: 50c7 fa3e 037f 2fbf 9721 523f cef0 a2be
00000080: 86f9 5dbe 2fa5 a93e 67c0 3b3f f3ff a3be
00000090: c4e1 4cbe cec6 54bd 1b39 193e 7f3d d83e
000000a0: 86ee da3e 6ee9 453d f6ce 0c3e 6a40 21bf
000000b0: 5cf8 7e3e c273 013e 2db2 d23c 9efd 263f
000000c0: dab6 b5be 69c6 363d 8a30 96be b32d 293f
000000d0: 1828 2e3f ddad 663e d44f 533f a9a3 1c3e
000000e0: ed91 48bd 8259 ee3c 1ae8 bdbe 982b debe
000000f0: 50cd 103f 2ce9 bb3e c065 f2bb a42b c2be
-0.47925046 -0.5593838 -0.5640843 0.43837577 0.529695 -0.3513736 0.026693784 0.74119943
-0.40961248 0.15274622 0.41576356 -0.09640673 0.30200797 0.19308221 0.10409092 -0.63403565
0.40560746 -0.4913506 -0.15183866 -0.51476353 0.22658226 0.5096895 -0.54906374 0.030306544
-0.55247474 0.71643555 -0.13612455 -0.21813656 0.48980188 -0.6855318 0.82082504 -0.31824344
-0.21677217 0.33133838 0.7334046 -0.3203121 -0.20007998 -0.051947407 0.1496319 0.42234418
0.42760104 0.04831832 0.13750824 -0.62988913 0.24899429 0.12641814 0.025719726 0.6523074
-0.35491067 0.044622812 -0.29333907 0.66085356 0.6802993 0.22527261 0.82543683 0.15296806
-0.04896729 0.029095415 -0.37091142 -0.43392634 0.5656328 0.36701334 -0.0073973835 -0.3792392

fc2_bn.running_var f4 [64]
00000000: 292f 423f 1bf6 8a3e 67f5 4b3f 9f3e c43e
00000010: 0c08 c53e 4e6f 513e 8313 b53e 0a91 c33e
00000020: 6834 aa3e 45e4 483f cf9e 9a3e 0fe5 603e
00000030: b028 043f 5c9a 9b3e e21a d93e e5cc a23e
00000040: b1fa 723e 58a3 9e3e 0998 aa3e 29d6 ad3e
00000050: 19dd 453f 98a1 4b3e 87ad f73e a84e 1d3e
00000060: b423 8d3f 901a 8c3e 4c83 323f c329 f63e
00000070: a5dd 813f ad5a c33e 46fb 813e 4641 713e
00000080: 9106 3a3f 787e 093f 7ccc 9e3e e3cc bf3e
00000090: a450 9c3e 3116 883e ef50 db3e b231 923e
000000a0: 24b0 ec3e 5b38 593f 96d8 2c3e 97fe 473f
000000b0: 20ae c73e d2be f13e 2696 af3e 2855 a53e
000000c0: da93 d03e d89e 3b3f 903c af3e decd de3e
000000d0: 01ca cb3e 4f99 673e fbe2 a53e 8cde 1b3f
000000e0: 1dd2 bf3e e057 d83e b87b b43e afcb e03e
000000f0: 25ea ae3e 8d9c 853e d17a a33e d667 b73e
0.7585321 0.2714089 0.7967133 0.38329026 0.38482702 0.20452616 0.3536645 0.38196594
0.33243108 0.7847331 0.30199286 0.21962379 0.51624584 0.30391204 0.42403322 0.31796947
0.23728444 0.30983996 0.3331912 0.33952454 0.77290493 0.19885862 0.48374578 0.15362036
1.1026521 0.27364016 0.69731593 0.48078737 1.0145766 0.38155118 0.2538702 0.23560056
0.7266627 0.537086 0.31015384 0.37461004 0.30530274 0.2657943 0.42835185 0.2855354
0.46228135 0.84851617 0.16879496 0.7812285 0.39000034 0.47215897 0.34294242 0.32291532
0.40737802 0.7328925 0.34225893 0.4351644 0.39802554 0.22617076 0.32399735 0.60886455
0.3746499 0.42254543 0.3525064 0.43905398 0.34163013 0.26096 0.3192964 0.35821408

fc_out.weight f4 [2, 64]
00000000: 8e26 3b3f a908 f43d 547e 8f3f 332e 053e
00000010: ed3b 4ebf e1ed cfbd 1095 553f 0c44 a53e
00000020: ff8d 14bd 3997 313f e525 e8bd 2b9c 51bf
00000030: 776b b6bf 7806 da3e 89cb 9a3d 89e4 82bf
00000040: 3ba1 f4bf 9b5c 843f cfc7 4b3f 90ac 1abf
00000050: 9a4b c23e eebe 1ec0 9645 12bf 9cb0 b4bf
00000060: 2d16 a33f 875a 67bf 1a5d 863f 9bcf 0c3f
00000070: 2620 6dbf cfc2 963e bb27 96be d374 a6bf
00000080: 6b7e 6bbf c15e e03f bee3 a03e 6871 69bf
00000090: b134 09bf 25df 4f3f 7966 7e3f 7c28 0e3e
000000a0: d2f4 0540 a1f2 933f 5e34 1dbe fe62 b9bf
000000b0: df51 0040 e3ef 6cbf 31d4 ad3f bb0b 07be
000000c0: e713 753e 6dee 90bf 9fda 8dbf 6a7e a5bf
000000d0: f674 91bf 8d3b 353f e31e af3f 0525 813f
000000e0: 55d4 33be 1e85 1ebf 3a02 e8bd de23 bb3f
000000f0: 977a b8bd e04f 89bf 76a6 81bf b864 07bf
00000100: fd4b 70bf 9add 80bf 8ef5 85be 11b3 0140
00000110: 6b4e 17bf 4229 d1bf fb7e 833f 9304 813f
00000120: b2bc d83f 8f18 67bf 8b1f d4bf cf82 f0be
00000130: 49fc 8c3c fa45 983f adce 00c0 8d1c 563e
00000140: f1f0 0fbf 5caa 7dbe be74 8e3e 9bdc 6e3f
00000150: 4668 773f ae39 b73f 8353 eabe 4cd6 be3f
00000160: 957c 863f 5177 553f 1468 3b3f dd73 b83f
00000170: ee0e b4be f11a 79bf bce8 2dbf 9f08 2abf
00000180: 0542 c1bf fbe2 053d 2fdf bdbf 53bf da3f
00000190: 5b49 06bf 4623 913e b1fc 2b3e 0b5a aebf
000001a0: 401e 133f 51a7 90bf 58c9 0540 eb32 c23f
000001b0: 7ffa e3be 8dea f13d a69f bebe 3f04 c03f
000001c0: b395 d03f 697a b53e 6bef 09c0 3e76 2bbf
000001d0: 0eff 853c 5b01 86bf daf8 7f3f 063b 1cbc
000001e0: cb2d d9bf 2735 393f 9637 ebbf 049a 393f
000001f0: 153b edbf af51 acbd 65c8 73bf 7baa 983f
0.73105705 0.11915714 1.1210427 0.13005905 -0.8056019 -0.10152794 0.83430576 0.32278478
-0.03626823 0.6937137 -0.11335353 -0.8187892 -1.4251546 0.4258306 0.075583525 -1.0225993
-1.9111704 1.0340761 0.7960176 -0.6041956 0.37948304 -2.4804034 -0.5713743 -1.4116397
1.2741143 -0.9037251 1.0497162 0.5500428 -0.9262718 0.29445502 -0.29327187 -1.3004402
-0.91989774 1.7528917 0.31423753 -0.9118867 -0.53596026 0.81199867 0.9937511 0.13882631
2.0930676 1.155842 -0.15352008 -1.4483335 2.004997 -0.9255354 1.3580381 -0.13188069
0.23933373 -1.1322762 -1.1082343 -1.2929204 -1.1363819 0.7079399 1.3681301 1.0089422
-0.17561467 -0.6192187 -0.1132855 1.4620321 -0.09007757 -1.0727501 -1.0128925 -0.5288806
-0.9386595 -1.0067627 -0.26163906 2.0265543 -0.5910403 -1.6340716 1.0273126 1.0079521
1.6932585 -0.9027185 -1.6572126 -0.469748 0.017210143 1.1896355 -2.0126145 0.20909329
-0.5622702 -0.24772018 0.27823442 0.9330537 0.96643484 1.4314477 -0.4576684 1.4909148
1.050677 0.8338519 0.73205686 1.4410359 -0.3516764 -0.97306734 -0.6793325 -0.66419405
-1.5098273 0.03268717 -1.4833735 1.7089638 -0.5245568 0.28347224 0.16795613 -1.3621229
0.5746803 -1.1301061 2.090414 1.5171789 -0.4452705 0.11812315 -0.37231177 1.5001296
1.6295685 0.35444954 -2.155238 -0.669773 0.016356971 -1.0469164 0.9998909 -0.009535557
-1.69671 0.7234673 -1.8376338 0.72500634 -1.8533655 -0.084140174 -0.9522765 1.1927027

fc_out.bias f4 [2]
00000000: 68cd ad3d bc23 663d
0.08486444 0.056186423
