checkpoint_critic_target_0.pth (torch_old, 51114 bytes, 15 tensors)

fc1.weight f4 [64, 48]
000000 31 1b 49 be fa 63 ad be 27 a3 0f bd 31 a1 9f bd
       -0.19639279 -0.3386534 -0.035067704 -0.07794417
000010 7d c8 41 3f c6 2a a6 be c0 13 3a 3d a5 a6 0b 3e
       0.75696546 -0.3245451 0.04542899 0.13637789
000020 d1 01 05 be b3 bf 36 3e 13 1d c6 3d 42 c0 d1 3b
       -0.12988974 0.17846565 0.09673514 0.0064010927
000030 5a fe 8c 3d 06 79 1e 3d 68 0b de bd b4 54 96 bd
       0.06884451 0.038689636 -0.10842019 -0.073403746
000040 27 23 c2 3e ba 38 32 3f fb 60 75 3c ca 16 d0 3d
       0.37917444 0.6961781 0.014976735 0.10160597
000050 13 9c b6 bf 09 be 4c 3f d9 de 02 bd 79 46 f1 3d
       -1.426638 0.7997747 -0.031950805 0.1178102
000060 76 b8 75 bd 73 21 c2 be a2 19 9b 3d f1 a5 01 bd
       -0.05999037 -0.37916145 0.075732484 -0.031652395
000070 e8 b7 3e bf 69 50 14 be 4c 09 a9 bd 08 48 5d bd
       -0.7449937 -0.14483799 -0.08253726 -0.054023772
000080 d7 10 bb bd 59 8b 74 bd df bf a1 3c 8b e6 a0 3c
       -0.09134071 -0.059703205 0.019744812 0.019641181
000090 50 6f 7c bd 9d 22 3c 3d 3c 32 bc bc 49 27 8f bd
       -0.061629593 0.045931447 -0.022973172 -0.06989915
0000a0 15 68 97 3d 6b 23 8b 3d 21 dd 10 3d 39 d8 7c bc
       0.07392899 0.06793865 0.035367135 -0.015432411
0000b0 9b 0f b4 3f 3c 26 4a 3f 04 d8 de bc f4 25 39 bd
       1.4067262 0.7896459 -0.027202614 -0.04520221
0000c0 6a b3 9a 3e 0a 02 f9 3d 58 1f 5f bd be 03 c4 3e
       0.30215007 0.12158592 -0.05447325 0.38284105
0000d0 a1 50 08 bf 3a 3e 86 be b9 d5 e3 3c d6 e6 72 3e
       -0.5324803 -0.2621935 0.027811872 0.2372087
0000e0 5e 65 4f 3d 9f 5b 25 3f d8 44 b0 bc 57 75 41 3f
       0.05063378 0.6459293 -0.021517202 0.7556967
0000f0 81 26 ad bd 1d a4 c6 be b2 54 60 3d d4 15 38 3f
       -0.0845461 -0.38797083 0.05476827 0.7190831
000100 4d 61 0e bc aa d9 6e 3f 93 25 d7 bc f5 50 78 bf
       -0.0086901905 0.9330088 -0.026263034 -0.9699853
000110 e2 16 89 3d b5 16 3c 3e ce d2 fd 3d af 37 50 bf
       0.06693818 0.18368037 0.123937234 -0.81334966
000120 15 1c 49 be 18 d5 02 bf b6 47 27 3d 18 e2 ab be
       -0.19639619 -0.51106405 0.040839873 -0.33570933
000130 f2 e4 e2 3e d4 54 d9 be 78 8f 89 bc 42 f2 cc be
       0.44315296 -0.4244753 -0.016792044 -0.40028578
000140 e0 ad 12 3e ec 50 13 bf b7 08 c9 3c 64 2d f6 bd
       0.1432414 -0.5754535 0.024540288 -0.12020376
000150 59 52 ba 3d 5b f1 c3 be 51 34 a8 bd 88 64 2a be
       0.09097738 -0.38270077 -0.082131036 -0.16639912
000160 b3 85 94 3e 40 38 13 bf 51 95 90 3d fd 5a 8c 3e
       0.29008254 -0.57507706 0.0705973 0.2741317
000170 f9 68 a6 bd 8b 09 cd 3e e1 2b ea bd 46 d2 9b 3e
       -0.08125491 0.40046343 -0.114341505 0.30433863
000180 45 38 0c be 18 77 03 be c5 2a e7 bb 0c bd a8 3d
       -0.1369334 -0.128384 -0.007054659 0.08239183
000190 7b 8e 84 bf c9 26 d8 be 98 0e e1 3c 5b 83 fa bd
       -1.0355982 -0.4221709 0.02747278 -0.12232085
0001a0 fb ad 3e 3e 42 0f f3 be a7 2a 91 3d 0a ad 54 be
       0.18621056 -0.47472578 0.070882134 -0.20769134
0001b0 da 6f 2c bf 6e c9 ce 3e 65 18 ac bd 5d 6b 71 bd
       -0.6735817 0.40388054 -0.084030904 -0.05894028
0001c0 15 91 0c 3f 40 2b de bd db b4 69 bd 0f 20 56 3e
       0.5490888 -0.10848093 -0.057057243 0.20910667
0001d0 c4 10 f4 3e 2a 2c 2e 3f 8a 3e 2a bb 17 77 c0 3d
       0.4766904 0.6803614 -0.0025977218 0.093977146
0001e0 e0 b3 19 be cb 04 d9 3e c2 66 21 bd 01 15 fb 3c
       -0.15010023 0.4238647 -0.039404638 0.030649664
0001f0 87 4d 8e 3f b3 fa 0d bf 59 db 80 3c da 2d 1a bd
       1.111741 -0.5546066 0.015729593 -0.037641384
000200 3f 14 ae 3e 09 21 8f 3e 57 b1 9e bc 43 fc 2a 3d
       0.33999822 0.2795489 -0.019371672 0.04174448
000210 24 ad 22 3f e0 2c 50 3e 05 c0 8c bc 42 48 40 bc
       0.6354544 0.20329618 -0.017181406 -0.011735978
000220 a9 83 d4 3e e4 47 84 3e 96 43 62 3d 24 d2 07 3e
       0.415067 0.25836098 0.055240236 0.13263756
000230 64 a5 a6 be c3 88 5d 3f be 62 68 bd 86 48 94 bd
       -0.32548058 0.86536807 -0.056734793 -0.07240395
000240 c0 32 c9 be f0 7b 13 bf 8f bc 59 3b 08 63 13 be
       -0.39296532 -0.5761099 0.0033223962 -0.14393246
000250 6a e3 ce be 40 19 c5 be cc b0 00 bc fa 2e 69 be
       -0.40407878 -0.38495827 -0.007854652 -0.22771826
000260 21 b3 95 bc fa 73 42 bf 83 e7 85 3d 9a ce 97 be
       -0.018273892 -0.75958216 0.06538298 -0.29649812
000270 9d 8f 52 3e 0f 9e cc be f2 55 c6 bd d0 26 c7 be
       0.20562597 -0.3996434 -0.096843615 -0.388968
000280 a9 fc 1a 3f 4f 1f b4 be 4d cd 36 3c 70 0c 4e be
       0.6054178 -0.35180137 0.011157346 -0.20121932
000290 f2 e9 95 3e a4 34 fa bd 5f cb 81 bd 0c 99 48 be
       0.2928005 -0.12217072 -0.06337618 -0.19589633
0002a0 6a ab f2 3b fc d3 32 bf 58 61 a0 bd b8 eb 9f 3d
       0.007405688 -0.6985471 -0.07831067 0.07808632
0002b0 d1 a8 8f 3e d4 4a 8c be 3b 36 fa 3d ed 4b 6a 3c
       0.28058484 -0.2740084 0.12217375 0.014300329
0002c0 e7 6c 9b be a4 67 0d bf 72 f9 81 bd 9a 60 69 3e
       -0.30356523 -0.5523627 -0.06346406 0.22790757
0002d0 5a dd 9d be fe 5b b7 be 68 93 ee 3d 70 a4 9c 3e
       -0.3083294 -0.35812372 0.11649209 0.30594206
0002e0 16 8e bd be 25 63 9e be 07 01 7f 3d d9 e4 b0 be
       -0.37022465 -0.30935016 0.06225684 -0.34549597
0002f0 5d d1 a6 be 26 af 94 be 44 73 d2 3c ea d9 ec be
       -0.32581607 -0.29039878 0.025689729 -0.46260005
000300 e8 69 aa 3e 5a d3 d5 be 06 34 c2 bd 6d 3c 19 be
       0.33283925 -0.4176281 -0.09482579 -0.14964457
000310 34 be cf be ef 41 00 bf 2d 69 ab bd bc 58 25 be
       -0.405748 -0.50100607 -0.0836967 -0.1614713
000320 68 d4 f5 3e 78 0e b4 be 60 bc 66 be ee 73 04 be
       0.48013616 -0.3516729 -0.22532797 -0.12934849
000330 d0 4d 42 bd 7e 01 40 bf cb d8 0a bd 22 a1 dd bc
       -0.04743749 -0.75002277 -0.033898156 -0.027054373
000340 64 7c 4c 3f f9 af 52 be 38 1c a5 bd df b7 6a bb
       0.79877305 -0.2057494 -0.08062023 -0.0035815162
000350 d8 42 46 3e 40 e2 81 be 93 77 8d 3d 5f d5 32 3c
       0.19361436 -0.25367928 0.069075726 0.010915129
000360 56 ef 30 be 84 ff 4e bf f5 c1 f2 bd a9 23 32 be
       -0.172788 -0.80858636 -0.118534006 -0.17396416
000370 62 5e 8a 3e 0f ee bb be 09 b8 67 be f6 74 54 be
       0.27025133 -0.36705062 -0.22628798 -0.20747742
000380 fc 2d 15 be 6d 30 80 bf d7 d4 01 bd 40 11 de 3d
       -0.14568323 -1.0014778 -0.03169712 0.10843134
000390 38 ac db 3d 66 2f 3d bf 4c 40 c7 bc d7 10 82 bd
       0.107262075 -0.7390045 -0.024322651 -0.06350868
0003a0 5d 99 05 3d 42 b8 11 bf f5 50 d8 3d 98 03 39 3f
       0.03261696 -0.5692178 0.10562316 0.7227111
0003b0 38 c7 af bd 46 23 ed be 92 47 08 3d d0 91 23 3f
       -0.0858292 -0.46315974 0.03327138 0.6389437
0003c0 24 46 d5 bd 6a 45 f2 bd dc 63 69 bd f6 3b db 3d
       -0.10413769 -0.11829646 -0.05698 0.10704796
0003d0 d0 06 9f 3d 9b ad e3 3f 63 ec 6c 3d e0 d2 c2 bd
       0.07764971 1.7787355 0.057842623 -0.095128775
0003e0 ff 23 61 3c 18 db d0 bd 4c d9 90 bc 85 ea 8e 3d
       0.013741492 -0.10198039 -0.01768174 0.06978325
0003f0 97 0b a3 bd 6a 41 35 3f 02 ea d5 3b 1f 89 87 bd
       -0.07961195 0.7080294 0.00652814 -0.06617951

fc1.bias f4 [64]
000000 be c0 92 bf d1 d1 30 bf 64 2e cd bf c6 53 d3 be
       -1.146507 -0.69070154 -1.6029782 -0.41274852
000010 a1 f4 24 be 1d f4 58 40 a6 d3 09 bf e8 d0 89 3e
       -0.16108944 3.3898995 -0.53838575 0.26917195
000020 f6 88 20 bd ee c8 06 3e 62 3a db 3f ae c1 41 be
       -0.039193116 0.13162586 1.7127192 -0.18921539
000030 b5 e6 02 bf 1b d7 17 3e ad b3 f3 3d 9f 06 09 3f
       -0.5113328 0.1482815 0.11899505 0.5352573
000040 79 44 04 bf 71 41 d4 3e 95 ae 2e 3e 3b aa 2b 3f
       -0.5166698 0.41456178 0.17058785 0.67056626
000050 fa 6b a7 bd 44 a1 b9 3c 3e ba d7 bd 27 b7 b8 be
       -0.08174892 0.022659905 -0.1053357 -0.36077234
000060 f7 68 c1 bd 32 65 36 c0 b9 2a e5 bc 16 a1 60 3d
       -0.094438486 -2.8499265 -0.027974473 0.054841124
000070 fe ad 27 bf ae 5d 05 be f6 20 db 3e 81 16 4e be
       -0.65499866 -0.13024017 0.42798585 -0.20125772
000080 62 c2 b7 be 07 01 bd be da d2 46 3e 78 0c 0e 3e
       -0.3589049 -0.36914846 0.19416371 0.13871944
000090 b4 a8 44 bf de 00 a4 bd 81 f3 f2 be 62 50 0b bf
       -0.7681992 -0.08007978 -0.47451404 -0.5441953
0000a0 2e af 0c bf 81 81 1b bf 22 a2 1f bf 8f ce 17 bc
       -0.54954803 -0.6074448 -0.6235677 -0.009265556
0000b0 90 6e 95 be 34 52 95 bd e0 c7 80 be 97 aa 4b be
       -0.29185915 -0.072910696 -0.25152493 -0.19889294
0000c0 6a 56 df bd df 97 83 be 3a 2b 5b be 3d 4a 1d bf
       -0.10905154 -0.25701806 -0.21403208 -0.61441404
0000d0 f4 20 d4 3e 9c 85 31 be 66 08 26 3f 82 c9 ac bd
       0.4143139 -0.17336124 0.64856565 -0.08436872
0000e0 79 89 2a bf 87 29 4c bf 80 a4 a9 3d 2f 3a 2b 3f
       -0.66616017 -0.79750866 0.08283329 0.66885656
0000f0 77 08 a7 be b8 cb 3a 3e 19 3c 28 bf d2 a6 8c be
       -0.32623646 0.18241775 -0.657167 -0.27471024

fc2.weight f4 [64, 68]
000000 bc 7b f9 bd 95 8b bd 3d d5 ee 92 3d 9c 9f 0c bb
       -0.121818036 0.09255139 0.0717446 -0.002145744
000010 f5 78 34 bd 46 22 33 3e e1 cd 70 bd 8c 38 57 bd
       -0.044060666 0.17493543 -0.05879009 -0.05254416
000020 0b 1d ca 3d 8f 74 ce 3d f1 8f 47 be 6d 90 8f be
       0.09868821 0.100808255 -0.19488503 -0.28039876
000030 f8 a2 03 be bd 81 a6 3d f8 0d 1f be ee 62 5f bd
       -0.12855136 0.08130214 -0.15532672 -0.054537706
000040 ec af 46 3e 19 62 bb be b6 8c 7b 3e a4 da 1c 3c
       0.19403046 -0.3659828 0.24565396 0.009573612
000050 76 0f 1b bd 7a 93 d1 3d 44 32 45 bc 99 53 99 3d
       -0.03785654 0.10233207 -0.01203591 0.07486648
000060 3c 11 91 3d 78 d7 7a bd 02 6a d2 3d 0e 65 13 bd
       0.07083365 -0.061240643 0.10274126 -0.035985045
000070 3d d7 fc bd 6f 39 f3 bd 9f 18 4f bd 09 e1 ea bd
       -0.12345741 -0.11876189 -0.05056059 -0.11468703
000080 03 21 31 3c 64 de b4 3d 58 ce 2b be 19 46 14 3e
       0.010811093 0.0883148 -0.16777933 0.14479865
000090 fd e2 8d bd b2 c4 ae be 4f 29 c2 bc b4 ba 68 be
       -0.0692806 -0.34134442 -0.023701338 -0.22727472
0000a0 00 33 5b be af 4b 18 3e 6f 26 8e be ca b1 09 3e
       -0.21406174 0.14872621 -0.27763698 0.13446727
0000b0 fc 15 dc 3d 3e 59 90 bd 05 a5 8d 3d 06 a0 42 3e
       0.10746381 -0.070482716 0.069162406 0.19006357
0000c0 3d 1a 8e 3e 97 36 c8 3d 7c d0 14 3b 79 e4 0f 3d
       0.27754393 0.09776037 0.0022707274 0.035129998
0000d0 6c bf ad be be ae a2 bc 9e db a6 bd da f8 f9 3d
       -0.33935106 -0.019858714 -0.081473574 0.12205668
0000e0 a6 e9 cd 3e 97 51 25 be 3b 18 11 bc fe a9 93 be
       0.40217322 -0.16144405 -0.008855875 -0.2884063
0000f0 12 1b 87 bd 46 53 98 bd b7 c3 18 3e f9 db e1 be
       -0.0659696 -0.07437758 0.1491841 -0.44113138
000100 44 34 65 be 3d 36 90 3e 9d 85 83 40 e4 b4 0f 3f
       -0.22383219 0.2816638 4.11006 0.5613539
000110 9a f0 47 be af 5e 8e 3d bd 28 19 bf cc b4 50 be
       -0.19525376 0.06951653 -0.59827787 -0.20381469
000120 15 c0 43 3e fa 6c 18 3d 0d 70 db bd 75 f0 83 3e
       0.19116242 0.037213303 -0.10714731 0.25769392
000130 32 c5 98 be a9 8d c4 3d 43 b9 39 bf 9e 69 ec bd
       -0.29837948 0.09597332 -0.7254831 -0.115435824
000140 9a 04 81 3e 07 0a 59 3e 96 86 c3 bd dc 94 c0 3e
       0.25198823 0.21195231 -0.095471546 0.3761357
000150 58 b8 c8 3d 52 51 c4 bc ec db cb 3e f7 1f be be
       0.09800786 -0.023964558 0.39816225 -0.37133762
000160 e6 b9 7c be 94 7b c1 3d 3a 9c 30 3e 66 52 31 3d
       -0.2468029 0.09447399 0.17247096 0.043291472
000170 fd 05 9f 3e 1f 30 a9 bd 64 8f 99 3e 03 68 48 3e
       0.31059256 -0.082611315 0.2999221 0.19570927
000180 59 ae 66 bd fc e3 3e 3e b3 4c 36 be fe d3 82 3c
       -0.056318615 0.18641657 -0.17802696 0.015970226
000190 5f 47 77 3b dd 99 8e 3b 4a cd e5 3e 84 f6 f9 3d
       0.003773175 0.004351838 0.44883186 0.12205222
0001a0 1f 68 be bd a1 c5 85 be 6b 83 a3 3c 64 98 13 bf
       -0.09297203 -0.2612734 0.019960126 -0.57654405
0001b0 64 3b 26 bf b0 10 10 3e 19 f8 10 bf 85 22 0a 3f
       -0.6493437 0.14068866 -0.56628567 0.5395892
0001c0 d6 07 7a bd cd de 2b be 27 4b 53 3d da 52 84 3e
       -0.06104263 -0.1678421 0.051585343 0.2584446
0001d0 ec e2 a6 3e e7 23 15 bf 25 f8 05 bf 71 e5 34 be
       0.32595003 -0.5825791 -0.52331764 -0.1766565
0001e0 f1 0d 31 bd aa 5d 6c be 55 92 9a 3e b7 43 86 3e
       -0.043226186 -0.23082605 0.30189767 0.26223537
0001f0 4f 7b ac 3d 4b 49 4b 3e 0b 12 80 bd e5 4e fd bb
       0.08421957 0.19852178 -0.062534414 -0.007730352
000200 9c 38 84 bd ea 37 85 be 88 1f 25 bd 60 56 fd bc
       -0.0645611 -0.26019222 -0.040313274 -0.030924976
000210 d6 51 b5 ba 76 7c 9e bf df 1a 13 c0 22 88 73 3e
       -0.0013833593 -1.2381732 -2.298515 0.237824
000220 2e e0 76 bd ef a1 17 3e 93 fb e4 3d 8d 5a b4 3d
       -0.06027239 0.14807867 0.111807965 0.08806334
000230 cf 7f 3b 3c 5d d1 83 bd b4 d9 b8 3c 7f bc 17 3d
       0.011444046 -0.06436417 0.022564746 0.037045
000240 b7 ec 3d bb a2 83 f6 3d ef 08 75 3e 6e c2 5e 3f
       -0.0028980204 0.12036826 0.23929189 0.87015426
000250 0d 32 35 be 8d 40 a2 be 0d 91 2b bd 0e a8 91 3a
       -0.17694874 -0.31689873 -0.041886378 0.0011112706
000260 d0 16 62 3d ea 5c cc bd cd 77 b5 bd 02 29 85 3e
       0.055197537 -0.099786595 -0.08860741 0.2600785
000270 f8 67 1d be 2c fb 68 be 1f ab 30 3d 65 65 8e bc
       -0.15371692 -0.22752064 0.043131944 -0.017382333
000280 55 01 17 3d 6a 2b 3c 3d eb a5 d1 bd b3 b1 fd bc
       0.036866505 0.04593984 -0.102367245 -0.030968523
000290 94 91 fd 3a 39 8a f2 3d 05 90 25 be 33 85 43 3d
       0.0019345754 0.1184277 -0.1616822 0.04773445
0002a0 4e bc 63 3b 65 3f 05 3e 72 9c b8 b9 20 c0 95 3c
       0.003474969 0.13012464 -0.00035211776 0.018280089
0002b0 b0 b8 c1 bd d1 29 37 3e 9f 01 51 3c 67 2d 0b 3c
       -0.094590545 0.17887045 0.012756734 0.0084947115
0002c0 91 0e 5b bd 51 0b 3f bd 6a ba 5b bd bd 7a fc bd
       -0.05348069 -0.04664165 -0.053644575 -0.12328098
0002d0 e2 96 98 3d 73 9e 94 bd 89 de d0 bb 0d 85 07 3d
       0.074506536 -0.07256784 -0.0063741845 0.03308587
0002e0 3a a8 c2 3d 49 95 0c bd ec ff 28 3f 5d 89 c2 bd
       0.09504743 -0.034322057 0.66015506 -0.09498856
0002f0 0e 9f 1a bc 9d 1f 43 3d fe 19 25 bc e9 47 82 3d
       -0.009437336 0.04763757 -0.010076998 0.06361372
000300 a3 8e e4 bf bb 42 78 bc 84 61 85 bc ad c8 16 3c
       -1.7856029 -0.0151526285 -0.01628185 0.009203118
000310 8f c0 16 3d 56 91 df bc f5 7f 3c bc ef ce 64 3d
       0.036804732 -0.027290981 -0.011505117 0.05586141
000320 fc 42 2f 3c 6e 61 4b 3d 9e e3 09 3e e0 87 3e bc
       0.010697123 0.049653463 0.13465735 -0.011629075
000330 13 44 80 3d d7 c1 50 be e7 19 9e bd db 52 58 be
       0.06262984 -0.20386444 -0.07719784 -0.21125357
000340 f5 fb cd bb c0 62 d8 3e e3 4f 30 bd 9e 8e 93 3d
       -0.006286139 0.4226284 -0.043044936 0.072049364
000350 df ad ac bd 6f 60 87 3e 68 56 1b be cd ef f0 be
       -0.08431601 0.2644076 -0.1516968 -0.47057953
000360 79 59 e5 bc e8 66 5b 3e 1f 6b 36 3d 8a 71 81 bd
       -0.027996765 0.21425974 0.044535752 -0.06320484
000370 a1 cc 7b 3e 2a c4 7d 3e e7 b6 78 3e cc 5b 0d bd
       0.24589778 0.24781862 0.24288522 -0.034511372
000380 0c 9e 40 3c 0e 12 b1 3b c5 5d 3e 3d 30 b1 bc bd
       0.011756431 0.0054037636 0.046476144 -0.09213483
000390 a8 71 e3 3c 9f 09 8b 3d 81 58 b6 3d 77 be f1 3b
       0.027764156 0.067889445 0.089035995 0.0073774415
0003a0 fb 22 6c be 8c ba 03 3e 48 d2 35 3e b9 8f ce 3c
       -0.23060219 0.1286413 0.17755997 0.025215017
0003b0 98 ec fa be d5 13 85 3d 3e 2d b0 3e f3 9c 3b 3e
       -0.49008632 0.06497923 0.34409517 0.1832159
0003c0 97 63 c5 bc fe d3 95 3f d2 c6 54 bd 90 7d ad bd
       -0.02409534 1.170532 -0.051947422 -0.08471215
0003d0 75 8c 84 3c 49 30 6b 3d f9 40 38 be f3 04 09 3c
       0.016180256 0.057419095 -0.17993535 0.008362996
0003e0 e5 7a 1c be 5f 32 3a 3f 7f f3 80 3d 6b 5f bf 3d
       -0.15281256 0.7273311 0.06296443 0.093443714
0003f0 ff 85 29 bf 4a c7 9e 3c 18 0f c2 3d e0 b5 6f be
       -0.66220087 0.019382138 0.09475535 -0.23409224

fc2.bias f4 [64]
000000 92 b3 b4 3d 70 73 d9 3d a8 03 37 3d 59 ac e5 bd
       0.08823313 0.10617721 0.04468122 -0.11214513
000010 a4 2f d5 3d 0c 85 c4 3d ec a2 14 3d 47 eb 22 bc
       0.10409477 0.09595689 0.036288187 -0.00994379
000020 5d 1b ab bd af 15 da 3c 10 75 2c bd f0 93 de 3d
       -0.083548285 0.026621668 -0.042103827 0.108680606
000030 32 9a f7 bd 8c 7f d5 3c 50 f9 1f bb 9c e1 91 39
       -0.12089957 0.026061796 -0.0024410076 0.00027824647
000040 67 1d 77 bc d1 da 51 3d 97 31 d5 bd 90 47 d6 3c
       -0.015082694 0.05123407 -0.10409849 0.02615717
000050 90 79 a5 bd 5e d0 1d 3d eb 21 29 bc ce 1e 7c 3c
       -0.08079827 0.038528793 -0.010323028 0.015388204
000060 28 02 8c 3d 9b d3 45 bd 2a e2 c7 bd cd ae 67 bd
       0.06836349 -0.048297506 -0.09759934 -0.056563187
000070 ef 75 ca 3d 1f 3c ca bd 9f b7 9d 3d 18 83 2f bd
       0.09885775 -0.098747484 0.077010386 -0.04284963
000080 9e 32 d2 3b 12 ce 4b 3d 75 03 2f bd b2 30 ab bd
       0.0064147254 0.04975707 -0.042727906 -0.08358897
000090 30 4d 28 3d 7b 1f 96 3d a7 25 39 3d c9 a7 89 bb
       0.041089237 0.07330223 0.045201924 -0.0042009098
0000a0 1a 77 54 3c 42 6d 50 3d 4f 5f 1e 3d 42 63 76 bd
       0.012967849 0.050885446 0.038665112 -0.060153253
0000b0 b2 0f b3 3d 4d e7 84 bc 08 e6 43 bd 84 db 15 bd
       0.08743228 -0.016223574 -0.047826797 -0.0365863
0000c0 e0 da 83 3c 83 95 80 bd 8c 41 b5 bd 87 97 8a 3d
       0.016095579 -0.06278517 -0.08850393 0.06767183
0000d0 63 1a cb 3d 42 c7 f6 bd cc 92 c5 3d 50 eb 91 bd
       0.09917142 -0.12049724 0.0964714 -0.071249604
0000e0 10 95 ea 3c 65 f5 e5 3d 6c 4c 9b bd 08 53 4c bd
       0.028635532 0.11228446 -0.07582936 -0.049883872
0000f0 94 65 0f 3d 17 33 9b bd 98 69 41 bd db 4e d0 bd
       0.03500898 -0.07578104 -0.047219843 -0.101712905

fc2_bn.weight f4 [64]
000000 23 f2 0d 3f 71 81 07 3f 93 e1 74 3f 09 10 8e 3f
       0.55447596 0.52931887 0.956567 1.1098644
000010 ba ba 2d 3f 73 e5 83 3f 3b 81 aa 3e 80 0b 1b 3f
       0.6786305 1.0304397 0.3330172 0.6056442
000020 35 63 f3 3e 80 2b 1e 3f 23 d0 02 3f e5 28 f0 3e
       0.47536626 0.61785126 0.5109884 0.469062
000030 65 2b 0a 3f b2 cc 05 3f c4 e4 b8 3e 72 d3 b2 3e
       0.53972465 0.52265465 0.36112034 0.34926945
000040 81 70 ce 3e c2 51 0b 3f 58 a2 e4 3e 25 10 d3 3e
       0.4032021 0.5442163 0.44655108 0.41223255
000050 5c dc 42 3f e7 89 00 3f 44 27 15 3f d2 3d f8 3e
       0.7611749 0.5021042 0.5826304 0.48484665
000060 dc 1e ff 3e 1e 33 ff 3e 65 dd ba 3e 79 f9 db 3e
       0.4982823 0.49843687 0.36497036 0.4296377
000070 b9 60 ed 3e 61 74 b6 3e 73 3d da 3e e5 ad 97 3e
       0.46362856 0.35635665 0.42625007 0.29624858
000080 60 ac 0e 3f 03 53 fc 3e ed 06 06 3f af 94 2a 3f
       0.55731773 0.49282083 0.5235432 0.66633123
000090 a1 c5 ab 3e ad 07 a5 3e d8 cf e0 3e 5e 59 04 3f
       0.33549216 0.3223242 0.43908572 0.51698864
0000a0 88 0c b4 3e bb 3a 06 3f b2 dd 19 3f ac 7f 8b 3e
       0.3516581 0.52433366 0.60103905 0.27245843
0000b0 50 b2 95 3e 70 11 85 3e 12 2d 12 3f a8 1f e5 3e
       0.29237604 0.25989866 0.5710002 0.44750714
0000c0 11 54 fb 3e 1e 53 d2 3e 14 bc c3 3e ca 44 03 3f
       0.49087575 0.41079038 0.3822943 0.5127684
0000d0 a4 ac 34 3f 45 73 36 3f f3 98 f1 3e 46 c3 85 be
       0.7057593 0.7126964 0.47187003 -0.26125544
0000e0 af ad f9 3e 21 60 de 3e e3 0c a0 3e a7 a0 03 3f
       0.48765323 0.43432716 0.31259832 0.5141701
0000f0 c3 19 ba 3e 9e bb b6 3e c8 e4 a4 3e 86 11 2b 3f
       0.3634778 0.35690016 0.32205796 0.66823614

fc2_bn.bias f4 [64]
000000 3e 76 31 bd 30 c5 d9 be 7f a3 01 bf 34 3c 9d bf
       -0.043325655 -0.42533255 -0.506401 -1.2283998
000010 09 e7 07 bf 5e 1e ee 3c b2 f5 c0 be 5d c2 3a be
       -0.53086907 0.029067215 -0.3768745 -0.18238206
000020 3e bd 47 be 7f 5c b9 be ed 68 1b be cd c3 d3 be
       -0.19505784 -0.3620338 -0.15176745 -0.41360322
000030 e7 e6 ce be 3d 36 64 be 57 31 ad be 12 52 05 be
       -0.4041054 -0.22286315 -0.33826706 -0.13019589
000040 e0 c3 85 be 11 b8 d5 be 59 14 0c 3e e1 5e ad be
       -0.26126003 -0.41741994 0.13679637 -0.3386145
000050 3e 3e 2f bf 6b fc f8 be c5 c1 bf be 2e df 10 bf
       -0.6845435 -0.4863008 -0.37452522 -0.56590545
000060 8a 41 e7 be 19 1f 89 be 2b 67 c9 bd 6e 6c d7 be
       -0.4516719 -0.26781538 -0.09834131 -0.42074913
000070 d1 df 7f be 81 71 30 3e 9b 27 b8 be 57 c2 af bd
       -0.24987723 0.17230798 -0.35967717 -0.08581989
000080 7b 85 32 bf 6b 06 05 bf ba 71 02 bf 40 92 8a be
       -0.69734925 -0.5196292 -0.5095478 -0.27064705
000090 76 e6 d1 be 48 03 bb be d5 ee e2 be ab 9c e1 be
       -0.4099614 -0.3652594 -0.4432284 -0.4406484
0000a0 df ed 3b be 36 e7 01 be ce 3e 05 be c4 24 ab 3d
       -0.1835246 -0.12685856 -0.1301224 0.08356622
0000b0 75 31 04 be 61 e9 d9 bd 4c 7d fa be 47 32 0c 3e
       -0.12909491 -0.106402166 -0.4892372 0.13691054
0000c0 3d 52 f8 be d5 58 0b bf 67 f3 ae bd 71 2c 7a be
       -0.48500243 -0.5443242 -0.08542519 -0.24431016
0000d0 22 97 08 3e 95 63 c1 be 94 8b 11 be c0 9b b5 bd
       0.13338903 -0.37771288 -0.14213401 -0.088675976
0000e0 0e 66 8c bd 66 da 69 be c9 6b a9 bc e2 fb b3 be
       -0.06855403 -0.22837219 -0.020681279 -0.3515311
0000f0 a7 2b c8 3c 84 a1 16 be bd 49 f1 bd bb 11 4e be
       0.024434878 -0.14710051 -0.117816426 -0.20123951

fc2_bn.running_mean f4 [64]
000000 c0 b4 e9 bf 25 8c 03 c1 73 51 c1 c0 92 3f c7 40
       -1.8258286 -8.221715 -6.0411925 6.22651
000010 b2 72 47 c1 37 ff 36 c0 1a 3c eb c0 d2 66 a0 41
       -12.465502 -2.859327 -7.3510866 20.050205
000020 a7 dc 8e c1 c8 10 71 c1 1d e8 66 c0 76 89 8b c1
       -17.85774 -15.066597 -3.607917 -17.44212
000030 4b fc 43 41 ca 18 6d 3f 99 4a 2c c1 f2 96 87 c1
       12.249095 0.9261595 -10.768212 -16.948704
000040 3b 6a d2 c0 84 41 ec be 5b 11 2c 3f d6 3e 6c c1
       -6.5754676 -0.46143734 0.6721398 -14.765341
000050 52 44 c7 c0 b2 cd fa c0 3e 95 17 c1 7a 64 03 c1
       -6.22709 -7.8376093 -9.473936 -8.21203
000060 1e 50 e9 c0 5e 1e 22 c0 e1 02 80 c1 ca 67 f1 c0
       -7.29103 -2.5331035 -16.001406 -7.5439196
000070 91 2c 93 3f c2 0f 96 c0 cb 4c e9 c0 03 20 ed c0
       1.1497976 -4.6894236 -7.290624 -7.4101577
000080 c2 aa f4 c0 54 d3 47 c1 9e 45 26 c1 24 fa d7 c0
       -7.6458445 -12.489094 -10.391996 -6.7492847
000090 54 33 7c c0 ea a2 fd c0 9c ed a9 40 d7 f6 02 c0
       -3.9406328 -7.926137 5.310255 -2.046316
0000a0 e0 b6 70 c0 c6 e8 01 c1 7f 6e 20 c0 b0 53 f4 be
       -3.7611618 -8.119329 -2.5067441 -0.47720098
0000b0 3e 40 f9 c0 81 fc 26 c1 83 e0 02 c1 57 d2 f0 c0
       -7.789092 -10.436646 -8.179812 -7.5256763
0000c0 d5 48 19 c1 8d 84 30 c1 8d 23 6a c1 e6 8b 62 3f
       -9.580281 -11.032361 -14.633679 0.8849472
0000d0 ec 06 a3 c0 ca 8d 2b c1 90 21 40 40 ec eb a8 40
       -5.094595 -10.722116 3.0020485 5.278799
0000e0 cd e5 b4 40 cd 9d 5f c0 b8 61 63 be 4f 8c 10 c1
       5.653052 -3.4940064 -0.22205245 -9.034255
0000f0 30 f2 dc c0 01 c8 12 40 92 2d d4 3c 49 e6 14 c0
       -6.904564 2.2934573 0.025900636 -2.3265555

fc2_bn.running_var f4 [64]
000000 3a 19 4e 42 73 a4 c1 42 81 77 9c 42 12 d5 9d 42
       51.524635 96.82119 78.233406 78.91615
000010 93 be 01 43 a5 11 2a 42 b3 d6 c2 42 06 c0 c5 42
       129.74443 42.51723 97.419334 98.875046
000020 e2 86 10 43 4d ce 0f 43 83 43 97 42 f2 54 e7 42
       144.52689 143.80586 75.63186 115.66591
000030 ec f4 32 43 d9 0e 40 42 36 59 9e 42 1d 26 cf 42
       178.95673 48.0145 79.17424 103.57444
000040 4d 9a 8d 42 c1 6b d4 42 41 01 57 42 28 86 01 43
       70.80137 106.21046 53.751225 129.52405
000050 a5 d5 d5 42 da 3e bf 42 d2 d4 45 42 34 2a 08 43
       106.917274 95.62276 49.457832 136.16486
000060 99 b0 b6 42 87 62 cb 42 3e ef 94 42 0e 19 b9 42
       91.34492 101.69244 74.46727 92.548935
000070 36 a2 d1 42 0e ea 1d 43 63 8e ad 42 fd 51 8d 42
       104.81682 157.91428 86.7781 70.66013
000080 16 f6 60 42 1e 44 b6 42 25 a9 e9 42 1b d6 c7 42
       56.24032 91.13304 116.83036 99.918175
000090 d3 d5 38 42 ee d2 86 42 55 3a 9f 42 1c fb af 42
       46.208813 67.41197 79.61393 87.99045
0000a0 6e fc 67 42 95 ad 1f 43 e5 34 1d 42 d4 00 b2 42
       57.996513 159.67805 39.301655 89.00162
0000b0 75 d4 c5 42 07 37 92 42 6c c8 97 42 f4 3f ad 42
       98.914955 73.107475 75.89145 86.62491
0000c0 77 4f d7 42 46 de b5 42 a4 23 ec 42 73 6d 6a 42
       107.655205 90.93413 118.06961 58.606884
0000d0 79 6a f9 42 28 59 4b 43 7c bf 97 42 37 16 90 42
       124.707954 203.34827 75.87399 72.04339
0000e0 59 45 08 42 7d 2b 18 43 14 79 e4 42 a5 7f 03 43
       34.067722 152.16988 114.23648 131.49861
0000f0 4f 60 a3 42 82 25 c1 42 65 97 8a 42 5e 60 26 42
       81.6881 96.57326 69.29569 41.59411

fc3.weight f4 [64, 64]
000000 ce 39 c7 3e 0e c5 4f 3e 01 c4 1b 3f c9 7e a6 be
       0.3891129 0.20290014 0.60845953 -0.32518604
000010 17 8e 1a 3e 9a 47 8f 3f 2c 6c 65 be 8a 8f a1 3d
       0.15093265 1.1193726 -0.22404546 0.07888706
000020 09 eb 30 bd c4 0d a5 3c e3 39 0a 3e c1 16 ea 3e
       -0.043192897 0.020148166 0.13498645 0.45720485
000030 45 09 ac bc 5f c5 2e 3e f3 67 1a be d0 5b 60 bc
       -0.021000514 0.17067479 -0.15078716 -0.013693765
000040 a5 ae 05 3f da 57 9f bd 9b 71 dc 3e 4f ad 04 bc
       0.5221961 -0.07780428 0.43055424 -0.008097961
000050 fe f9 6e 3e cb 22 ca 3e d1 af cc 3e e9 61 81 3e
       0.23337552 0.3947967 0.39977887 0.25270012
000060 48 72 99 be 3a ce 5b 3e 6d e8 59 be f6 d9 3d 3e
       -0.29970002 0.21465388 -0.2128007 0.18540177
000070 58 e1 bd 3e 6e 4a 05 3e 72 a9 c5 3e 4c a6 97 3c
       0.37085986 0.13016674 0.3860584 0.018511914
000080 38 bb 8b 3e 2f c1 7b be 91 1a 37 bf 88 58 34 be
       0.27291274 -0.24585412 -0.7152491 -0.17611897
000090 b7 b6 f1 3d ba 20 0f bf 84 4b f9 3e 8e eb 71 be
       0.11802428 -0.5590931 0.48690426 -0.23625013
0000a0 7b ec 92 3e b5 2b c4 3e e9 91 7f be 0b 6b c1 3e
       0.28696045 0.38314596 -0.24958004 0.3777698
0000b0 f0 f5 20 3f de db f1 3e c9 de 48 bc 46 1a 23 be
       0.6287527 0.47238058 -0.012260147 -0.15927991
0000c0 51 85 67 3e f7 65 33 bf f4 3a 55 be 13 9d 06 3e
       0.2260945 -0.7007746 -0.2082327 0.13145857
0000d0 50 5e 43 be 8a 0e f5 3d f8 01 80 be 53 69 98 bd
       -0.19078946 0.11965664 -0.25001502 -0.07441964
0000e0 b4 d2 cd 3c 36 22 da bd 13 6c 9f bc 83 72 c1 3d
       0.025124885 -0.106510565 -0.019460713 0.094456695
0000f0 ea d1 8a 3e 10 68 c7 3d 73 48 f3 bd 57 56 a4 be
       0.27113277 0.09736645 -0.11879053 -0.32097122
000100 44 6f 5e 3d d9 5c 85 3e b3 38 91 3e 71 2c 61 bf
       0.05430533 0.260474 0.2836357 -0.8795844
000110 d9 bb 96 3b fc d3 e2 3e 6b 17 2e be bb 16 18 be
       0.00460003 0.44302356 -0.17001121 -0.14852421
000120 2f f7 1d be 96 42 95 be 11 88 76 3e 10 51 0b bd
       -0.15426324 -0.29152364 0.24075343 -0.034012854
000130 b9 ab 49 bf 6b 83 9f 3e cc 31 10 be 70 cd b2 3e
       -0.7877765 0.3115495 -0.14081496 0.3492236
000140 aa e8 02 be 1a d5 0a 3f a7 14 26 be 54 59 ed 3c
       -0.12784067 0.5423142 -0.16218816 0.028973259
000150 56 29 0a 3d 48 73 69 3d 35 60 e3 3e 35 37 32 be
       0.033730827 0.056994706 0.44409338 -0.17403872
000160 cc ee 67 bd 12 f4 3d 3e d8 53 2c 3d bb 62 19 be
       -0.05662422 0.18550137 0.042072147 -0.14979069
000170 1c f8 90 3e 35 da be 3e af d5 fe bc 81 ea ce 3e
       0.28314292 0.37275854 -0.031107752 0.40413287
000180 24 47 72 3e f0 11 33 bb 44 79 bd be b6 14 c4 be
       0.2365995 -0.0027323924 -0.3700658 -0.3829705
000190 07 ef 4a 3e 7b 74 93 be 8d c1 2d 3e a3 6a b1 3e
       0.19817744 -0.28799805 0.16968365 0.3465167
0001a0 80 b9 e1 3e 8a 54 02 be 18 61 25 be b4 09 b9 3b
       0.44086838 -0.12727562 -0.1615032 0.0056469087
0001b0 e5 3c 1c 3e 46 44 dc bd f8 29 6c 3e 44 5c 2b 3e
       0.15257604 -0.107552096 0.23062885 0.16734415
0001c0 d8 c7 82 3e 9a 59 43 bd 43 97 93 be 30 39 dd 3d
       0.25543094 -0.047692873 -0.2882634 0.10801923
0001d0 95 7c 85 bf b2 ad 1f 3e 7a 2e db 3e 00 82 48 bd
       -1.0428644 0.15593603 0.42808896 -0.048952103
0001e0 2f ec 9a 3e 56 51 da bd 7e 9d 19 3e a7 5c bd be
       0.3025832 -0.10660045 0.15001485 -0.3698475
0001f0 bb 9b a0 3e 25 c9 a6 bd cc 29 9a be c4 ac 37 3e
       0.31368813 -0.08143834 -0.30110013 0.17936999
000200 13 0d 90 3e 42 fc 68 3f 4a cc 44 3e 9b cc 04 bf
       0.28134975 0.91009915 0.19218555 -0.51874703
000210 2d fb e0 bc d6 f6 39 3d 5f 8b 64 3d fb fa 2a bd
       -0.02746352 0.045401417 0.055796977 -0.04174326
000220 28 44 80 3d 49 58 2a bc 66 cc 03 bd 8b 92 16 3e
       0.06263 -0.010397025 -0.03217735 0.14704339
000230 2a 4c 3d be 97 8f 03 3e 4a 3a ae 3e 02 6a 34 3e
       -0.18486086 0.12847744 0.34028846 0.17618564
000240 e7 43 f3 be 34 05 3f 3f 00 d2 51 3e 6a 9b 57 bc
       -0.47512743 0.74617314 0.20490265 -0.013159612
000250 a3 52 a2 bd 0f 5a 3c be fb 51 ad 3e 59 ca d7 be
       -0.07925918 -0.1839373 0.3385161 -0.42146567
000260 01 18 ec 3e 7f 59 a8 3d fe 70 7c bf 66 4f 08 3e
       0.46112064 0.08220195 -0.9860991 0.13311538
000270 15 c6 98 3e 9a 24 52 be d3 27 26 be d0 b4 8a be
       0.29838625 -0.20521775 -0.16226129 -0.27091074
000280 d2 bd 0b 3f 20 17 f3 be 05 68 08 be 58 54 92 be
       0.5458652 -0.4747858 -0.1332093 -0.28579974
000290 c3 a2 5c 3c b9 1f 2c 3f b6 99 8b bd 02 7f a0 3c
       0.01346654 0.67235905 -0.068164274 0.019591812
0002a0 ec dc c0 3d 58 12 e9 3e 97 02 db 3d 7c 8b 3d 3e
       0.094171375 0.45521808 0.10693853 0.1851024
0002b0 96 21 1d 3e a6 10 c6 3e 9c b3 9a 3e 34 b2 82 3e
       0.15344843 0.38684577 0.30215156 0.25526583
0002c0 50 e0 bb be db 9e 66 be 37 63 95 3e e2 70 0e 3e
       -0.36694574 -0.22521536 0.29177257 0.13910249
0002d0 50 02 b1 3e 08 a4 27 3e 5a c7 fe 3e 94 ba 4c 3e
       0.34572077 0.16371167 0.49761468 0.19993049
0002e0 82 5d 6e 3e 31 0d c3 be c2 2c d1 3e 76 dc 02 bd
       0.23277858 -0.38096002 0.4085446 -0.03194853
0002f0 c9 ee 02 be 5f 5d df 3e 9e 27 8f 3e 84 8f 7b be
       -0.12786402 0.43625924 0.27959913 -0.24566466
000300 46 3c e8 be 55 69 a7 3d b8 41 6c 3d 63 89 0c 3f
       -0.45358485 0.08174387 0.05767986 0.54897135
000310 74 69 2e 3d d8 6c 5c be 76 68 87 3e 4d c4 f7 be
       0.042581037 -0.21525896 0.26446885 -0.48391953
000320 56 80 61 bf d3 d5 48 3f 1a 62 9b 3e 45 4a ce 3d
       -0.8808645 0.7845127 0.30348283 0.100727595
000330 a5 91 ba bc ba 80 0f 3e d1 c1 b8 3e 93 74 4f bc
       -0.022774527 0.14013949 0.3608537 -0.012662071
000340 5d c8 e6 bc c2 fb e8 3d dd e5 59 3d be ca 4f be
       -0.028171713 0.11376144 0.05319773 -0.20292184
000350 b3 a9 c9 bd 32 e1 3d bf 8d ec 2d bf 8e ad e3 3d
       -0.09846821 -0.74171746 -0.6793907 0.11117087
000360 db 39 a7 3e dd 4c da bc 5a 6b 6c be 1f fc d9 be
       0.32661328 -0.02664798 -0.23087826 -0.42575166
000370 84 d5 8b 3d cf 01 cc bd da ee 1f bf 4f d4 41 3e
       0.06827834 -0.099612825 -0.62473834 0.18928646
000380 68 af 29 be d7 04 a9 be 2a a4 a6 3e 5b 10 04 3e
       -0.16570818 -0.33011505 0.32547122 0.12896864
000390 05 9d e3 be e6 e1 46 3e ca a9 58 be 1e e2 94 be
       -0.44455734 0.19422111 -0.2115852 -0.29078764
0003a0 90 81 73 3e 29 6a d1 bd 21 96 8b 3d e4 24 02 3e
       0.23779893 -0.102253266 0.06815744 0.12709385
0003b0 40 87 f6 3d 68 06 78 3d c7 bd b7 bd 58 00 03 bf
       0.12037516 0.060552984 -0.08971744 -0.511724
0003c0 0f 55 be be 4c 70 80 bf 92 55 84 bd 16 cb 25 3d
       -0.3717427 -1.003427 -0.06461634 0.04047688
0003d0 9d 14 5e be a6 21 1c 3d 91 1e 08 3e 7e 45 4e be
       -0.21687551 0.038118027 0.1329291 -0.20143697
0003e0 0e ec f4 be bb 0a ad be 1e b1 31 be 1d 2e 84 be
       -0.47836345 -0.3379725 -0.17352721 -0.25816432
0003f0 14 db 35 be d5 28 9d bd 1a fe 58 bc 65 d4 0e 3e
       -0.17759353 -0.07673804 -0.013244176 0.1394821

fc3.bias f4 [64]
000000 b2 d4 7b 3b 2a 15 42 3d a1 a2 a9 3d 2a 62 52 bd
       0.0038426337 0.047383465 0.08282972 -0.051363148
000010 d0 95 27 bd 79 56 69 3d a9 b7 fc bc b9 4a 10 3d
       -0.040914357 0.056967232 -0.030849295 0.03522751
000020 20 c1 5e 3d 09 cd a2 bc 95 39 10 bd 07 da e8 3d
       0.054383397 -0.019873159 -0.035211165 0.113697104
000030 69 80 46 3d 97 5a f9 bd eb 99 f0 bd 24 48 a9 bc
       0.048462305 -0.12175482 -0.117481075 -0.020664282
000040 e0 b9 99 bd e1 ad cb 3d 32 44 bc 3d be 69 a7 3d
       -0.07506156 0.09945274 0.09192695 0.081744656
000050 6e 7e d3 3d f2 98 c0 3d d8 43 d3 3d a7 f5 93 3b
       0.10326849 0.09404172 0.103156745 0.004515368
000060 1d 90 de 3d 09 40 29 3d fd af 82 3d 39 bb 7e bd
       0.10867331 0.041320834 0.06381223 -0.06219027
000070 84 7f 5f 3d 17 32 d7 bd a6 9b 1d 3b 03 71 8f bd
       0.054564968 -0.10507601 0.0024049073 -0.07003977
000080 a3 69 44 3c 14 76 54 3c 78 57 62 bc 3f 63 fe 3d
       0.011988076 0.012967605 -0.0138147995 0.124212734
000090 dd 65 ed bd 4e a2 fb bd 82 97 01 3c fe d7 a8 bd
       -0.115916945 -0.122868165 0.007909657 -0.08244322
0000a0 91 e4 a8 bd a9 a5 96 bd e9 67 cd 3d e2 8e a2 bd
       -0.082467206 -0.07355816 0.10029585 -0.07937409
0000b0 32 8e d2 bd a6 57 b8 3d d0 bd a4 bd b8 80 66 bc
       -0.10281028 0.090010926 -0.08044016 -0.014068775
0000c0 5d b1 99 bd 8b 8b 17 3d 47 99 dd 3d 39 6e 9a bd
       -0.075045325 0.036998313 0.10820251 -0.075405546
0000d0 b9 cd b9 bd d5 57 55 3d d8 c3 9a bd 1e 01 43 3d
       -0.090724416 0.052085716 -0.075568855 0.047608487
0000e0 4f fe 9d 3d 08 a1 c1 3d 22 0d 83 3c d8 fe ea 3d
       0.07714521 0.094545424 0.015997473 0.11474389
0000f0 5e 35 07 bd 68 fe 91 3d 83 1d 20 bd 34 6a 8a bd
       -0.03300988 0.07128602 -0.039090645 -0.06758538

fc3_bn.weight f4 [64]
000000 78 60 2a 3f 1e 7f 0d 3f cd 17 03 3f 7b 3d 8f 3f
       0.6655345 0.5527209 0.5120819 1.1190637
000010 96 c4 85 3f 58 ce c4 3f 63 b1 2f 3f 21 7e f6 3e
       1.0450618 1.5375471 0.68630046 0.48143104
000020 b3 93 91 3f 5e 55 c2 3f e8 9c 7b 3f 40 bb 6e 3f
       1.1373199 1.5182302 0.98286295 0.9325447
000030 1c df b6 3e 43 62 37 3f 62 0c cf 3f 75 c2 95 3f
       0.35717094 0.7163431 1.6175654 1.1699969
000040 7a e5 f5 3f 4a 20 93 3f 64 a4 96 3f c7 09 ad 3f
       1.9210656 1.1494229 1.1768918 1.3518609
000050 00 67 44 3f 5f a3 35 3f 6c 64 50 3f c7 71 87 3f
       0.76719666 0.7095241 0.8140323 1.0581597
000060 31 ba a0 3f f9 d7 47 3f c0 a3 9f 3f 30 1b a8 3f
       1.2556821 0.78063923 1.2471848 1.3133297
000070 70 20 77 3f 60 16 c5 3f 0a c5 db 3e 24 cc 60 3f
       0.9653387 1.5397453 0.42923766 0.87811494
000080 bf c6 76 3f 5c ed 94 3f 37 fb c6 3f 36 3a 7c 3f
       0.9639701 1.1634936 1.5545415 0.9852632
000090 1f 3b 7d 3f 0b 38 c3 3f c1 e5 0c 3f f2 d9 38 3e
       0.98918337 1.5251478 0.55038077 0.1805189
0000a0 1f bd 6a 3e 16 14 d4 3f 30 8a a1 3f 79 25 3e 3f
       0.22923706 1.656863 1.2620296 0.7427593
0000b0 2f 06 0e 3f 6b de 41 3f 52 f3 9a 3f d9 12 48 3f
       0.55478185 0.7573001 1.2105505 0.7815376
0000c0 91 0d a1 3f 1a 01 75 3f 8b 94 c8 3e e2 98 b4 3e
       1.2582265 0.95704806 0.3917583 0.3527289
0000d0 32 b3 96 3f bc 74 c6 3e dc 96 9e 3f cf 52 bc 3f
       1.1773436 0.38760936 1.2389789 1.4712771
0000e0 04 28 f5 3e f4 d1 68 3f b2 66 57 3f 54 07 8b 3f
       0.47882092 0.90945363 0.84141076 1.0861611
0000f0 bd 84 f2 3f 17 5c 63 3e 13 4f 83 3f a8 09 c1 3f
       1.8946759 0.22203098 1.0258507 1.5081072

fc3_bn.bias f4 [64]
000000 3c 53 15 3f db 1a 53 3f 3d 71 a2 3e a6 a0 78 bf
       0.5833013 0.82462853 0.3172702 -0.9712013
000010 62 ed 67 bf 28 0c a7 bf fb 57 c6 3e e6 fc f6 be
       -0.9059659 -1.3050585 0.38739 -0.4823982
000020 ef dd 0f bf ac 86 b5 bf c5 50 74 bf 9e b4 99 bf
       -0.5619802 -1.4181724 -0.95435745 -1.2008245
000030 fc 54 03 3f 0f fa 49 bf 7d 84 cd bf 01 48 a3 bf
       0.5130155 -0.78897184 -1.6056057 -1.2756349
000040 2e 0c cb bf 20 81 7d bf fb f4 9a bf 6d d8 c1 bf
       -1.5863092 -0.99025154 -1.2106012 -1.5144173
000050 f2 b1 27 bf ff 8f 8e bf 81 7a 37 be 04 d7 95 bf
       -0.655059 -1.1137694 -0.17917825 -1.1706243
000060 6d 2e 99 bf 76 49 57 bc f9 30 94 bf 2e 20 ab bf
       -1.1967293 -0.013140073 -1.1577445 -1.3369195
000070 92 a1 91 bf 50 d0 a8 bf 57 72 28 bf 85 aa 82 bf
       -1.1377432 -1.3188572 -0.6579947 -1.0208288
000080 1a a8 23 bf 86 15 85 bf 5d 18 b1 bf b7 e6 97 bf
       -0.6392838 -1.0397193 -1.383556 -1.1867284
000090 da 82 94 bf bd ef a4 bf 95 d9 0a bf 7a 57 33 3f
       -1.1602433 -1.2885662 -0.54238254 0.70055354
0000a0 b7 55 2e 3f 4f 32 ac bf 79 ca a5 bf a2 02 0d bf
       0.6809954 -1.3452853 -1.2952415 -0.5508214
0000b0 be 03 74 3e 75 3b 6b be 3a 74 95 bf ec 63 25 bf
       0.23829553 -0.229719 -1.1676095 -0.64605594
0000c0 5c 32 ab bf d8 2c 91 be e7 29 0c 3f ea 2d a1 3e
       -1.3374743 -0.28354526 0.5475144 0.31480342
0000d0 88 a8 a7 bf d6 11 f3 3c 1e a6 91 bf 81 a1 a5 bf
       -1.3098307 0.02967159 -1.137882 -1.2939912
0000e0 c9 5a 08 bf 45 30 89 bf bc c9 98 bf 72 a1 20 bf
       -0.5326353 -1.0717856 -1.1936564 -0.62746346
0000f0 25 84 b7 bf 4c 86 5f 3f 08 4e a0 bf 9f dc a4 bf
       -1.4337202 0.87314296 -1.2523813 -1.2879828

fc3_bn.running_mean f4 [64]
000000 b4 83 50 3f bb 1d f8 3d 28 7e 1e 3f b4 1e 20 bf
       0.81450963 0.12115046 0.6191125 -0.6254685
000010 60 52 1d bf ec eb f1 be 27 6a 22 3f 90 bc e1 bd
       -0.6145382 -0.47250307 0.63443226 -0.110222936
000020 e1 66 c3 be 00 40 33 bf 51 a8 22 bf c8 83 16 bf
       -0.38164428 -0.7001953 -0.6353808 -0.5879483
000030 bc ac a8 3e 22 b2 78 bf 98 da 93 be d1 be d8 bd
       0.32944286 -0.9714681 -0.2887771 -0.1058327
000040 b6 14 ea be bb a6 74 bd d8 ec 00 bf 7c 23 a7 be
       -0.45718926 -0.05972932 -0.50361395 -0.3264426
000050 92 6d 12 3f a9 19 bb be d7 0f 9f be a2 e7 0f bf
       0.5719844 -0.36543015 -0.31066772 -0.5621282
000060 06 15 52 be d4 9e f8 be c8 5e 71 be de 29 ed be
       -0.20515832 -0.48558676 -0.23571312 -0.46321005
000070 59 0f 1e bf a8 9c 6c be d9 1b 33 bf 0b e1 10 be
       -0.6174217 -0.23106635 -0.6996437 -0.14148347
000080 5e df 63 bd e6 a6 fb be fa 01 ef be d5 3a 1a bd
       -0.05563294 -0.4915077 -0.46681195 -0.037653763
000090 89 95 b8 be 08 ea 30 bf 44 76 f4 be 31 06 87 3c
       -0.36051586 -0.69107103 -0.4774648 0.016482444
0000a0 64 fe 46 3d 6b 4b 53 bf 56 a5 d8 be b8 92 33 bf
       0.04858245 -0.82536954 -0.4231364 -0.7014575
0000b0 fb d5 01 3e 46 ae 88 bd 8f 5b b1 be 8c c9 93 bd
       0.12679283 -0.06673865 -0.34640166 -0.072161764
0000c0 bc 17 47 be d1 4c 01 bf f2 be c7 be e4 e0 08 3e
       -0.19442648 -0.5050784 -0.39012867 0.13367039
0000d0 7d b9 c1 be fc c7 9f 3e c8 05 3c bf c6 18 25 3e
       -0.3783683 0.31207263 -0.7344632 0.16122732
0000e0 ef b1 09 bf 9f f8 25 bf 8a 8d df be 05 de 9c be
       -0.5378713 -0.6483249 -0.43662673 -0.30638137
0000f0 c2 f6 ac be 42 40 d8 3e 9e 35 ce be 04 d2 59 bf
       -0.3378201 0.42236525 -0.40275282 -0.85086083

fc3_bn.running_var f4 [64]
000000 ab 70 54 3f ce e6 94 3f 05 a7 8a 3e ab 08 af 3e
       0.8298442 1.1632936 0.2708055 0.341863
000010 7f f2 01 3f 17 9a cd 3e 0b 94 dd 3e a8 32 a0 3e
       0.50760645 0.40156624 0.4327701 0.31288648
000020 0e b4 2f 3f 8c d5 a9 3e 13 e1 31 3f 5f b4 12 3f
       0.68634117 0.33170736 0.6948406 0.57306474
000030 e7 72 88 3f 08 bb 03 3f 9b 50 0b 3f 87 5c 98 3e
       1.0660065 0.5145726 0.5441987 0.29758093
000040 48 a7 09 3f 87 ea bb 3e ef 89 cd 3e 78 59 9d 3e
       0.53770876 0.36702368 0.40144297 0.30732322
000050 41 8b 04 3f 8f e2 32 3e cd 41 2d 3f 08 a7 b3 3e
       0.51774985 0.17469238 0.6767853 0.35088372
000060 85 c0 13 3f 23 99 ac 3e 60 7c 08 3f 38 e2 a3 3e
       0.57715636 0.33710584 0.5331478 0.3200853
000070 9a 94 8f 3e d7 db cd 3e ba 0c 57 3e 66 cc c6 3e
       0.28043061 0.40206787 0.21000949 0.3882782
000080 4e 2b aa 3e 7a fd d9 3e 4e 64 e9 3e 9d bf a4 3e
       0.33236164 0.425762 0.4558434 0.3217744
000090 cc d1 a8 3e 4a 97 2e 3f 25 f0 14 3f 94 ff 72 3f
       0.32972562 0.681996 0.5817893 0.9492123
0000a0 45 3f bb 3f 3c 1c 0f 3f 65 bc bb 3e 51 79 85 3e
       1.4628683 0.5590246 0.3666717 0.2606912
0000b0 54 8d ec 3e df 6e c3 3e fe 13 d0 3e 5c 8f e5 3e
       0.46201575 0.38170525 0.40640253 0.44835937
0000c0 74 f4 2b 3f d3 c3 87 3e 36 13 0b 3f 1a 75 fb 3e
       0.6716988 0.2651659 0.5432619 0.4911278
0000d0 0e 48 ea 3e ae 2c 6c 3e 37 17 f8 3e 5e ac e9 3e
       0.45758098 0.23063919 0.48455212 0.45639318
0000e0 3d 96 36 3e 2b c1 8d 3e a3 61 83 3e 6a 81 29 3f
       0.17830749 0.27686438 0.25660428 0.66213095
0000f0 a0 c4 21 3f 40 65 82 3f 48 66 94 3e f3 68 0b 3f
       0.6319065 1.0187149 0.28984284 0.54457015

fc_out.weight f4 [1, 64]
000000 cf f7 95 be 9d 24 bc be c5 9c dc bd e1 9a 8a be
       -0.29290625 -0.36746684 -0.10772089 -0.27071288
000010 2e fc 05 c0 22 fe af bf 97 24 d8 bd 0b 61 3f bf
       -2.0935168 -1.374943 -0.10553854 -0.7475745
000020 80 7f 21 bf c5 f5 08 c0 e7 6f 2d c0 be 47 3a bf
       -0.63085175 -2.1400006 -2.709955 -0.7276572
000030 6b c3 11 be 45 c2 03 bf 2f 64 13 c0 8b 29 1c c0
       -0.14234702 -0.51468307 -2.3029897 -2.4400356
000040 79 08 c2 bf 87 ed 7a bf de 59 e2 bf b5 2a 08 c0
       -1.5158836 -0.9801869 -1.7683675 -2.1276066
000050 7c 8d 7d be be 11 01 c0 52 63 d9 bd 28 0b dc bf
       -0.24761003 -2.016708 -0.10614647 -1.7190905
000060 02 da e5 bf 0f 43 5e be e0 25 2c c0 67 54 d5 bf
       -1.7957156 -0.21705268 -2.6898117 -1.6666383
000070 74 10 01 c0 53 0f d5 bf b6 3d 60 bf 07 7b aa bf
       -2.0166292 -1.6645302 -0.87594163 -1.3318795
000080 43 fc 16 be c6 46 ee bf 36 9d e5 bf 9b 89 46 bf
       -0.14744668 -1.8615348 -1.7938602 -0.7755372
000090 40 33 05 c0 e6 50 f8 bf 7a f4 a0 be 2f 95 ee be
       -2.081253 -1.9399688 -0.3143652 -0.46598193
0000a0 6b 50 43 be 47 76 01 c0 62 0b 98 bf 9b 16 e4 bd
       -0.19073646 -2.022844 -1.1878474 -0.11137124
0000b0 04 a0 c6 bd 9a 23 8e bd fe 8d b4 bf 9f ff b8 be
       -0.09698489 -0.06940384 -1.4105833 -0.36132523
0000c0 ff a0 b0 bf 43 2e a4 bd 59 1c 3e be 0f de 25 be
       -1.3799132 -0.08016636 -0.18565501 -0.1619799
0000d0 d5 ae 01 c0 5b 45 92 bd 26 23 8b bf 7d 1c 20 c0
       -2.026296 -0.07142135 -1.0870101 -2.5017388
0000e0 f5 f0 9b be ab de 98 bf af 53 14 c0 bc d1 7f be
       -0.30457273 -1.1942953 -2.3176076 -0.24982351
0000f0 b9 ec e2 bf 57 8b 23 bf 28 4e 0d c0 b7 fa ed bf
       -1.7728492 -0.6388449 -2.2078953 -1.8592137
